bs16_lr0.1_weight.pt (torch, 240184 bytes, 7 tensors)

conv_1.weight f4 [16, 3, 3, 3]
00000000: f3ec 1ebf 1da6 10bf dc6a e7be f740 17bf
00000010: cbb0 1abf 3c8d d2be 2a66 30bf f53b 15bf
00000020: 09f6 02bf 22b9 283f 38b6 1c3f 3712 253f
00000030: 1ce0 dd3e 5d58 f53e b62b 1bbf 5d95 e03e
00000040: 86e0 d6be ef41 48bf 00f9 f23e 591b dc3e
00000050: 331e 1c3f b97f e43e 1f70 293f f4d6 283f
00000060: 613f 3a3f 818c 053f 5d6d 303f 8e93 363f
00000070: 3336 0d3f 879d 313f a44e cc3e f262 cd3e
00000080: e882 f43e 8e11 3f3f 5cf1 3d3f 77a2 403f
00000090: 5d60 333f 643e 313f 3436 233f d63c 45bf
000000a0: a2f8 47bf a7dc 0abf 71bb 00bf 2255 10bf
000000b0: 1104 0fbf 975c ccbe 8cd9 22bf c2d4 e7be
000000c0: 8e75 f1be 7760 e5be 35dc d0be 6ab7 f3be
000000d0: cdd4 3fbf 13b7 43bf 78da 353f 896e e43e
000000e0: eec9 de3e e4b3 2c3f a866 df3e 85de e93e
000000f0: f838 e5be e933 403f 55ed 353f dfbd 0ebf
00000100: 868f 1a3f f5a3 cc3e b6dd 0abf 91b5 423f
00000110: 2a52 e43e 0824 07bf be2d 423f acfc d93e
00000120: 4ea1 f8be bec1 0abf 5207 38bf 1ad6 e8be
00000130: 4339 10bf eaee e3be 9e67 16bf 2788 03bf
00000140: c1d4 0bbf c0bf 063f b990 03bf a504 43bf
00000150: 4ed6 13bf 781e 1abf 64b2 f0be bdb5 13bf
00000160: f2d6 26bf e828 41bf 54bb debe 6976 3ebf
00000170: 8f92 24bf 65f1 09bf acb1 01bf e079 29bf
00000180: 8ddd 32bf eccc 34bf 34f6 d6be 9687 0bbf
00000190: 87b4 edbe a112 33bf d0c1 28bf 5295 3ebf
000001a0: 5b5a 3cbf 65ce 0ebf cb2d f0be 987b 1ebf
000001b0: 6dca 1bbf c3e5 1cbf 999e 04bf db35 08bf
000001c0: 8238 00bf 4dfd 28bf d66b d4be a560 e1be
000001d0: 5c45 48bf 4e33 09bf 9b97 28bf 2e82 24bf
000001e0: 6de0 1abf 4001 41bf 9ebf 17bf d8a8 17bf
000001f0: 7615 04bf f75b 0abf 9cfe 47bf 2c62 e7be
00000200: 297f 1ebf 6ffe 29bf 1d5f 33bf 37af 2dbf
00000210: 00fd 38bf 2ce0 fdbe 4412 0bbf 67f8 f23e
00000220: bece 173f ee02 3ebf a3f3 d8be 46f4 16bf
00000230: 58b0 14bf 94cc 3fbf f00c fdbe ff5a d2be
00000240: 82f0 403f 9b32 183f 0104 35bf 3c41 15bf
00000250: d9f8 d93e 56cb 10bf 752c f6be dfca f8be
00000260: edb3 3fbf fd55 233f a18e 333f 3705 213f
00000270: b76d 2c3f 8b45 f73e e641 0e3f 9739 edbe
00000280: 29aa 123f 6a42 dd3e 09e0 14bf 644c 3dbf
00000290: 0715 20bf d49d fcbe dfe1 13bf a0ae 42bf
000002a0: 7741 1abf 8dca 34bf 2349 19bf 3e9e 47bf
000002b0: 96a0 46bf 2913 3cbf 7178 fbbe b394 23bf
000002c0: d05a 2fbf 202d 0fbf a411 34bf ad24 dfbe
000002d0: c889 443f 9a73 1abf 7872 f8be c763 e4be
000002e0: 020e 32bf 85bb 00bf 04c9 e4be d841 25bf
000002f0: e636 12bf f19e 123f 5909 073f 25d9 2a3f
00000300: 6751 ec3e eb9b d23e 0053 293f 30df 34bf
00000310: 7826 04bf 39b1 003f 366c 273f 2e4b f53e
00000320: 4d73 153f 8d83 3e3f aca4 0f3f ea94 ea3e
00000330: 8ab7 1b3f 926e ce3e e89e 363f ab44 de3e
00000340: 55b3 1b3f 3b5b 333f 5412 083f b49e f33e
00000350: 2282 433f 3f95 263f 3583 0b3f cdab d93e
00000360: 3608 fc3e dfd4 ea3e e577 f5be b661 163f
00000370: b95d f13e d92c 183f 8e8d 163f a8a0 1f3f
00000380: 2b79 0a3f f496 2d3f 2a61 de3e bbd5 2bbf
00000390: 206c 1d3f 6816 3a3f 36aa 123f d11c fb3e
000003a0: b185 003f 14bb 103f 39fb 133f 56ec ee3e
000003b0: f4e6 f8be 87c8 e63e c6ca 273f 0610 03bf
000003c0: c7fe 263f 28dc 223f 9b98 d6be 12b7 053f
000003d0: bf5b 253f f0c1 0c3f 19e0 363f b9e3 283f
000003e0: 85bd 403f 40bb 143f 4543 2a3f 493f d93e
000003f0: 2d19 0c3f f130 2b3f 5cc3 e83e be4f 453f
-0.62080306 -0.5650347 -0.45198715 -0.59083503 -0.60426015 -0.41123378 -0.6890589 -0.5829461
-0.5115667 0.6590749 0.61215544 0.6448092 0.43335044 0.47918978 -0.6061357 0.43863955
-0.41968173 -0.78225607 0.47455597 0.42989615 0.6098358 0.44628695 0.6618671 0.6595299
0.7275296 0.52167517 0.68916875 0.713189 0.55160826 0.6938099 0.39903748 0.40114552
0.47756124 0.7463616 0.7419641 0.752479 0.70068914 0.69235826 0.6375458 -0.77045953
-0.7811376 -0.5424294 -0.5028601 -0.563799 -0.5586558 -0.3991439 -0.636132 -0.4527951
-0.4716 -0.4480016 -0.40793005 -0.4760087 -0.74934083 -0.76451224 0.7103648 0.44615582
0.43513435 0.6746199 0.43633008 0.4567758 -0.44770026 0.7507921 0.71065265 -0.5575847
0.6037525 0.3996884 -0.54244554 0.760583 0.44593936 -0.52789354 0.7585105 0.42575586
-0.48560566 -0.5420188 -0.7188617 -0.45475847 -0.56337374 -0.44518214 -0.5875186 -0.51379627
-0.5462151 0.5263634 -0.51392704 -0.7617896 -0.5774888 -0.6020274 -0.470111 -0.57699186
-0.6517173 -0.75453043 -0.43502295 -0.7439943 -0.6428613 -0.53883964 -0.5066173 -0.6620159
-0.6986931 -0.70625186 -0.41984713 -0.5450376 -0.46426794 -0.699503 -0.65920734 -0.74446595
-0.7357537 -0.55783683 -0.46909937 -0.6190734 -0.6085575 -0.6128809 -0.518045 -0.53207177
-0.50086224 -0.66011506 -0.41488522 -0.44019046 -0.78230834 -0.5359391 -0.6585633 -0.6426114
-0.60498697 -0.7539253 -0.5927676 -0.5924201 -0.51595247 -0.5404658 -0.7812288 -0.45192087
-0.6191278 -0.6640386 -0.70067006 -0.6784548 -0.7226105 -0.49585092 -0.54324746 0.4745514
0.5929984 -0.7422322 -0.4237338 -0.5896648 -0.5808158 -0.74921536 -0.49423933 -0.4108505
0.75366986 0.5945222 -0.70709234 -0.58302665 0.42572668 -0.56560266 -0.48080793 -0.48592278
-0.7488392 0.6380308 0.7013951 0.6289858 0.6735491 0.48295245 0.55569303 -0.46333
0.57290894 0.43214732 -0.5815435 -0.7394469 -0.62532085 -0.49339163 -0.57766527 -0.76047707
-0.6025614 -0.7062157 -0.5987722 -0.77975833 -0.77588785 -0.73466736 -0.49115327 -0.6389877
-0.68497944 -0.5592823 -0.7033942 -0.4358267 0.7677274 -0.60332644 -0.48524833 -0.44607374
-0.69552624 -0.5028613 -0.44684613 -0.64553595 -0.5711502 0.57273775 0.5274864 0.66737586
0.46155855 0.4113458 0.6614227 -0.7065306 -0.516212 0.5027042 0.6539949 0.4790892
0.5837906 0.7441948 0.56110644 0.45816737 0.60826933 0.40318733 0.7133622 0.43411765
0.60820514 0.7006108 0.53152966 0.47582018 0.7637044 0.6507148 0.5449708 0.42513886
0.49225014 0.45865533 -0.47943035 0.58742845 0.47141817 0.5944343 0.58809745 0.62354517
0.5409114 0.6780846 0.43433505 -0.67123 0.6149311 0.7269044 0.5729097 0.49045423
0.50203997 0.5653546 0.5780521 0.46664685 -0.48613703 0.45074865 0.6554378 -0.51196325
0.6523251 0.6361718 -0.41913304 0.5223247 0.6459312 0.54983425 0.71435696 0.6597248
0.75289184 0.5809822 0.66508895 0.42431095 0.54725915 0.66871554 0.45461547 0.770748

conv_1.bias f4 [16]
00000000: c4ea e4be d7b6 ee3e 5fc6 f3be dd41 183f
00000010: 30b9 ff3e de6c 0fbf 7815 043f cd4e 12bf
00000020: bca1 2abf 26e5 303f 6648 273f 7d0a 2cbf
00000030: 8bde 22bf be18 403f 8e63 fcbe 5752 00bf
-0.44710362 0.4662387 -0.47612283 0.594755 0.49945974 -0.56025493 0.5159526 -0.5715149
-0.6665304 0.6909965 0.65344846 -0.67203504 -0.63620824 0.75037754 -0.49294704 -0.5012564

conv_2.weight f4 [32, 16, 3, 3]
00000000: 1c29 15bf ead7 0dbf 74c3 14bf 7f19 1fbf
00000010: d6d5 06bf 87fc 26bf 708b 0bbf 5bed 19bf
00000020: ea95 09bf d610 1dbf 2663 28bf 86f8 27bf
00000030: 7cc8 19bf 5bde 0fbf 7b87 06bf 2f65 08bf
00000040: 1dd5 24bf 5e41 02bf 21ce 01bf 7595 23bf
00000050: a6cd 10bf f10d 1bbf 5253 19bf 989e 05bf
00000060: 0933 23bf 31a3 0dbf efbe 12bf c426 12bf
00000070: c15b 18bf 216f 25bf 28f2 17bf 40d2 2bbf
00000080: c3c5 29bf 9481 16bf 0247 0bbf 8843 28bf
00000090: 2ec5 16bf ba95 29bf 79cd 03bf a4e6 12bf
000000a0: 2ff8 15bf 405e 19bf fa51 2bbf e386 1ebf
000000b0: f09f 22bf 6106 0dbf ac81 2abf 060b 04bf
000000c0: a1bf 19bf b1ea 09bf 48cb 0cbf 4cbf 15bf
000000d0: dd16 09bf 1ed5 2bbf 6553 15bf f7af 21bf
000000e0: b1f3 2bbf e845 0dbf 6dfe 2bbf 7b54 20bf
000000f0: 80e4 20bf c719 0dbf f453 19bf 03d4 04bf
00000100: 8544 06bf 50d6 18bf bafd 21bf f03c 19bf
00000110: 8750 0abf 0f86 0ebf 4730 27bf 2339 0cbf
00000120: 0924 0abf a5f6 17bf e9c2 17bf 1c49 29bf
00000130: 47bf 1c3f 06c5 0abf 0a05 1abf 0d51 0fbf
00000140: f11c 12bf ebc7 19bf 0675 21bf b45e 12bf
00000150: 5ace 10bf db69 04bf 3391 19bf d942 29bf
00000160: c833 0bbf ae12 0fbf 8449 0ebf 28b1 18bf
00000170: 0eac 06bf 9811 21bf 1b5c 21bf 1423 1ebf
00000180: 41e3 0abf f6fb 04bf 5c15 22bf c636 12bf
00000190: 62c6 0fbf 8688 1ebf 8ce3 01bf 3388 2abf
000001a0: 9ff0 0bbf 7b34 0cbf 43be 0cbf 5f76 22bf
000001b0: 7a2c 17bf 65ab 18bf 9f45 1bbf 1623 2abf
000001c0: 339d 1cbf 18e2 19bf 0b0e 0cbf 4a61 04bf
000001d0: 9d66 0dbf d01c 25bf 2634 16bf 6026 2bbf
000001e0: af88 0bbf cdc5 10bf 7f88 07bf 10e0 18bf
000001f0: ac11 0ebf e4e8 1ebf 2e80 0cbf 68d1 01bf
00000200: 5207 17bf 00f1 16bf 8dc1 19bf ca88 1fbf
00000210: ebb7 0fbf 53c6 08bf 8134 1fbf 740c 20bf
00000220: 5296 2abf 51c7 0ebf 05bb 02bf 57e2 17bf
00000230: b750 1abf 5879 0cbf 62b8 17bf ae29 15bf
00000240: 5bee 253f 9e4f 1a3f 2ccb 1cbf 1242 1e3f
00000250: e8b0 173f 5854 22bf 74c7 253f b080 08bf
00000260: f4ea 19bf 2d72 273f c471 123f 7199 1e3f
00000270: 0d3b 073f 6697 1d3f 784c 093f b0f5 08bf
00000280: ebc7 193f ab7e 093f 33b7 0b3f c389 163f
00000290: 75cf 043f 2ccd 0ebf b1fd 273f 229f 0c3f
000002a0: 0674 2bbf 4666 0bbf 44e2 053f 64ac 1cbf
000002b0: 47be 16bf cebe 01bf 29f5 293f a11f 11bf
000002c0: 87d9 22bf 9802 073f 1aa0 1abf e6db 233f
000002d0: 5a4b 17bf 8f7b 09bf 3d6d 0ebf 1ef9 23bf
000002e0: ae95 0fbf e69c 21bf b14c 02bf 96ae 25bf
000002f0: 9943 09bf 9dd3 0d3f 6027 0f3f 5611 133f
00000300: a10c 183f 442b 1d3f 26d5 043f e458 21bf
00000310: eb01 11bf efb5 183f 2ff8 223f d89b 1bbf
00000320: e379 05bf 9091 1f3f 76c6 25bf 46d7 043f
00000330: 63f9 273f 1361 0dbf 51ed 1e3f 08d6 073f
00000340: 2f47 25bf 9f83 05bf 5b4c 113f 62a2 0fbf
00000350: fd55 22bf b7b8 0a3f 4dc5 1bbf 7edb 283f
00000360: b726 193f dac7 19bf a406 2bbf 5b43 033f
00000370: f261 0ebf 8399 22bf 96f9 1b3f c0b6 1bbf
00000380: 0656 093f 79f2 17bf 2519 1bbf 3cd7 023f
00000390: 5702 11bf d3cd 23bf aec3 0a3f 82e4 11bf
000003a0: 0d4d 26bf 3d34 0abf 4e8b 0abf e31b 0abf
000003b0: fa5b 2abf 629a 043f e21b 10bf 077c 11bf
000003c0: e5ae 073f 31aa 1ebf 47a6 223f a087 2a3f
000003d0: 2c5e 193f 11a0 243f da8e 163f 231c 253f
000003e0: aea2 283f b52b 28bf d58c 0d3f 7f52 1f3f
000003f0: 40b6 013f 9bb2 0c3f 6dd0 0e3f dcaf 1c3f
-0.5826585 -0.55407584 -0.5811074 -0.6214828 -0.5267004 -0.65229076 -0.5450964 -0.601278
-0.53744376 -0.61353815 -0.6577629 -0.6561359 -0.6007154 -0.5619866 -0.52550477 -0.53279394
-0.64387685 -0.5088099 -0.5070515 -0.6389993 -0.56563795 -0.6056815 -0.5989276 -0.5219512
-0.6374975 -0.55327135 -0.5732259 -0.570904 -0.59515005 -0.64622694 -0.59353876 -0.6711769
-0.66317385 -0.5879147 -0.54405224 -0.65728045 -0.5889462 -0.6624409 -0.514854 -0.5738318
-0.58581823 -0.5990944 -0.6692196 -0.6192457 -0.63525295 -0.5508786 -0.66604114 -0.5157932
-0.6005803 -0.53873736 -0.5499768 -0.5849502 -0.5355051 -0.67122066 -0.58330375 -0.63159126
-0.6716872 -0.55184793 -0.671851 -0.62628907 -0.62848663 -0.5511746 -0.5989373 -0.51886004
-0.524483 -0.59702015 -0.6327778 -0.5985861 -0.54029125 -0.5567331 -0.6530804 -0.54774684
-0.53961235 -0.59360725 -0.59281784 -0.6612718 0.61229366 -0.54206884 -0.6016394 -0.5598305
-0.5707541 -0.60070676 -0.6306919 -0.57175756 -0.5656487 -0.5172402 -0.5998718 -0.66117626
-0.54375887 -0.5588788 -0.55580926 -0.5964532 -0.52606285 -0.6291747 -0.63031167 -0.61772275
-0.5425301 -0.5194696 -0.6331384 -0.5711483 -0.56162083 -0.6192707 -0.50737834 -0.66614074
-0.54664034 -0.5476758 -0.54977816 -0.6346187 -0.5905224 -0.5963653 -0.6065311 -0.66459787
-0.61177367 -0.60110617 -0.5470893 -0.5171095 -0.552347 -0.6449709 -0.5867332 -0.6685543
-0.5450544 -0.5655182 -0.5294265 -0.5971689 -0.55495715 -0.6207411 -0.54883087 -0.50710154
-0.58995545 -0.58961487 -0.6006096 -0.623181 -0.5614001 -0.5342762 -0.6218949 -0.62519
-0.6663562 -0.5577288 -0.5106662 -0.5932974 -0.6027941 -0.54872656 -0.5926572 -0.58266723
0.64816827 0.60277736 -0.61247516 0.61819565 0.5925431 -0.6340995 0.64757466 -0.5332136
-0.60124135 0.65408593 0.5720484 0.61952883 0.5282448 0.6155914 0.5363231 -0.5349989
0.60070676 0.53708905 0.54576415 0.5880396 0.51879054 -0.5578182 0.6562148 0.5493032
-0.6697391 -0.5445293 0.5229838 -0.6120055 -0.5888409 -0.5068177 0.6638971 -0.56688887
-0.6361317 0.5273833 -0.60400546 0.64007413 -0.5909935 -0.5370416 -0.55635434 -0.64052
-0.5608777 -0.63130033 -0.5089827 -0.6471952 -0.5361877 0.5540102 0.55919456 0.5744833
0.5939427 0.61394143 0.5188774 -0.6302626 -0.5664355 0.5965261 0.6365995 -0.60784674
-0.5213911 0.62331486 -0.6475595 0.5189098 0.6561491 -0.5522625 0.62080866 0.5306096
-0.6456174 -0.5215396 0.56757134 -0.5610715 -0.6341246 0.541881 -0.6084793 0.6595992
0.598247 -0.60070574 -0.6680701 0.5127465 -0.556182 -0.6351549 0.6092771 -0.6082573
0.53646886 -0.5935436 -0.6058524 0.5110967 -0.56644195 -0.6398594 0.54204834 -0.569893
-0.6496132 -0.5398596 -0.5411881 -0.539488 -0.66546595 0.5179807 -0.56292546 -0.56829876
0.5300124 -0.6197844 0.6353497 0.666132 0.5990932 0.6430674 0.58811724 0.6449606
0.6587323 -0.6569169 0.5529302 0.62235254 0.50668716 0.5496003 0.5578678 0.6120584

conv_2.bias f4 [32]
00000000: 3891 09bf 0479 10bf f6a1 14bf d894 12bf
00000010: b340 153f b274 263f 9f39 21bf f202 0ebf
00000020: 1939 27bf bbf8 1bbf 6389 0c3f 34b5 2bbf
00000030: 0a6a 0e3f 296f 11bf d46a 073f 4f99 233f
00000040: 1224 14bf 8924 063f c6ce 2abf 4c0e 253f
00000050: 58f3 053f 99f1 13bf aa40 1d3f 82c7 0bbf
00000060: 03de 0cbf 6e6d 1e3f f77f 2bbf 496c 113f
00000070: 595d 05bf 9b07 023f 7b81 1cbf 2c58 173f
-0.5373721 -0.56434655 -0.5805963 -0.5725837 0.5830185 0.6502181 -0.6297855 -0.55473244
-0.653215 -0.6092641 0.54897135 -0.6707337 0.5563055 -0.5681024 0.5289738 0.63905805
-0.5786754 0.523995 -0.6672176 0.6447494 0.5232444 -0.57790524 0.61426795 -0.546013
-0.55026263 0.61885726 -0.66992134 0.56805855 -0.5209556 0.50792855 -0.6113507 0.59118915

fully_connect1.weight f4 [10, 5408]
00000000: 5ab0 14bf 4dbb 15bf b72c 1abf a202 14bf
00000010: b169 15bf 154c 14bf b407 1abf e805 16bf
00000020: 5d0d 19bf 7f97 14bf eaad 16bf 2087 16bf
00000030: a0fe 18bf 9ec5 14bf 566b 16bf f559 17bf
00000040: 76ca 17bf d400 1abf 42fe 13bf 61fd 13bf
00000050: 48fe 15bf 6beb 18bf dc2b 17bf 63b2 19bf
00000060: 8af8 19bf fda6 14bf 39bd 14bf 7c7d 17bf
00000070: 3a64 1abf e996 15bf 62ec 13bf e63c 1abf
00000080: f8e6 15bf 0ac8 18bf 9d47 14bf 59a9 17bf
00000090: 52da 15bf ee8a 18bf 4033 17bf 89d8 19bf
000000a0: bf73 19bf 6d55 17bf 74d3 18bf dd79 19bf
000000b0: 4307 14bf f15e 17bf f05d 19bf f99e 15bf
000000c0: a3c4 15bf 6d52 19bf 6852 14bf 6700 17bf
000000d0: aee1 18bf 1797 14bf 3a93 15bf 046c 15bf
000000e0: c9ca 14bf d71e 16bf 4fed 16bf 5e89 15bf
000000f0: 65be 17bf 7d30 17bf b956 15bf 249c 19bf
00000100: cf3d 14bf 7fc4 17bf dafe 19bf 243b 15bf
00000110: 2ffc 17bf c3d6 17bf f1ba 13bf 8743 16bf
00000120: c95e 17bf 1996 16bf 3cde 17bf 9841 16bf
00000130: 04a8 19bf 2e22 14bf 126e 16bf c710 16bf
00000140: 2e96 15bf 040b 14bf ec81 17bf a496 16bf
00000150: b872 17bf 6b24 18bf e9e4 15bf 30bc 13bf
00000160: fb7f 17bf bf2e 15bf 3aa8 14bf 06ef 17bf
00000170: fb8f 18bf d843 18bf 2abb 17bf 33aa 13bf
00000180: 6203 14bf 01c6 15bf 4552 19bf 95e6 18bf
00000190: 41d6 17bf 1133 14bf b6b1 14bf a691 18bf
000001a0: 83cb 19bf 9982 16bf 0221 18bf 225c 1abf
000001b0: 5aee 13bf 1f23 17bf 3dbb 19bf cb42 19bf
000001c0: a394 14bf 9eea 13bf b987 15bf efa6 19bf
000001d0: 0677 1abf dc44 16bf a27e 19bf 3629 15bf
000001e0: 0d22 1abf 1319 15bf b077 1abf 3be1 14bf
000001f0: 0a7b 19bf 972d 16bf 63f2 14bf b22b 18bf
00000200: a2b0 19bf 442b 17bf 8de8 14bf 391f 17bf
00000210: 225c 16bf 1791 15bf 28b8 18bf 1ac4 18bf
00000220: 135b 16bf f23c 16bf c79b 14bf 31f1 14bf
00000230: 42f4 18bf cdfd 16bf ccf9 19bf 8352 19bf
00000240: fa32 16bf c984 16bf f82d 14bf b5e9 17bf
00000250: 8391 19bf b9a5 14bf 2789 14bf b1bd 18bf
00000260: 3b39 17bf b49b 13bf d0ad 17bf cb45 14bf
00000270: 15ba 19bf c809 14bf 7545 17bf cff2 19bf
00000280: 6d01 19bf 0aaa 16bf d0a0 14bf 1ef4 17bf
00000290: b6d1 17bf 7c29 14bf 2c34 14bf 678b 13bf
000002a0: 54b5 16bf 0257 15bf 395d 16bf 36ff 18bf
000002b0: a257 19bf af66 16bf 64e7 13bf a34e 19bf
000002c0: 3b5d 17bf a34d 17bf 6c9d 18bf 8ca1 19bf
000002d0: ff7d 14bf 1426 16bf 6521 19bf a7b6 13bf
000002e0: fd7e 1abf 002c 15bf 2559 18bf c561 15bf
000002f0: 82a6 13bf 54ff 16bf 3a7d 16bf 2c93 13bf
00000300: af00 15bf 3027 18bf 094c 1abf 7ff2 18bf
00000310: 7583 14bf 1e19 18bf 7c8d 16bf d74c 14bf
00000320: 49d9 13bf e012 15bf 77a5 18bf 1574 16bf
00000330: bb43 14bf 7ecd 17bf 4231 15bf da6c 19bf
00000340: a158 17bf 4ef9 18bf 1f2d 18bf 8149 17bf
00000350: 940f 19bf 9e03 14bf 73cc 13bf d09a 19bf
00000360: 802c 19bf 4e22 16bf 28e7 16bf 91a3 14bf
00000370: 302e 16bf ae7c 17bf 9849 1abf f1d2 19bf
00000380: 6375 1abf 0aa7 18bf 0d55 19bf 3486 15bf
00000390: 2248 17bf 3efb 18bf a2ce 19bf 27a0 18bf
000003a0: bcd5 19bf 3de9 13bf 3a21 16bf 89d8 14bf
000003b0: 888d 16bf 84b0 19bf 30a5 18bf 2ce2 16bf
000003c0: a5c2 13bf 313a 15bf 7eea 14bf 01ad 13bf
000003d0: 24d0 16bf 314b 19bf a2f1 13bf 7ecc 13bf
000003e0: 63ff 17bf 7a0c 18bf 22b2 19bf 3ea9 18bf
000003f0: 5f58 17bf e9b4 13bf 77fe 17bf 7346 15bf
-0.5808159 -0.58488923 -0.6022448 -0.5781652 -0.583644 -0.5792859 -0.60168004 -0.5860276
-0.59786016 -0.58043665 -0.5885912 -0.58799934 -0.59763527 -0.5811404 -0.5875753 -0.5912164
-0.59293306 -0.60157514 -0.5780984 -0.578085 -0.5859113 -0.5973422 -0.590513 -0.6003782
-0.60144866 -0.58067304 -0.5810123 -0.5917585 -0.60309184 -0.58433396 -0.57782567 -0.60249174
-0.58555555 -0.59680235 -0.57921773 -0.5924278 -0.58536255 -0.5958699 -0.59062576 -0.6009603
-0.5994224 -0.59114724 -0.5969765 -0.59951574 -0.5782358 -0.59129244 -0.5990896 -0.584457
-0.5850317 -0.59891397 -0.5793824 -0.5898499 -0.5971936 -0.58043045 -0.58427775 -0.58367944
-0.58121926 -0.5864081 -0.58955854 -0.5841273 -0.59274894 -0.5905836 -0.58335453 -0.60003877
-0.5790681 -0.59284204 -0.601545 -0.58293366 -0.59369177 -0.59312075 -0.57707125 -0.5869679
-0.59129006 -0.5882278 -0.5932348 -0.5869384 -0.60021996 -0.57864654 -0.58761704 -0.5861935
-0.5843228 -0.5782931 -0.5918262 -0.5882361 -0.5915942 -0.5943057 -0.58552414 -0.57709026
-0.5917966 -0.58274454 -0.58069193 -0.59349096 -0.59594697 -0.5947852 -0.59269965 -0.5768158
-0.5781766 -0.58505255 -0.5989116 -0.5972684 -0.593113 -0.5789042 -0.58083665 -0.5959724
-0.6007616 -0.58793026 -0.59425366 -0.60296834 -0.5778557 -0.59037966 -0.6005133 -0.59867543
-0.580393 -0.5777987 -0.5841022 -0.60020345 -0.60337865 -0.5869882 -0.5995885 -0.5826601
-0.6020821 -0.58241385 -0.6033888 -0.58156174 -0.5995337 -0.58663315 -0.5818235 -0.59441674
-0.60035145 -0.59050393 -0.58167344 -0.59032017 -0.58734334 -0.58424515 -0.59656 -0.5967423
-0.5873272 -0.58686745 -0.580502 -0.5818053 -0.5974771 -0.5898102 -0.60146785 -0.5989153
-0.58671534 -0.58796364 -0.5788264 -0.59340984 -0.5998766 -0.5806537 -0.5802178 -0.59664446
-0.590717 -0.5765946 -0.5924959 -0.57918996 -0.60049564 -0.57827425 -0.5909036 -0.6013612
-0.597678 -0.5885321 -0.5805788 -0.5935687 -0.5930437 -0.578758 -0.5789211 -0.57634586
-0.58870435 -0.5833589 -0.58735996 -0.5976442 -0.5989934 -0.5875043 -0.5777495 -0.59885615
-0.59126633 -0.5910284 -0.59615207 -0.60012126 -0.58004755 -0.5865185 -0.5981658 -0.5770058
-0.6035002 -0.58270264 -0.59511024 -0.5835231 -0.57675946 -0.5898335 -0.5878483 -0.5764644
-0.5820417 -0.59434795 -0.6027227 -0.5974502 -0.5801309 -0.59413326 -0.5880964 -0.5792975
-0.57753426 -0.58231926 -0.5962748 -0.5877088 -0.5791585 -0.5929793 -0.58278286 -0.5993172
-0.5911961 -0.5975541 -0.5944385 -0.59096533 -0.59789395 -0.5781802 -0.5773384 -0.6000185
-0.59833527 -0.58646095 -0.58946466 -0.5806208 -0.58664227 -0.5917462 -0.60268545 -0.60087496
-0.6033537 -0.5962988 -0.598954 -0.584079 -0.5909444 -0.59758365 -0.6008092 -0.59619373
-0.6009176 -0.5777777 -0.5864445 -0.58142906 -0.5880971 -0.60034966 -0.59627056 -0.5893886
-0.5771888 -0.5829192 -0.58170307 -0.5768586 -0.5891135 -0.5988036 -0.5779058 -0.57733905
-0.59374064 -0.5939404 -0.60037434 -0.59633243 -0.5911922 -0.5769792 -0.5937266 -0.5831062

fully_connect1.bias f4 [10]
00000000: a22b 1abf 7013 903a eb69 173f 37c2 19bf
00000010: dd69 183f 5c73 18bf b1a1 18bf c80b 183f
00000020: b81b 14bf 33ad 15bf
-0.6022283 0.0010992121 0.59145993 -0.60061973 0.59536535 -0.59551024 -0.5962172 0.59392977
-0.57854795 -0.58467406

fully_connect2.weight f4 [1, 10]
00000000: c315 f33e 4fed 8cbe fc2c 5bbf 72ed 9cbe
00000010: 19ad cd3e 74fd febe 82b3 12bf 1c86 a83e
00000020: b080 543f c10b 073f
0.4747754 -0.27524802 -0.85615516 -0.30649906 0.40171126 -0.49802744 -0.5730516 0.32914817
0.8300886 0.5275231
