bs16_lr0.01_weight.pt (torch, 240196 bytes, 7 tensors)

conv_1.weight f4 [16, 3, 3, 3]
0.029879812 0.015419939 0.034323055 0.10905431 -0.02833843 0.1835558 -0.14738974 -0.056979306
0.058545876 -0.08829804 0.067330346 -0.040438768 0.056944065 0.05382583 -0.0071201436 0.087369874
0.035237037 0.105822004 -0.030281773 0.14786284 0.02233096 0.009278484 0.11887555 0.020579709
0.21989496 0.20976143 0.090409644 -0.040132437 0.113205984 0.03526186 0.07341341 0.0171754
0.19698557 0.20385881 0.0708662 -0.0690828 0.03118706 0.21069002 -0.11858706 -0.07978553
0.03753335 0.0041066483 -0.14474608 0.015271529 0.018862287 0.019281033 -0.09404196 0.15165593
0.1323704 0.034012165 -0.029506704 0.06910313 0.15102485 0.055986427 0.1082579 0.030748067
-0.076068796 -0.03237807 0.12314557 0.22927722 -0.08403093 0.12353144 -0.022932952 -0.10442931
0.073491335 -0.10686212 -0.015467288 0.07300539 0.17127857 0.13675581 -0.12466338 -0.1321228
-0.0027248242 0.19822685 -0.13853581 0.16499121 -0.05267469 0.13015325 0.01185111 0.13432917
-0.019497495 0.13615786 0.0844472 -0.079873346 0.05577767 0.13917568 0.053647194 -0.18635032
-0.0608028 0.02872162 -0.061844178 0.060862064 0.021898875 -0.14334674 -0.1434619 -0.08744319
-0.014092703 0.041048046 -0.08410422 0.12035806 0.14001817 0.02993406 0.16076343 -0.044800818
-0.12586139 -0.031164566 -0.06743055 -0.004376695 -0.08106642 0.15551288 -0.1329376 0.070557006
0.04582078 0.0037783135 0.17376848 -0.049949672 -0.14694725 0.06821963 -0.121243276 0.16201766
-0.0564183 0.124825224 -0.10399613 -0.1351336 0.20611678 -0.10645188 -0.0029375902 -0.07272796
-0.031557623 -0.13831872 0.00416132 -0.046215516 0.04929545 -0.13870306 0.1222046 0.027947076
0.0013494496 0.061894573 0.08383071 -0.10912788 -0.02475022 -0.09212412 -0.11462429 0.013718628
0.0379662 0.048758455 0.060179327 0.036733303 0.109873794 -0.068357386 0.16629404 -0.079073705
-0.07379751 0.1944935 0.15715738 0.04971098 0.0062960167 0.04606021 -0.005430205 0.16852164
0.11070374 0.08355758 0.040217567 0.14256132 -0.03273425 0.10174181 0.22285524 -0.07534975
-0.07285294 0.040802002 -0.096260466 -0.08789444 0.067887664 0.016516697 0.22801898 0.025152406
0.2300382 -0.048011757 0.047428522 0.028595809 -0.139656 0.21997325 -0.034141183 -0.13479602
-0.092668094 0.20857961 0.15652466 -0.14454748 0.20199418 0.05022905 0.06560214 0.082193814
-0.118711926 0.1408013 -0.046451233 -0.0020020453 0.13232145 -0.058677576 0.013401862 0.0010830145
-0.149735 0.031575136 -0.11024728 -0.02956929 -0.10460909 -0.050456237 -0.12595816 -0.08204659
-0.052072916 0.060898744 -0.09437684 0.13025868 -0.20318073 0.056989573 -0.11448074 0.101998255
-0.004908413 0.021086322 0.051829625 -0.15962592 -0.032052506 -0.21924447 0.042502496 -0.00615279
0.013138556 -0.22446617 -0.02896073 0.10661227 -0.094856806 -0.0676056 -0.015987221 -0.06749116
0.07706101 0.103564695 -0.09781032 -0.040993698 -0.043000307 0.0673298 -0.09460288 -0.0730034
0.05001658 -0.18188514 0.017142843 -0.108225726 0.09853368 -0.04460009 0.04306226 0.014550994
0.09591385 0.05856009 0.12540738 -0.106085695 0.004402171 0.08722078 0.09796007 -0.13778025
00000000: 82c6 f43c e9a3 7c3c 5596 0c3d de57 df3d
00000010: ff25 e8bc 0df6 3b3e 56ed 16be 2263 69bd
00000020: cdcd 6f3d 9ad5 b4bd 7ee4 893d 1fa3 25bd
00000030: 2e3e 693d 7978 5c3d 1850 e9bb faee b23d
00000040: b654 103d 35b9 d83d 7b11 f8bc 5b69 173e
00000050: 6bef b63c c804 183c 0675 f33d c796 a83c
00000060: 252c 613e b3cb 563e b128 b93d e961 24bd
00000070: 8ad8 e73d bd6e 103d c559 963d 6db3 8c3c
00000080: 96b6 493e 5dc0 503e 4c22 913d 487b 8dbd
00000090: 017c ff3c 20bf 573e c6dd f2bd 9966 a3bd
000000a0: 92bc 193d 1091 863b 5138 14be 6f35 7a3c
000000b0: 1585 9a3c 42f3 9d3c 1299 c0bd b14b 1b3e
000000c0: 1b8c 073e 5750 0b3d 0bb8 f1bc f185 8d3d
000000d0: 42a6 1a3e 0652 653d 51b6 dd3d 5fe3 fb3c
000000e0: f5c9 9bbd de9e 04bd bf33 fc3d a6c7 6a3e
000000f0: 6918 acbd 0dfe fc3d e3dd bbbc 09df d5bd
00000100: a082 963d 87da dabd 826a 7dbc da83 953d
00000110: a663 2f3e b709 0c3e 844f ffbd 334b 07be
00000120: f792 32bb fbfb 4a3e 55dc 0dbe 75f3 283e
00000130: 6ac1 57bd e546 053e 282b 423c 968d 093e
00000140: 36b9 9fbc f76c 0b3e a7f2 ac3d a394 a3bd
00000150: 2077 643d 1284 0e3e 29bd 5b3d 9ed2 3ebe
00000160: 5b0c 79bd 9a49 eb3c 5250 7dbd 804a 793d
00000170: 4565 b33c 7dc9 12be ade7 12be 6a15 b3bd
00000180: 15e5 66bc ff21 283d d53e acbd 497e f63d
00000190: ec60 0f3e 4638 f53c 2b9f 243e 1081 37bd
000001a0: cfe1 00be d54c ffbc 0719 8abd 616a 8fbb
000001b0: 2706 a6bd c53e 1f3e cb20 08be 3180 903d
000001c0: 92ae 3b3d 959d 773b 5df0 313e 0798 4cbd
000001d0: 5779 16be bcb6 8b3d 654e f8bd f5e7 253e
000001e0: e016 67bd 5ea4 ff3d ecfb d4bd 7660 0abe
000001f0: 4710 533e 7103 dabd 9684 40bb 66f2 94bd
00000200: 9142 01bd 6ca3 0dbe af5b 883b 7b4c 3dbd
00000210: 07ea 493d 2d08 0ebe 6846 fa3d 44f1 e43c
00000220: 04e0 b03a 2a85 7d3d 6faf ab3d 707e dfbd
00000230: f9c0 cabc 92ab bcbd 24c0 eabd 19c4 603c
00000240: 7282 1b3d f2b6 473d 997e 763d a975 163d
00000250: 8305 e13d f5fe 8bbd fc48 2a3e 65f1 a1bd
00000260: 2623 97bd 4e29 473e dded 203e be9d 4b3d
00000270: d14e ce3b a1a9 3c3d dcef b1bb f090 2c3e
00000280: a4b8 e23d 3d20 ab3d 2dbb 243d 98fb 113e
00000290: 5914 06bd 035e d03d 2a34 643e f850 9abd
000002a0: ec33 95bd 0020 273d 3524 c5bd 0002 b4bd
000002b0: b008 8b3d 064e 873c cf7d 693e 6b0c ce3c
000002c0: 228f 6b3e faa7 44bd 6944 423d c241 ea3c
000002d0: fc01 0fbe ab40 613e a0d7 0bbd f807 0abe
000002e0: c5c8 bdbd e595 553e 0048 203e 4104 14be
000002f0: 90d7 4e3e fabc 4d3d 6a5a 863d 3b55 a83d
00000300: 3d1f f3bd 372e 103e a643 3ebd bf34 03bb
00000310: 467f 073e e657 70bd 7c93 5b3c f0f3 8d3a
00000320: 2254 19be ee54 013d 53c9 e1bd 4c3b f2bc
00000330: 4a3d d6bd 33ab 4ebd 2dfb 00be 0b08 a8bd
00000340: 694a 55bd f670 793d a548 c1bd 8862 053e
00000350: 9c0e 50be e66d 693d e174 eabd 76e4 d03d
00000360: c1d6 a0bb 39bd ac3c 4d4b 543d fa74 23be
00000370: 7d49 03bd 9f81 60be 1917 2e3d 589d c9bb
00000380: 1943 573c 76da 65be 0e3f edbc 8957 da3d
00000390: 4944 c2bd ce74 8abd a2f7 82bc ce38 8abd
000003a0: 2ad2 9d3d ba19 d43d c750 c8bd 02e9 27bd
000003b0: 1721 30bd 35e4 893d 28bf c1bd ce82 95bd
000003c0: 2fde 4c3d 1940 3abe 266f 8c3c 73a5 ddbd
000003d0: 07cc c93d 95ae 36bd 0d62 303d 4b67 6e3c
000003e0: 7b6e c43d b4dc 6f3d cb6a 003e 7543 d9bd
000003f0: 1640 903b cfa0 b23d 4a9f c83d 4416 0dbe

conv_1.bias f4 [16]
0.0015438158 0.07408977 -0.13271111 -0.2550167 0.15515941 -0.028207181 0.10939384 -0.066802405
-0.047721136 -0.059369795 -0.0162919 -0.14651187 -0.21664047 -0.2226585 -0.15556425 0.0025064473
00000000: dd59 ca3a 61bc 973d 6ce5 07be 8d91 82be
00000010: 1ce2 1e3e bf12 e7bc e109 e03d b3cf 88bd
00000020: 3d77 43bd be2d 73bd 9776 85bc 3507 16be
00000030: 00d7 5dbe 9700 64be 3c4c 1fbe 3543 243b

conv_2.weight f4 [32, 16, 3, 3]
-0.023664614 0.019459374 -0.027312346 -0.056075998 -0.05746055 -0.091667585 -0.049772803 -0.07753951
-0.11201234 -0.04628459 -0.13636574 -0.017473377 -0.13407402 -0.10843065 -0.043307964 0.010517588
-0.11874825 -0.051729534 -0.12199819 -0.104684986 -0.015189432 0.00371536 -0.05550343 -0.12684123
-0.05131928 -0.043607723 -0.09523201 -0.024392476 -0.12361988 -0.03282012 -0.030633904 -0.032897778
-0.023066621 -0.11025844 -0.14746289 -0.0871914 -0.09777674 -0.07605203 0.003344447 -0.12597387
0.010002997 -0.019538244 -0.010711712 -0.037586056 -0.0004534987 -0.03379273 -0.06736533 -0.010349992
0.0077937795 -0.09340399 -0.040943153 0.0003329396 -0.12473408 -0.122095615 0.0070515457 -0.02381738
-0.084022895 -0.082679234 0.013691531 -0.015963808 -0.06908831 0.010035364 -0.120863706 -0.024856541
-0.07262636 -0.074488 -0.03530271 -0.13026696 -0.0501326 -0.105537936 -0.12784384 0.0115741035
-0.088773824 -0.13411298 -0.02412269 -0.00081126724 -0.055004157 -0.10048475 0.005954545 -0.015551815
-0.02786496 -0.01698525 -0.08925927 -0.012249999 -0.08563488 -0.1514198 -0.10971174 -0.005925438
-0.043887272 -0.013051234 -0.021844 0.018767042 -0.11118158 -0.06346522 -0.051534813 -0.062966004
-0.025545448 0.03024452 -0.11123439 -0.0436852 -0.044129755 -0.116635896 -0.019351354 -0.028970687
0.009907159 -0.06891399 -0.09515295 -0.10678361 -0.026371796 -0.1468936 -0.0069144904 -0.122477435
-0.081997626 0.014715667 -0.10295531 -0.023090633 -0.039307497 -0.0075458204 0.044453815 -0.028643759
-0.115769975 -0.06196795 -0.0049328273 -0.08177718 -0.10188345 0.007661584 -0.093991615 -0.009322208
-0.078958206 -0.01419337 -0.078059755 -0.12088423 -0.011984246 -0.005725372 -0.1306558 -0.10925895
-0.08036282 -0.07845352 -0.012967384 -0.069993384 -0.04935493 -0.1293169 0.017885607 -0.08938985
-0.042338934 -0.14401127 -0.13319582 -0.11081007 -0.12398467 -0.063809544 0.007548972 -0.10291314
-0.05587612 -0.08506659 -0.025082214 -0.029027542 0.04066695 -0.043257155 -0.09302948 -0.062532045
-0.0046023387 -0.013816577 0.036402386 0.0041473033 -0.027835414 0.0013480276 0.005534269 -0.00220091
-0.05939966 0.00381812 0.02947593 -0.09064171 -0.046926595 -0.14496467 -0.14419258 -0.09865408
-0.14701746 -0.10727323 -0.08384024 -0.048602983 -0.024661966 -0.051289625 -0.112019055 -0.07667049
-0.091717534 -0.03595885 -0.025583621 0.015866052 -0.083396 -0.061778836 -0.13901877 -0.10656397
-0.05227048 -0.14700095 -0.041756336 -0.077023886 -0.012028458 -0.00783344 -0.12598999 -0.0478006
-0.08772437 -0.14037524 -0.020817881 -0.0072997473 0.0026249662 -0.079443775 -0.06601041 -0.025192903
-0.00080624997 0.0030902603 0.019515311 -0.0387605 -0.08364829 -0.10853925 -0.08046144 -0.0066160643
-0.14117539 -0.12497944 -0.08751588 -0.040092412 -0.056331404 -0.025778078 -0.06871517 -0.022723034
-0.004449209 -0.04232489 -0.086812176 -0.031267542 -0.04515561 -0.016269077 -0.03439642 -0.037982557
-0.07073609 -0.13263217 -0.04256278 0.0015942636 -0.12915638 -0.07752287 -0.046118796 -0.13715823
0.0002126742 -0.064494535 -0.04885753 -0.041135047 -0.017700337 -0.022703636 0.03056951 0.0183412
-0.05280112 -0.073042065 -0.10183314 -0.00342632 -0.091721505 -0.06092945 0.0074273073 -0.06954673
00000000: 4bdc c1bc 4469 9f3c 24be dfbc f2af 65bd
00000010: c15b 6bbd 37bc bbbd 91de 4bbd 09cd 9ebd
00000020: ba66 e5bd e994 3dbd 76a3 0bbe 5424 8fbc
00000030: b34a 09be e310 debd b163 31bd f651 2c3c
00000040: 4832 f3bd 59e2 53bd 30da f9bd 1565 d6bd
00000050: 18dd 78bc 667d 733b 9157 63bd abe2 01be
00000060: 2a34 52bd 039e 32bd 0009 c3bd bbd2 c7bc
00000070: 6b2c fdbd 646e 06bd f4f3 fabc d2bf 06bd
00000080: 36f6 bcbc 2dcf e1bd 8300 17be 6891 b2bd
00000090: 2c3f c8bd 2bc1 9bbd 822e 5b3b 4bff 00be
000000a0: 9ce3 233c ab0e a0bc 2d80 2fbc d6f3 19bd
000000b0: 91c3 edb9 3f6a 0abd d6f6 89bd 0393 29bc
000000c0: f662 ff3b 974a bfbd 02b4 27bd 668e ae39
000000d0: 9574 ffbd 440d fabd a710 e73b ab1c c3bc
000000e0: 3214 acbd bb53 a9bd 7152 603c 88c6 82bc
000000f0: 2c7e 8dbd 5e6b 243c 6487 f7bd f29f cbbc
00000100: 21bd 94bd 2a8d 98bd 9399 10bd b464 05be
00000110: d757 4dbd 4624 d8bd 7fe9 02be 4fa1 3d3c
00000120: 0dcf b5bd ea54 09be f39c c5bc 39ab 54ba
00000130: 0a4c 61bd f3ca cdbd 581e c33b 0acd 7ebc
00000140: 0e45 e4bc a724 8bbc 90cd b6bd 38b4 48bc
00000150: 5761 afbd cb0d 1bbe 8cb0 e0bd 2d2a c2bb
00000160: 24c3 33bd d8d4 55bc 30f2 b2bc 57bd 993c
00000170: 2bb3 e3bd 0efa 81bd 2b16 53bd 52f4 80bd
00000180: b044 d1bc 5bc3 f73c dbce e3bd 41ef 32bd
00000190: 67c1 34bd cdde eebd bb86 9ebc ef53 edbc
000001a0: a351 223c c722 8dbd 8ddf c2bd 5eb1 dabd
000001b0: aa09 d8bc 476b 16be f392 e2bb 73d5 fabd
000001c0: 5fee a7bd fb19 713c 3cda d2bd 9128 bdbc
000001d0: e600 21bd ee42 f7bb 3415 363d 51a6 eabc
000001e0: cf18 edbd 1bd2 7dbd 8ea3 a1bb cb7a a7bd
000001f0: 45a8 d0bd 060e fb3b ad7e c0bd 2dbc 18bc
00000200: d7b4 a1bd 4f8b 68bc cbdd 9fbd 2792 f7bd
00000210: 9259 44bc e79b bbbb a2ca 05be 28c3 dfbd
00000220: 4395 a4bd 3dac a0bd 2775 54bc b158 8fbd
00000230: 6528 4abd a66b 04be d684 923c 0712 b7bd
00000240: 976b 2dbd b177 13be 7c64 08be 64f0 e2bd
00000250: adeb fdbd 94ae 82bd 5e5d f73b 20c4 d2bd
00000260: 5cde 64bd 6437 aebd 3779 cdbc 2bcb edbc
00000270: 6392 263d 6a2e 31bd 3d86 bebd cd10 80bd
00000280: 37cf 96bb ed5e 62bc ab1a 153d 1ae6 873b
00000290: 1807 e4bc 4db0 b03a d058 b53b 243d 10bb
000002a0: 0f4d 73bd 6d39 7a3b 8177 f13c 5ca2 b9bd
000002b0: 1a36 40bd 9e71 14be 38a7 13be 260b cabd
000002c0: bf8b 16be 11b2 dbbd 6fb4 abbd ec13 47bd
000002d0: e407 cabc 1215 52bd 3f6a e5bd 6b05 9dbd
000002e0: 67d6 bbbd 9649 13bd be94 d1bc 86f9 813c
000002f0: 86cb aabd ce0b 7dbd f05a 0ebe 363e dabd
00000300: 9219 56bd 6b87 16be b108 2bbd b3be 9dbd
00000310: 0213 45bc d457 00bc 8503 01be 90ca 43bd
00000320: d6a8 b3bd 87be 0fbe 438a aabc b832 efbb
00000330: a007 2c3b 6bb3 a2bd 7730 87bd 5961 cebc
00000340: 855a 53ba f785 4a3b 93de 9f3c 54c3 1ebd
00000350: cb4f abbd d449 debd f8c8 a4bd 92cb d8bb
00000360: 4890 10be 38f5 ffbd 873b b3bd f137 24bd
00000370: c2bb 66bd 8c2c d3bc 8aba 8cbd a825 babc
00000380: acca 91bb dd5c 2dbd 95ca b1bd 6512 00bd
00000390: 17f5 38bd ba46 85bc 43e3 0cbd 9993 1bbd
000003a0: 15de 90bd bad0 07be 4f56 2ebd 9cf6 d03a
000003b0: 9241 04be 4fc4 9ebd 10e7 3cbd 3573 0cbe
000003c0: 4c01 5f39 b615 84bd d51e 48bd 397d 28bd
000003d0: 4c00 91bc fafc b9bc e96c fa3c 4940 963c
000003e0: fd45 58bd 1497 95bd e58d d0bd 1c8c 60bb
000003f0: 7cd8 bbbd 2991 79bd c560 f33b 846e 8ebd

conv_2.bias f4 [32]
0.010234871 -0.08200028 -0.08489848 -0.09453941 -0.03851095 -0.115546025 -0.00712339 -0.09513026
0.009253497 -0.14386396 -0.055124875 -0.066440605 -0.041603785 -0.084167235 -0.036154207 0.0071760784
-0.08147388 -0.119744696 -0.04466087 -0.08020787 -0.08702129 -0.06002419 -0.0126532065 -0.04901405
-0.12275902 0.027453048 -0.019360088 -0.116099745 0.023972582 -0.015204383 0.010938115 -0.023877498
00000000: 29b0 273c c3ef a7bd 41df adbd e19d c1bd
00000010: a8bd 1dbd 65a3 ecbd 546b e9bb a7d3 c2bd
00000020: fb9b 173c 1351 13be 9fca 61bd 0312 88bd
00000030: bb68 2abd df5f acbd 6f16 14bd 4f25 eb3b
00000040: c7db a6bd b53c f5bd 51ee 36bd 0644 a4bd
00000050: 3838 b2bd eddb 75bd 654f 4fbc f5c2 48bd
00000060: 1569 fbbd 37e5 e03c 0c99 9ebc b4c5 edbd
00000070: 2662 c43c ce1b 79bc c835 333c be9a c3bc

fully_connect1.weight f4 [10, 5408]
-0.053940825 -0.056091115 -0.051132973 -0.053427614 -0.05597188 -0.06859729 0.046194404 -0.05774532
-0.06430737 -0.06823221 -0.049034372 -0.0714321 -0.06987884 -0.06265605 -0.045480113 -0.04902867
-0.052875564 -0.047332518 -0.06519041 -0.058665346 -0.050656907 -0.054459576 -0.06333895 -0.06258385
0.046718046 0.0524216 -0.06704528 -0.06686258 -0.06795457 -0.05789128 -0.049750123 -0.058836527
-0.058362644 -0.06813312 -0.0680259 0.07019555 -0.06232608 -0.048691053 -0.066938095 -0.060034387
-0.06457874 -0.0568082 -0.060013928 -0.054887448 -0.05310237 -0.057828773 -0.052015502 -0.050135702
-0.067698315 -0.06604967 -0.062122248 -0.049068943 -0.052694365 -0.056057416 -0.050241664 -0.05096338
-0.05316641 -0.05590488 -0.06984755 -0.048572302 -0.06149474 -0.05981845 0.06759229 -0.071910426
-0.06042625 -0.068194285 -0.06437884 -0.063885465 -0.06201279 0.07055691 0.061574973 0.06574798
-0.052944336 -0.07225405 -0.05748658 0.05857109 -0.06037458 0.049696308 -0.054575816 -0.05809111
-0.047159318 -0.04625216 0.048867796 -0.06924637 -0.06967273 0.05900152 -0.06488626 -0.049170535
0.060087826 -0.04768388 -0.07094379 -0.062030822 -0.07045149 -0.066682756 0.06278186 -0.06557653
-0.052680798 -0.05331826 -0.049208097 -0.059125103 -0.06336417 0.05347806 -0.049689803 -0.04904649
-0.06652583 -0.0681536 -0.04544034 -0.058260262 -0.06441623 -0.064408176 -0.060058925 -0.064684615
-0.06644176 -0.062140644 0.06103019 -0.06863524 -0.055530146 -0.050195552 -0.058272477 -0.06940608
-0.05669698 -0.059203517 -0.05170022 -0.05713392 -0.060845193 -0.04825227 -0.05785248 -0.064761534
-0.06862099 -0.060509253 -0.04828027 -0.065002464 -0.054105394 -0.06552688 -0.05155246 -0.06983865
-0.057048853 -0.059763677 -0.066573665 -0.06591615 -0.051478717 -0.04949357 -0.06031402 0.059474602
-0.045634422 -0.051976677 -0.06525845 -0.056203533 -0.07176942 -0.06971921 -0.07021785 -0.045804493
-0.059697494 -0.068144314 -0.07187058 -0.06346304 -0.07133955 -0.05227619 -0.06363416 0.06801826
0.052446205 -0.0657255 -0.0529237 -0.04569473 -0.05333598 -0.052834135 -0.05355961 -0.06922827
-0.06521469 0.045589354 0.06506306 -0.04906175 -0.05473846 0.048552003 -0.060115185 0.04776689
0.057757717 0.07229703 0.07184653 0.051731274 0.06255733 0.04731802 -0.06427883 -0.05089229
-0.053824317 -0.04748866 -0.05708751 -0.063675135 -0.058991153 -0.050291948 -0.0719067 0.050679587
0.064413264 0.047985163 0.04554498 -0.053635567 -0.07055788 -0.047105934 -0.06973718 -0.06382899
-0.071753964 -0.05464261 -0.06393715 -0.07213061 0.045549147 0.06797561 0.047166303 0.05368068
-0.06386068 -0.06178804 -0.06829427 -0.055233516 0.058139697 -0.07117874 -0.051265515 -0.05485528
-0.056352723 0.054031223 0.0487135 0.059642877 0.053581905 -0.049317468 -0.046699572 -0.056124438
-0.05670039 -0.06288359 -0.06029069 -0.056672502 0.050683174 -0.050263837 -0.06397254 0.06934035
0.05133035 0.06687619 -0.057714436 -0.051967572 -0.06730842 -0.06610048 -0.067219384 -0.061101805
-0.06358324 -0.06745697 -0.07176258 -0.055013772 -0.05832594 0.05514177 0.07039757 -0.054272443
-0.058029097 -0.04969681 -0.06484238 -0.06434011 -0.057855688 -0.06398545 -0.051348936 -0.063855805
00000000: 0ef1 5cbd ccbf 65bd cf70 51bd ead6 5abd
00000010: c542 65bd bc7c 8cbd 5836 3d3d 5b86 6cbd
00000020: 95b3 83bd 54bd 8bbd 44d8 48bd fe4a 92bd
00000030: a31c 8fbd d151 80bd 5b49 3abd 49d2 48bd
00000040: 0c94 58bd bedf 41bd 8d82 85bd 134b 70bd
00000050: 9e7d 4fbd 0111 5fbd dab7 81bd f62b 80bd
00000060: 6c5b 3f3d 08b8 563d 094f 89bd 40ef 88bd
00000070: c42b 8bbd 681f 6dbd c9c6 4bbd 92fe 70bd
00000080: ab0d 6fbd 6189 8bbd 2a51 8bbd afc2 8f3d
00000090: a249 7fbd 4570 47bd d716 89bd 9ee6 75bd
000000a0: dc41 84bd b7af 68bd 2ad1 75bd a9d1 60bd
000000b0: df81 59bd dddd 6cbd 350e 55bd 185b 4dbd
000000c0: 6aa5 8abd 0d45 87bd e673 7ebd 84fc 48bd
000000d0: 0cd6 57bd 769c 65bd 34ca 4dbd fabe 50bd
000000e0: 06c5 59bd 84fc 64bd 3b0c 8fbd c0f3 46bd
000000f0: e9e1 7bbd 3104 75bd d46d 8a3d c645 93bd
00000100: 8481 77bd 72a9 8bbd 0ed9 83bd 62d6 82bd
00000110: 2001 7ebd 2480 903d 0a36 7c3d e0a6 863d
00000120: 29dc 58bd eef9 93bd 0c77 6bbd 3de8 6f3d
00000130: 564b 77bd 5b8e 4b3d e48a 5fbd f2f0 6dbd
00000140: 212a 41bd e872 3dbd 9929 483d 0ad1 8dbd
00000150: 94b0 8ebd 94ab 713d 16e3 84bd 0b67 49bd
00000160: a71e 763d 2c50 43bd fa4a 91bd 0814 7ebd
00000170: df48 90bd f890 88bd c793 803d fd4c 86bd
00000180: d2c7 57bd 3f64 5abd 6e8e 49bd 2a2d 72bd
00000190: 13c5 81bd cf0b 5b3d 8987 4bbd f9e4 48bd
000001a0: b23e 88bd 1d94 8bbd a61f 3abd 50a2 6ebd
000001b0: a8ec 83bd 6fe8 83bd 5900 76bd 5e79 84bd
000001c0: 9e12 88bd 3087 7ebd cbfa 793d a290 8cbd
000001d0: 9473 63bd da99 4dbd 1faf 6ebd c624 8ebd
000001e0: 183b 68bd 637f 72bd 9cc3 53bd 4205 6abd
000001f0: cf38 79bd 2ca4 45bd b9f6 6cbd b2a1 84bd
00000200: 2989 8cbd 8dd8 77bd 88c1 45bd 0320 85bd
00000210: 9e9d 5dbd f532 86bd ac28 53bd 9107 8fbd
00000220: 0fac 69bd c2ca 74bd c657 88bd 0cff 86bd
00000230: 59db 52bd c5b9 4abd d50b 77bd a49b 733d
00000240: 29eb 3abd 7fe5 54bd 39a6 85bd ad35 66bd
00000250: d8fb 92bd f2c8 8ebd 60ce 8fbd 7e9d 3bbd
00000260: 5c85 74bd 3f8f 8bbd e230 93bd e9f8 81bd
00000270: 781a 92bd 8f1f 56bd a052 82bd 284d 8b3d
00000280: d5d1 563d 179b 86bd 86c6 58bd 662a 3bbd
00000290: d476 5abd 9b68 58bd 5261 5bbd 8dc7 8dbd
000002a0: 488f 85bd e7bb 3a3d c83f 853d f9f4 48bd
000002b0: 6f35 60bd 77de 463d 573b 76bd 37a7 433d
000002c0: 5b93 6c3d 7710 943d 4624 933d 2ce4 533d
000002d0: 0f1e 803d 8ad0 413d 9fa4 83bd 6f74 50bd
000002e0: e376 5cbd 7883 42bd 98d4 69bd 1c68 82bd
000002f0: b5a0 71bd eefe 4dbd d243 93bd 6695 4f3d
00000300: 1aeb 833d 178c 443d 5f8d 3a3d f8b0 5bbd
00000310: a680 90bd 27f2 40bd 5ed2 8ebd c6b8 82bd
00000320: bef3 92bd eed0 5fbd 7bf1 82bd 37b9 93bd
00000330: be91 3a3d cc36 8b3d 7431 413d 46e0 5b3d
00000340: 63c9 82bd 7515 7dbd dedd 8bbd 8a3c 62bd
00000350: e423 6e3d 29c6 91bd cafb 51bd eeaf 60bd
00000360: 1dd2 66bd d84f 5d3d cf87 473d 174c 743d
00000370: b378 5b3d 1d01 4abd 0d48 3fbd bde2 65bd
00000380: ab3e 68bd 1dc9 80bd 5ff3 76bd 6d21 68bd
00000390: 2999 4f3d 74e1 4dbd 0904 83bd 5002 8e3d
000003a0: c63f 523d 62f6 883d f965 6cbd f3db 54bd
000003b0: ffd8 89bd b05f 87bd 51aa 89bd e345 7abd
000003c0: ee37 82bd e126 8abd 42f8 92bd 1f56 61bd
000003d0: 2ee7 6ebd 56dc 613d 9a2c 903d c84c 5ebd
000003e0: ebaf 6dbd e28e 4bbd 15cc 84bd bfc4 83bd
000003f0: 16fa 6cbd ce0a 83bd 4353 52bd d5c6 82bd

fully_connect1.bias f4 [10]
-0.050965972 0.008639371 -0.06771091 -0.06676624 -0.059700623 -0.08288902 -0.027255118 -0.05399226
-0.07097527 -0.014237678
00000000: b2c1 50bd 268c 0d3c 05ac 8abd bdbc 88bd
00000010: a488 74bd b8c1 a9bd 2046 dfbc fd26 5dbd
00000020: 7b5b 91bd 2645 69bc

fully_connect2.weight f4 [1, 10]
0.12267256 -0.074233636 -0.19139168 0.17708668 0.0035916748 -0.06755759 -0.26185384 -0.12691328
0.14948376 -0.15595435
00000000: c03b fb3d ce07 98bd 2efc 43be 3656 353e
00000010: 4e62 6b3b a25b 8abd b511 86be 8ef5 01be
00000020: 4512 193e 7fb2 1fbe
