bs16_lr0.001_weight.pt (torch, 240208 bytes, 7 tensors)

conv_1.weight f4 [16, 3, 3, 3]
000000 48 cc cb bd 98 01 10 3e fb 1c 92 3d 25 46 ff bd
       -0.09951073 0.14063108 0.07134434 -0.12464551
000010 57 9b 3a 3e dc c0 82 3b 5f d1 38 3d 82 a5 27 3e
       0.1822332 0.003990276 0.045121547 0.1637173
000020 87 47 a2 3d b9 79 24 3e 76 29 25 3d f5 48 b6 3c
       0.07923799 0.16062059 0.040322743 0.022251585
000030 e9 25 b1 bd d8 ea dd bd 80 39 07 3e f5 50 3e 3e
       -0.08649809 -0.108358085 0.13205528 0.1858557
000040 d6 b5 11 bd 7d d3 2d be 2a 62 21 3e 05 74 79 bc
       -0.035573803 -0.16975208 0.15760103 -0.015225415
000050 47 e0 a1 bd e3 97 3c 3e 1a 70 d8 3d b8 da 17 3e
       -0.07904106 0.18417315 0.10568257 0.14829528
000060 14 b7 af bc ed 91 13 bd d7 a7 96 3c b0 ab 60 bc
       -0.021449603 -0.036027838 0.01839058 -0.0137128085
000070 97 12 2f 3e 25 76 30 be 0b 36 23 3c 1a 1a cd bd
       0.17096935 -0.17232569 0.009961615 -0.10014744
000080 b7 77 82 bc 3b 68 8f bd 9e 86 2b be 10 39 1b b8
       -0.015926225 -0.07002302 -0.16750571 -3.7008023e-05
000090 a8 c2 3d 3e cf e6 39 3e 39 60 30 3e 1b 31 53 3e
       0.18531287 0.18154453 0.17224206 0.20624201
0000a0 76 7e f9 3d 5f 47 3f 3e 1f 75 39 3e e5 b1 8c bd
       0.12182324 0.1867957 0.18111084 -0.06869868
0000b0 3c 57 c8 3c cd 8c 4c 3e 86 a0 31 3e 4e 65 ed 3d
       0.02445566 0.19975586 0.17346391 0.11591588
0000c0 e3 0e ba 3c 8c 2d a7 bd 59 72 97 bd 21 2f 9c bd
       0.022712177 -0.08162984 -0.07394857 -0.076261766
0000d0 21 d8 eb 3d 4d 92 d9 3d 6c fa 36 3d df 30 d9 bd
       0.11515833 0.10623608 0.044672415 -0.106050245
0000e0 b0 63 8b bd dd 0e 3a 3c 7f 3f 89 bc d1 ec fe bd
       -0.06806123 0.011356083 -0.01675391 -0.12447513
0000f0 64 f5 32 be 3b 23 37 be f3 11 fd bd be 8e 0d 3e
       -0.17476422 -0.17884533 -0.12356939 0.13823983
000100 7d fc 03 3e 6e 5f 6b 3d c7 e9 0d 3e 76 33 1d be
       0.12889285 0.057464056 0.1385871 -0.15351662
000110 bf 32 72 bc 18 c4 b6 3d fc 08 35 bd 85 64 44 be
       -0.014782607 0.08924121 -0.04419802 -0.1917897
000120 61 da 70 bd bd 5f 1f 3e 19 27 d7 3d 99 bc a8 bc
       -0.058802012 0.15563865 0.10505504 -0.020597743
000130 6b 7f b6 bd 7e 25 0f 3e 99 8b 8d 3d 7f 5d a4 bd
       -0.08911022 0.13979146 0.06911392 -0.080256455
000140 1f 17 f2 3d 8c 4f 4f 3a 53 eb e3 3d 4f 7c b4 bd
       0.11820816 0.0007908277 0.11128869 -0.088127725
000150 71 c1 b5 3d 10 fb 20 3e 64 30 15 bc a5 b6 7b 3d
       0.08874787 0.15720773 -0.0091057755 0.06145348
000160 0b af eb 3c 20 e4 92 3c 24 24 37 be 06 cc e3 3c
       0.02876999 0.017931044 -0.1788488 0.027807247
000170 96 ce 36 bd 47 e6 74 bd d1 25 b1 3c 23 7f 3e 3e
       -0.04463061 -0.059789922 0.021624478 0.18603186
000180 fb f3 21 be ac d3 d7 3d 9e 4d 17 3e 01 6a d6 bd
       -0.15815727 0.1053842 0.14775702 -0.104694374
000190 48 5b 32 be b1 0e bc bd 52 24 86 3d 90 58 4e 3e
       -0.17417634 -0.0918249 0.06549896 0.20150971
0001a0 23 dd 12 be d5 20 f4 3c 7b c9 58 3d 01 d0 b5 bd
       -0.1434217 0.029800812 0.05292652 -0.08877564
0001b0 aa b4 0a be 64 f6 ac 3d f1 0e 96 bd 9a 80 0e be
       -0.1354548 0.08445433 -0.073270686 -0.13916245
0001c0 ed 4c 48 bd 68 42 89 bd fe 51 7d 3d 5e a9 d2 bd
       -0.048901487 -0.06702119 0.061845772 -0.102862105
0001d0 63 14 b2 3d 45 57 a3 bd 31 82 01 3e e8 9b d6 3d
       0.08695295 -0.0797563 0.1264732 0.104789555
0001e0 1c 07 b2 3d 09 8a 30 be 59 36 02 be f7 7d c3 bd
       0.08692762 -0.17240156 -0.12716044 -0.0954551
0001f0 e0 40 93 bd 46 ea 0f 3d 5a 10 18 3c 83 71 44 3c
       -0.07190108 0.03513553 0.009281242 0.011989954
000200 13 9d 52 3d 5e b8 22 3e 71 70 5d 3d ad 7e f0 3d
       0.05141933 0.15890643 0.05406231 0.117429115
000210 9a 03 bf bc 17 0c b5 bd 6b 84 2c bd e4 b1 30 be
       -0.023317147 -0.088401966 -0.04211847 -0.1725536
000220 7f d7 3c bd a4 62 11 be 92 35 8c 3d 94 f0 06 bd
       -0.04610395 -0.14197785 0.06846155 -0.032944277
000230 c4 d3 18 be 2f 4a 0c be 9c f5 be bd 57 c7 0b 3e
       -0.14924532 -0.13700174 -0.0932419 0.13650261
000240 10 84 2b 3d 6d 8d 1c be 3e e5 26 bd 2a d8 13 bc
       0.04187399 -0.15288325 -0.040745966 -0.0090237055
000250 6b 3b 0e 3d 4a 93 f3 bd 73 14 ba bc 17 47 49 3e
       0.034724634 -0.118933275 -0.02271483 0.19656025
000260 7f 63 14 3e 14 1a f2 3c 0f 7e 38 be 75 d6 02 be
       0.1449108 0.02955345 -0.18016838 -0.12777121
000270 b8 13 8d bc 4a 89 1c 3e 63 94 9c bc 10 71 25 3e
       -0.017221317 0.15286747 -0.019113725 0.16156411
000280 39 54 ac bd 0e a8 d4 3d 2b 96 5b bd 92 45 f8 3d
       -0.08414502 0.103836164 -0.05361001 0.121226445
000290 af 11 f9 3d 8d ee 5a bd 67 81 e1 bb b7 a1 c1 3d
       0.12161576 -0.053450156 -0.006881881 0.09454673
0002a0 6f 8a 06 3e 90 0b b5 3c 3b d9 ec 3c 37 4e 14 bd
       0.13138746 0.02210024 0.028912177 -0.036207404
0002b0 67 b7 c0 bd 10 2f e6 3d dc 85 1b be 08 b6 c6 3d
       -0.09409981 0.11239445 -0.15187782 0.097026885
0002c0 18 b4 30 be b2 38 20 3e fa 24 4d 3d 8c e8 f0 3d
       -0.172562 0.15646628 0.05008409 0.11763105
0002d0 e2 cc f6 bd aa f8 94 bd c9 47 c9 3d 9a 88 f6 bd
       -0.12050797 -0.072739914 0.09828145 -0.120377734
0002e0 1b 2a 53 3e 46 75 07 3e c0 2f 24 be 6b ff 51 3e
       0.2062153 0.1322833 -0.1603384 0.2050759
0002f0 5f d1 e2 bd aa 35 24 3e 18 a1 97 bd a0 a1 46 3c
       -0.110750906 0.16036096 -0.07403773 0.012123495
000300 13 e9 e8 3d 29 d7 1b 3e 4a b1 2d be 46 93 e7 b9
       0.113725804 0.15218796 -0.16962162 -0.0004416948
000310 da 3a 07 be c2 ae ac bc 1b 1e 88 bd 74 8d 10 3d
       -0.13206044 -0.021079425 -0.06646367 0.03529115
000320 bf ee cb bd dc 38 6c 3d 52 46 88 ba f6 54 50 3e
       -0.099576466 0.057671413 -0.0010396934 0.2034491
000330 80 81 eb bb 5a 5c 0c be 34 90 33 3d 47 2d ac 3a
       -0.0071870685 -0.13707104 0.043838695 0.0013136052
000340 21 87 d0 bc 29 97 40 bd 4d ed 38 3e 49 0a 55 3e
       -0.02545506 -0.047019158 0.18059273 0.20804705
000350 f1 8b ba 3d e6 92 cb 3d a0 3d ab 3c 87 4c 54 3d
       0.09108723 0.09940128 0.020903409 0.051830795
000360 e6 a7 3a 3c e0 4b 9e bd f0 17 05 3e 36 b2 00 3e
       0.011392569 -0.07729316 0.12997413 0.12567982
000370 4a c9 c1 3c 28 90 36 3d 7a b1 25 3e 06 14 49 bd
       0.023655552 0.044571072 0.16180983 -0.04909136
000380 21 44 40 3e d5 31 01 be 62 c3 02 3e cd f6 aa bd
       0.18775989 -0.12616666 0.12769845 -0.08347855
000390 9d 51 aa bd 21 8c d3 bc be 80 8a 3d a2 18 86 3d
       -0.08316348 -0.025823655 0.06762837 0.06547667
0003a0 a4 d7 01 be 33 4b 1e 3d 58 aa 27 be f0 32 22 be
       -0.12679917 0.038645934 -0.16373575 -0.15839744
0003b0 44 39 32 be 70 ca 67 bd 1c bf f9 bd 54 2e 67 3d
       -0.17404658 -0.056589544 -0.12194654 0.056440666
0003c0 4d 63 aa bd cc 24 29 3e b3 cc c6 bd 35 11 86 bd
       -0.08319721 0.16517943 -0.09707012 -0.06546251
0003d0 04 6d 2f 3e 4c 30 38 be 86 a7 b8 3d d0 a9 82 3d
       0.1713143 -0.17987174 0.090163276 0.063800454
0003e0 3e 04 fe 3d 69 ab 3f bc f0 ea 29 3e 6f 26 09 be
       0.12403153 -0.011698582 0.16593528 -0.13393568
0003f0 6a 11 ac 3b 43 ba 8d bd 62 2f 19 3e 75 8a 1a 3e
       0.0052510994 -0.06920292 0.14959481 0.1509188

conv_1.bias f4 [16]
000000 e5 cd eb bd f3 10 9d bd 20 89 89 3d b7 01 28 bd
       -0.11513881 -0.076692484 0.06715608 -0.04101726
000010 71 ce 3b be 5c d7 bf 3d d9 30 f8 bd a1 e2 0f bd
       -0.1834047 0.093672484 -0.12118692 -0.03512824
000020 f3 0d 7e 3d 7c 54 92 bd e1 39 40 3e 89 42 aa 3d
       0.06202502 -0.0714502 0.18772079 0.08313472
000030 df 54 2f be 6a c8 16 be d7 bf 0b 3e b6 01 f9 3d
       -0.1712222 -0.1472489 0.136474 0.121585295

conv_2.weight f4 [32, 16, 3, 3]
000000 ee 99 a7 3d 26 75 9c bc 73 de 21 3c 4f d8 67 bd
       0.08183657 -0.01909883 0.009879696 -0.056602772
000010 15 40 15 bd f1 4b ae 3d 34 b6 96 3d e9 e0 c7 3b
       -0.036438067 0.085105784 0.07358971 0.0060998094
000020 33 ca 34 bd 72 f9 21 bd 6a 41 e7 3c 85 a0 aa 3c
       -0.044138145 -0.03954453 0.028229434 0.020828495
000030 af a3 c8 3d 44 83 a4 3c de 55 6e 3d ab ff a9 3d
       0.09796845 0.020082124 0.058187358 0.08300718
000040 d8 0f 69 3d 14 fc 83 3d 63 54 39 bd df ae 39 bd
       0.056899875 0.064445645 -0.045246493 -0.045332786
000050 ca 02 8e bd 5b 0e 86 3c 2d b6 ad 3c c5 35 a3 bd
       -0.06934126 0.016364267 0.021205032 -0.0796924
000060 5c c8 d7 3c 65 7a 9c 3d be 70 7f bd 54 c7 90 bd
       0.026340656 0.076405324 -0.06236338 -0.07069269
000070 c8 3e 97 bd 74 aa c7 bd dc d6 3e 3d 85 40 91 bc
       -0.073850214 -0.09749308 0.046591625 -0.01773096
000080 aa cf 88 bd 58 f9 5a 3d b6 4d 3f 3c 45 25 23 bc
       -0.06680234 0.05346045 0.011676243 -0.009957616
000090 66 8f d5 bc 02 e9 26 3d 9a d1 7a 3c b4 b7 f7 3c
       -0.026069354 0.040749557 0.015308762 0.030238964
0000a0 64 02 d1 bc da b8 12 bd f1 7d db bc 52 e7 6a 3d
       -0.025513835 -0.03582082 -0.026793452 0.05734951
0000b0 f4 d1 40 bd 46 4e 0d 3c 75 8d 2c 3d f7 5c fa bc
       -0.047075227 0.008624619 0.04212709 -0.030561907
0000c0 5f e4 09 3d 3d 45 92 3d b6 fd a1 bd ee 2b 9f 3c
       0.033665057 0.071421124 -0.0790972 0.019430127
0000d0 be 1d 51 bd 37 17 8b bc 4e d1 85 bd 40 fd 45 3b
       -0.051053755 -0.016978843 -0.06534062 0.0030210763
0000e0 c4 37 1f bc 3b 7c e4 3c ac 7a a3 bd 89 a1 31 3d
       -0.009717885 0.027891269 -0.07982382 0.043366943
0000f0 0b 47 60 3c c8 be bc 3b 57 6d 9a 3d 67 4a 47 bc
       0.013688813 0.0057600476 0.07540386 -0.012163735
000100 be 75 64 bd f0 f1 8b 3d 54 33 cc 3d b9 fc 71 bd
       -0.05577635 0.06833255 0.099707276 -0.059078906
000110 65 a6 bb 3d 7b cd 80 bd cf 88 03 bd f7 40 ef 3c
       0.091625966 -0.06289192 -0.032112893 0.029205782
000120 47 56 aa bd f3 78 71 bd 2b 41 b0 bd 31 e0 c7 bd
       -0.08317237 -0.058953237 -0.0860618 -0.09759558
000130 06 76 76 bd 77 0b 42 3d 11 42 bd bd 67 43 19 3d
       -0.06017115 0.047374215 -0.09241117 0.037417796
000140 5a 15 c2 3c d2 06 67 3d 8a aa fb 3c 04 ae c5 3d
       0.023691822 0.05640299 0.030720968 0.096523315
000150 a8 3e db 3a 1a 50 a3 bb bd 84 cc bb 71 fe 40 3d
       0.0016727047 -0.004983914 -0.0062414096 0.047117654
000160 ad 0d cd 3b 3d 5b 48 3d 21 49 32 3d 76 28 7c 3d
       0.006257734 0.048915137 0.043526772 0.061562024
000170 ed 26 56 bd 01 3f 86 3d fe dd b0 3d 48 d2 a7 3d
       -0.052283216 0.06554986 0.08636092 0.08194405
000180 5a 77 65 3d 28 2e aa 3d 36 d7 8a 3c 1d 9b c4 3d
       0.056022026 0.08309585 0.016948324 0.09599898
000190 57 05 99 3c f8 b7 65 bd 5c 97 c1 3d 01 68 ac 3d
       0.018679304 -0.05608365 0.09452698 0.08418275
0001a0 73 9b 2c 3d b7 bf b0 3d 3f 8d 3b 3d fb 56 57 bd
       0.042140435 0.08630317 0.045789 -0.052573185
0001b0 52 9d 75 3d 90 16 85 bc f0 12 55 bd 31 28 8a bd
       0.059964485 -0.01624611 -0.052020013 -0.06745947
0001c0 7c 55 49 3c 6d b1 47 bc a9 9e e9 3c 85 04 aa 3d
       0.0122884475 -0.012188298 0.028518038 0.08301643
0001d0 76 8b 63 bd e3 e4 5a bd dc 2e 75 bc 2d d0 a2 3c
       -0.055552922 -0.05344094 -0.014964785 0.019874657
0001e0 cc 5a a2 3d 42 6d a6 bc e4 15 39 3d 68 db be bc
       0.079274744 -0.02031577 0.045186892 -0.02329798
0001f0 be f6 ae 3d 08 f7 64 3d d8 1c 04 3d 44 14 42 3d
       0.08543156 0.05589965 0.03225407 0.047382608
000200 8c 0e ac bd e7 ad 24 bd 7b 7f 26 bd b0 01 a8 bd
       -0.08401212 -0.04020491 -0.04064892 -0.08203447
000210 e0 57 e7 3c 79 d8 a6 3c de 40 9b bd 2c bc 29 bd
       0.028240144 0.020366894 -0.07580732 -0.04143922
000220 58 6a f6 3c 43 23 09 3c 23 69 89 bd 5c a4 82 3d
       0.030080006 0.008370223 -0.06709506 0.06379005
000230 bf 8b 59 3d a6 c5 ae bd d9 50 1d bc fc c5 ca bd
       0.053111788 -0.08533792 -0.009601795 -0.09901044
000240 f6 a7 5b bd f5 10 93 3d 05 1e 87 bd 68 1a 9d 3d
       -0.053626977 0.07180969 -0.06597523 0.07671052
000250 74 cf 9a 3c 28 ab 2a 3d 25 fa 35 3d ad 97 e9 bc
       0.01889775 0.041667134 0.04442801 -0.028514707
000260 d9 df c6 3d 6a 10 8d bd 72 41 6d 3d 4d 72 42 3d
       0.09710664 -0.06887896 0.05792374 0.047472287
000270 8d 5b 5a 3d b5 91 c9 3b 48 c2 74 3d 9b fa 8c 3c
       0.053309966 0.006151403 0.059755594 0.017209342
000280 e8 eb e5 3c 9e 00 3e 3d 7d 38 94 3d 09 6e 58 3d
       0.02806659 0.046387307 0.07237337 0.052839313
000290 24 ae 60 bd 00 78 97 bc 53 66 8d 3d 27 5f a0 3c
       -0.054853573 -0.018489838 0.069042824 0.019576622
0002a0 63 d0 5c bd 5b 6d 4e bc 4a 31 66 bd a5 cb 3d bd
       -0.05390967 -0.012599315 -0.05619935 -0.04633679
0002b0 ff 9d 6f bc b9 8b 0e bd 9a 61 cf 39 48 65 27 3d
       -0.014625072 -0.03480122 0.00039554836 0.040868074
0002c0 b6 55 1f bd 6e a7 28 3d 87 c9 dd bb d8 9a fd 3c
       -0.0389001 0.0411753 -0.0067684087 0.030957624
0002d0 18 e2 ac bd 45 e9 b9 bd ca a6 93 bd 79 2a ca bc
       -0.084415615 -0.09077696 -0.07209547 -0.024678456
0002e0 86 9b af bc a1 9b be bd 49 79 91 3c a0 84 5f 3d
       -0.021436464 -0.093070276 0.017758029 0.05456984
0002f0 7c c9 81 3d 8f 46 86 3d 36 9f 18 3d 12 d3 a0 bd
       0.06337258 0.06556427 0.03726121 -0.078527585
000300 98 80 1a 3d 31 cf 56 bd 76 34 1b bc 5c 70 e2 3a
       0.037720293 -0.052443687 -0.009472957 0.0017275917
000310 c3 8c 85 bb 96 a9 79 3c a7 c3 31 3d b9 52 2d bd
       -0.004075618 0.015238186 0.04339948 -0.04231522
000320 10 33 09 bd 79 e3 12 bb 58 09 a0 3d 99 75 9b bd
       -0.033495963 -0.0022413416 0.07814282 -0.07590789
000330 49 7f 19 3d 7c 96 15 3d 03 ad b0 3c fd 20 ad 3b
       0.037474904 0.036520466 0.021566873 0.0052834735
000340 1d f3 52 3d 09 34 10 bd 1e b2 10 3d c7 db 91 3d
       0.051501382 -0.035205875 0.035326116 0.07121997
000350 32 7f b8 bb e2 4a 21 bd 0b fd 1d bd 1d 0e 6f bd
       -0.0056303972 -0.039378054 -0.0385714 -0.05836307
000360 ae 0b 49 3c cb f9 a3 bc 52 2b ab 3a c2 2f 10 3d
       0.012270851 -0.020016572 0.0013059175 0.035201795
000370 46 5b a3 bd bb ab c7 bd ea 76 54 bd 01 00 c4 bb
       -0.079763934 -0.09749552 -0.051871218 -0.005981446
000380 7f 8e 91 bc d4 9d 34 3d a2 5f 9b bc c4 b3 58 3d
       -0.017768143 0.04409583 -0.0189665 0.052905813
000390 e7 c4 62 bb 99 b2 dc 3c 41 a8 76 3d 45 12 a9 3d
       -0.0034602226 0.02694063 0.060219053 0.08255438
0003a0 e8 22 11 3c 38 dd 49 3d 79 2e a7 bc c8 d0 d6 3c
       0.00885842 0.049283236 -0.020407902 0.026222602
0003b0 3b e9 a5 3d 93 15 05 bd ed ba 0a 3d e5 3c bd 3c
       0.08101126 -0.032491278 0.033869673 0.023100326
0003c0 bc f5 c9 3c 24 dc 6a bb 07 7b 96 3d dc 33 de 3c
       0.024653308 -0.003583678 0.07347684 0.027124338
0003d0 34 a4 ec 37 be 18 2b 3c 87 b9 a8 3d d7 09 c6 3c
       2.8209855e-05 0.010442911 0.082385115 0.024174614
0003e0 89 2d e3 bc 9b 1b 4e 3c 29 34 01 3a e0 46 88 3d
       -0.027731674 0.012579824 0.0004928732 0.06654143
0003f0 d0 e6 4f bd 57 ca dc bd 92 f8 1d 3c f6 a2 28 3d
       -0.05075723 -0.10780781 0.009641783 0.041171037

conv_2.bias f4 [32]
000000 a0 62 1d 3d 4c 26 83 3c 26 7d a4 bd cd 85 8c 3d
       0.038424134 0.016009472 -0.08031683 0.06861458
000010 0c 72 74 3d 95 7b 1d 3d 6f e0 93 3d 9f 4d b3 ba
       0.059679076 0.038447935 0.07220542 -0.0013679749
000020 2a a0 53 bd 07 48 22 3d cb ac 45 3c 1e 90 33 bc
       -0.051666416 0.039619472 0.012065123 -0.010959653
000030 35 0f da 3c 51 7a 9e bd bc 2b 8f bd ee 48 d2 3b
       0.02661858 -0.07738174 -0.069907635 0.0064173853
000040 f8 dd cc 3b 06 4f 29 3d e6 6d 8d bd 85 de a3 3c
       0.0062520467 0.04133513 -0.06905727 0.020003567
000050 2c d7 92 3d 63 b6 b5 3d b1 17 b7 3c 24 98 3d 3d
       0.07169947 0.08872678 0.022350164 0.04628767
000060 6d 3d 97 3d c0 b6 9d 3c d7 23 7f bd dd c0 cc bc
       0.07384763 0.019252181 -0.06229004 -0.024994308
000070 99 4b 8c bd 5c d4 82 bc 13 12 aa 3c be bc 64 3d
       -0.068503566 -0.015970401 0.020760572 0.05584406

fully_connect1.weight f4 [10, 5408]
000000 23 85 1f 3c 28 2d 5f 3c 11 01 e2 3b 55 60 b8 3c
       0.009736332 0.013621606 0.0068971 0.022506872
000010 02 c1 d6 3b 3c 75 89 3c 85 7f b8 3b ae 1a da 3a
       0.00655377 0.016779535 0.005630436 0.0016640031
000020 51 a6 64 3c 1d fb e8 3b 50 21 1d 3b ce 85 34 3c
       0.013955669 0.007110013 0.0023976155 0.01101823
000030 6b 28 a5 3c 16 20 29 3c 88 46 0b 3c 71 f1 7d 3c
       0.020160874 0.010322591 0.008500703 0.015499459
000040 15 b1 9c 3c 49 96 ce bb 7d 7a b9 3b 0c 23 89 3c
       0.019127408 -0.0063045365 0.0056603537 0.016740344
000050 8f 1a 9d 3c f5 95 64 3c 96 9a 9d bb ec 9c b9 3b
       0.019177703 0.013951768 -0.004809688 0.0056644585
000060 7c aa 95 3c 08 41 a0 3c ea 7e 0e 3a db ba 38 bb
       0.01826977 0.01956226 0.0005435782 -0.0028187546
000070 86 60 73 bc 75 87 4b bc 92 61 29 ba 26 c0 80 3b
       -0.014854556 -0.012422432 -0.00064613775 0.003929156
000080 9b 24 11 3c 5b 75 79 39 10 92 c1 ba c5 55 54 bc
       0.008858825 0.00023790209 -0.0014768261 -0.012959902
000090 89 80 ee 3b bb e7 54 bc ba a3 1b bc fb 31 e5 3b
       0.007278506 -0.012994702 -0.009499485 0.0069944835
0000a0 1e 34 6b 3b da 9b 90 bb a0 85 28 3c 03 cf 69 3a
       0.0035889219 -0.00441311 0.010285765 0.0008919092
0000b0 ae 97 41 3c f8 99 8f bb 72 56 14 3c d1 67 43 3b
       0.011815948 -0.004382368 0.009053813 0.0029816518
0000c0 7d 1a fe 3b 04 26 31 3b 2b 7e 83 bb 25 ed fe bb
       0.0077546225 0.0027030716 -0.004012843 -0.0077797347
0000d0 1e 70 fa bb dc 88 43 bc b9 86 26 ba 92 75 2e 3c
       -0.00764276 -0.011934485 -0.00063524727 0.010648148
0000e0 80 7a 95 ba 13 8d 65 3c c9 9a 9a bc 1d 4a 6b ba
       -0.0011404306 0.0140106855 -0.018872635 -0.00089755823
0000f0 1c 3c 7a 3c 65 5e 99 3b 6c da 88 3b 01 29 44 bb
       0.01527312 0.004680442 0.0041764285 -0.0029931667
000100 6d 0e 8d 3b 89 5b 03 3b 78 28 41 3b 3b e9 50 b9
       0.004304698 0.0020043573 0.0029473584 -0.00019923311
000110 8e 26 29 3a d4 82 a6 3c 08 59 03 bc a4 26 89 b9
       0.00064525835 0.020326056 -0.008016832 -0.00026159466
000120 2b 58 89 3c 1e 7d 87 bb d6 ff 43 bb 69 2e 8c 3b
       0.016765675 -0.004134788 -0.0029907129 0.0042779935
000130 ad 2d 2b 3c 2d ea ba bb 30 24 15 bb d4 34 cc bb
       0.010447902 -0.0057041855 -0.0022757165 -0.0062318835
000140 dd 70 b1 bb a5 40 c6 3a f7 16 2d bc 52 79 10 3c
       -0.0054150657 0.0015125467 -0.010564557 0.0088179875
000150 b5 07 41 3a bd a4 45 bb e6 2b d9 3a 70 82 6d 3c
       0.0007363514 -0.0030158006 0.0016568869 0.014496431
000160 5d 50 0b bc da 40 26 3c e3 d5 1f bc 29 c8 09 3b
       -0.008503047 0.010147298 -0.009755584 0.0021023846
000170 08 3e 09 bb a4 07 d1 3c b8 6c b8 3c 56 1f 50 3c
       -0.0020941515 0.025516339 0.022512779 0.012702784
000180 1b fe 6a bb 22 f5 c1 bc 74 d3 bc bc bf a4 62 bc
       -0.0035857025 -0.023676459 -0.023050047 -0.013833224
000190 21 be 8b b8 00 68 74 3c ef c7 bb ba 70 a9 75 3c
       -6.663451e-05 0.014917374 -0.0014326553 0.01499401
0001a0 f9 a3 1d ba 7f 5f 79 3c 23 c2 6f 3a 84 59 90 3c
       -0.00060135085 0.015220522 0.0009146055 0.01762081
0001b0 f1 cb 0a 3b 63 36 70 bc 55 c1 a7 bc c7 8d b7 bc
       0.0021178687 -0.014661404 -0.02047793 -0.022406472
0001c0 e5 b9 ab 3b 41 5a 13 bb a4 fe e9 39 10 2d 06 3c
       0.005240666 -0.0022484215 0.00044630945 0.008189455
0001d0 3a 06 34 3c 6b 6f ac 3c 5b 82 e0 3b 9f c9 5a bc
       0.010987813 0.021049222 0.006851477 -0.013353734
0001e0 66 53 04 3c cb 15 0a bc a2 f7 4f bc 27 0b b8 bc
       0.008076524 -0.008428047 -0.012693318 -0.022466255
0001f0 10 44 61 bc fb 32 78 bb 24 62 62 bb 22 fc 97 3c
       -0.0137491375 -0.0037872184 -0.003454336 0.018552843
000200 32 9c 16 3b 6b b5 2b 3c ba 58 b5 3a a4 22 b3 bb
       0.0022981283 0.010480265 0.0013835647 -0.005466776
000210 c6 69 8b 3c a8 d1 7a bb 68 0d c1 3a 38 89 27 3b
       0.01701821 -0.0038271938 0.0014728727 0.0025563966
000220 1b 8f 25 3a d8 d0 21 bc ad 27 dd 3b eb 32 95 3b
       0.0006315575 -0.009876452 0.0067491145 0.004553189
000230 cf 77 96 bb 29 b2 8f 3c 01 76 e2 bb 99 f3 00 3c
       -0.004591919 0.017541008 -0.00691104 0.007870578
000240 6b db 95 bc 36 1f af 3b 94 c7 4c bb 76 7e cd bb
       -0.018293103 0.005344297 -0.0031246888 -0.006271179
000250 37 cd 23 bc 62 a3 47 bc 54 29 3d bc 59 74 8a bc
       -0.0099976575 -0.01218495 -0.011545498 -0.016901182
000260 d7 73 64 b9 a3 57 88 3a 34 37 fa 3b 25 9f 44 bc
       -0.00021786928 0.0010402094 0.0076359753 -0.012000834
000270 d3 1f cd ba b2 38 92 bc 60 88 00 3c b7 31 45 bc
       -0.0015649743 -0.0178493 0.007845014 -0.012035779
000280 e7 af b6 bc b2 8f 5b bc 2d 77 bb bc 05 ee 57 bc
       -0.022300674 -0.013400959 -0.022883976 -0.013179307
000290 78 7a 1e bb ec 43 0f bc 4b 36 3c 3c b9 a7 62 bb
       -0.0024181884 -0.008744221 0.011487554 -0.0034584834
0002a0 18 e0 91 3b 11 af 92 3c 94 7d 45 ba b5 41 6d 3a
       0.004451763 0.017905744 -0.0007533666 0.00090506236
0002b0 b7 aa 0e 3c ab 57 bd 3b e5 c6 75 bb f1 e7 87 3c
       0.008707694 0.005778273 -0.0037502584 0.01659009
0002c0 76 96 0a bb 7c 23 72 ba eb c3 53 3c a0 6a 05 3b
       -0.002114681 -0.0009236855 0.012925128 0.0020357743
0002d0 84 2f cf 3b ea 93 7b 3c 67 3b 38 3c 23 40 c5 3b
       0.006322803 0.01535509 0.011244631 0.0060196086
0002e0 72 aa 46 3c d6 f9 73 3b 8e d8 b4 bb 18 38 7a 3c
       0.012125598 0.0037227771 -0.0055189794 0.015272163
0002f0 90 0c 48 ba 9b fb 6d 3c 8e a1 cc 3b aa b7 35 3c
       -0.00076312665 0.014525319 0.0062448448 0.011091152
000300 cb 21 0e bb 63 f7 d9 3b dd 73 cb 3b 92 9e 4e 3c
       -0.0021687623 0.0066518052 0.0062088803 0.012611048
000310 30 8e c7 3b 59 d4 58 3b 10 ff 0c bc 24 a9 18 bc
       0.006089948 0.0033085553 -0.0086057335 -0.00931767
000320 76 a1 a9 39 b5 f8 23 bb 50 35 fa 3b 72 f7 84 3c
       0.0003235449 -0.0025020067 0.00763575 0.016231272
000330 7e 33 9d bc 3d f8 ac 3b bb 5d 05 39 1f b1 45 3c
       -0.019189592 0.0052786157 0.00012718786 0.012066155
000340 47 43 48 bc f3 d6 28 bb b8 4e f3 3b 38 ab 57 bc
       -0.012223071 -0.0025762885 0.0074251555 -0.01316338
000350 d7 0c 06 3c d7 73 67 bc 50 af 32 bb 04 52 03 bc
       0.008181772 -0.014126739 -0.002726514 -0.0080151595
000360 ab 62 2b bc 71 b4 ab 3b 25 e4 4a 3b 8f bd 18 3a
       -0.010460536 0.005240016 0.0030958739 0.0005826586
000370 d5 85 e7 ba d0 4f 04 3c e3 48 b7 bc cf fa fe 3b
       -0.0017663786 0.008075669 -0.022373622 0.0077813636
000380 60 eb 14 3b 0a e7 f2 3a 66 a8 f5 3b a1 52 21 3c
       0.0022723302 0.001853199 0.0074968813 0.00984636
000390 97 8c 7b bc 77 43 82 bc 45 99 71 bb f9 89 af 3c
       -0.015353343 -0.01590131 -0.0036865037 0.021428095
0003a0 ef 64 5f bb 34 bb 8b 3a 00 af 97 3b 3c 04 8b ba
       -0.003408726 0.0010660649 0.004629016 -0.001060612
0003b0 77 57 00 3c 8b 6e 4a 3c 83 7d b5 3c 43 32 6b bb
       0.007833353 0.012355457 0.022154575 -0.0035888113
0003c0 01 4d c4 3b e7 28 b3 3b 3b e2 44 3c 49 e2 57 bb
       0.005990625 0.0054675224 0.012016828 -0.0032941273
0003d0 93 06 49 3a c8 e1 0c bc de e5 07 bc a0 e7 66 3c
       0.0007668521 -0.008598752 -0.008294551 0.01409331
0003e0 1f 64 5f bc 92 9b 73 3b 1e d2 f6 3b fd 46 35 3c
       -0.013634711 0.0037171585 0.007532372 0.011064288
0003f0 9a 05 fb bb 73 9b 14 3c 75 e9 0a 3c 57 3c 69 bc
       -0.00766058 0.009070265 0.008478512 -0.014235578

fully_connect1.bias f4 [10]
000000 89 a4 26 3b f0 45 51 3c e3 04 8c 3c 8d e4 e3 bb
       0.002542766 0.012773022 0.017092174 -0.0069547356
000010 37 c8 c7 3a a1 89 73 bb 94 8d 00 bc ea 3e 25 3c
       0.0015242164 -0.003716089 -0.007846255 0.010085801
000020 92 ef 5a bc 15 d5 b9 bb
       -0.013362782 -0.0056711533

fully_connect2.weight f4 [1, 10]
000000 ac 2f 33 be b1 82 60 be ab 3b 0f be 11 08 fc 3c
       -0.17498654 -0.21924855 -0.13987605 0.030765565
000010 f6 9e 89 3e bd 8c 9f bd 98 3c 18 3d 61 ae 4a 3e
       0.2687909 -0.077905156 0.03716716 0.19793083
000020 1e 58 87 3e 75 24 a2 3d
       0.26434416 0.0791711
