bs32_lr0.01_weight.pt (torch, 240196 bytes, 7 tensors)

conv_1.weight f4 [16, 3, 3, 3]
0	0xbdaf8287	-0.08569818
1	0xbc28f137	-0.010311416
2	0x3c7ffbc0	0.015623987
3	0xbde9ba52	-0.11412491
4	0x3e29d2c7	0.16584311
5	0x3e472327	0.19447003
6	0xbb8c254f	-0.0042769085
7	0xbdd15d28	-0.10222846
8	0x3e3c47f3	0.18386821
9	0xbe129a00	-0.14316559
10	0x3e6077d6	0.21920714
11	0x3cb94f92	0.02262095
12	0x3e799f36	0.2437714
13	0x3e4f532f	0.20246576
14	0x3d1c0cbc	0.038098082
15	0x3e45e919	0.19327201
16	0xbd93b19e	-0.07211612
17	0x3d3e3eaa	0.04644648
18	0xbe010783	-0.12600522
19	0xbe058d00	-0.13042068
20	0xbe1020ed	-0.1407506
21	0xbce40288	-0.027833238
22	0xbcc8fb9e	-0.024534043
23	0xbd825e73	-0.06365671
24	0x3c555d00	0.013022661
25	0x3e0a5263	0.1350799
26	0x3cc93a3e	0.024563905
27	0x3d8a9b0f	0.06767856
28	0xbda1d00d	-0.07901011
29	0xbde9e77c	-0.11421105
30	0x3e11f74c	0.14254493
31	0x3da5bf63	0.08093145
32	0xbdb87047	-0.0900579
33	0xbdbb6fef	-0.09152209
34	0xbcf489ce	-0.029850867
35	0x3e02b671	0.12764908
36	0xbcc39c65	-0.023878286
37	0xbac03f9f	-0.0014667398
38	0xbded0cda	-0.11574717
39	0x3e3c36fb	0.18380348
40	0x3e0ae1d8	0.13562715
41	0xbd486218	-0.048921674
42	0x3d058328	0.032595783
43	0x3c9034ad	0.017603243
44	0xbcc23eab	-0.023711523
45	0x3cf9d5f3	0.030497527
46	0x3e6125ff	0.2198715
47	0xbdbe410d	-0.09289751
48	0x3e2274eb	0.15864913
49	0x3da9d806	0.08293156
50	0x3d0dd629	0.034628067
51	0xbdbe87d1	-0.09303249
52	0x3e4e6ef4	0.20159513
53	0xbc91c23c	-0.017792813
54	0xbd92eb8c	-0.07173833
55	0x3ce9552d	0.028482998
56	0xbe030267	-0.12793885
57	0xbd77c359	-0.060489032
58	0x3e104bb6	0.14091381
59	0xbda9582e	-0.08268772
60	0x3e36a5c9	0.1783668
61	0xba99d68c	-0.0011736914
62	0x3df69533	0.12040176
63	0xbd16bed1	-0.03680307
64	0x3d13e760	0.03610933
65	0x3dbc3a62	0.09190823
66	0x3e4b026c	0.19825143
67	0xbe05f367	-0.13081132
68	0xbda04676	-0.07825939
69	0xbe09c911	-0.13455607
70	0xbdc64ea0	-0.09682965
71	0xbdfb47c8	-0.122695506
72	0x3d04a784	0.032386318
73	0x3c893202	0.016747478
74	0x3e2df302	0.16987231
75	0xbc965c5e	-0.018354591
76	0x3e39dc1a	0.18150368
77	0x3e1b7787	0.15182315
78	0xbe08f536	-0.1337479
79	0x3d3a2a77	0.045450654
80	0xbe09a786	-0.13442811
81	0xbd6c821b	-0.057741266
82	0x3dbc40d8	0.091920555
83	0xbd36b8a1	-0.04460967
84	0xbe08e90d	-0.13370152
85	0xbd5b73d1	-0.053577248
86	0x3dd8390d	0.105577566
87	0x3d8aca19	0.06776828
88	0x3dea1e9f	0.11431622
89	0xbdd8ea6b	-0.10591587
90	0x3adefb61	0.0017012173
91	0xbdf89929	-0.12138588
92	0xbe4698c3	-0.19394211
93	0xbdf5fda8	-0.12011272
94	0xbd00c60b	-0.03143887
95	0x3daaf0cd	0.0834671
96	0xbe39ea20	-0.18155718
97	0x3df80d52	0.12111916
98	0x3d847c50	0.06469023
99	0xbe29543e	-0.16536042
100	0x3c90b57f	0.01766467
101	0x3d3e9b98	0.046535105
102	0xbcf78bc8	-0.03021802
103	0x3b650f10	0.0034951605
104	0xbdb2323b	-0.08700987
105	0x3d2fb314	0.04289539
106	0x3dc55ecc	0.09637222
107	0x3d182762	0.037146933
108	0x3e1229ec	0.14273804
109	0xbe00fb28	-0.12595809
110	0x3c54e97f	0.012995123
111	0xbdc7ed82	-0.09762098
112	0x3c08e1ed	0.008354646
113	0x3c8d19bc	0.017224185
114	0xbe4f4457	-0.20240913
115	0x3da58b64	0.08083227
116	0x3d990946	0.07472472
117	0x3d15b924	0.036553517
118	0x3d80d671	0.062909015
119	0xbe225a36	-0.15854725
120	0x3cc47d58	0.02398555
121	0x3db94bb7	0.090476446
122	0x3d4c38b5	0.049858768
123	0xbdad94e3	-0.084756635
124	0xbbc916c6	-0.006136748
125	0x3de5a63f	0.112133496
126	0xbe135f97	-0.14391933
127	0xbe015707	-0.12630855
128	0x3c588a1c	0.013216522
129	0xbe2840d8	-0.16430986
130	0xbe5dba8c	-0.21653193
131	0x3db39854	0.08769289
132	0x3d45ef61	0.048323993
133	0xbdf1f568	-0.11814386
134	0xbcab436e	-0.020906176
135	0xbe2ba414	-0.1676181
136	0xbd0f621d	-0.035005677
137	0xbd938e93	-0.07204928
138	0xbdeb01c2	-0.11474945
139	0x3de4aff8	0.11166376
140	0xbc1baccb	-0.009501646
141	0xbd232428	-0.039829403
142	0xbdc752cf	-0.09732591
143	0x3ccfbd60	0.025358856
144	0x3d3e21f3	0.046419095
145	0xbe564394	-0.20924217
146	0xbe1b1fa2	-0.15148786
147	0xbcb2c533	-0.021822548
148	0x3d8bb7fb	0.06822201
149	0x3d2f43b3	0.042789172
150	0xbcc17de6	-0.023619603
151	0xbc09e32f	-0.008415981
152	0x3dedf311	0.11618627
153	0x3de2e7ad	0.11079345
154	0xbe61999e	-0.22031257
155	0xbe4130e3	-0.18866305
156	0x3e0cb126	0.13739452
157	0xbe40de5e	-0.18834826
158	0xbde59b61	-0.11211277
159	0xbd27b8f6	-0.040947877
160	0x3d643086	0.055710338
161	0x3d95d3d3	0.07315793
162	0x3e621463	0.2207809
163	0x3e39d9b2	0.1814945
164	0xbd2135bf	-0.039357897
165	0x3e129f02	0.14318469
166	0xbd5c045d	-0.0537151
167	0xbc311dc4	-0.010810319
168	0x3e6b286b	0.22964637
169	0xbd8c4fa5	-0.068511285
170	0xbbaba7e1	-0.0052385186
171	0x3d9fcb01	0.07802392
172	0xbda98763	-0.08277776
173	0x3cd933e1	0.026513996
174	0x3dd0076b	0.10157665
175	0xbca4fe80	-0.020140886
176	0xbdf26afb	-0.11836811
177	0x3e1a30a4	0.15057617
178	0xbd2498be	-0.04018473
179	0xbde283db	-0.11060306
180	0x3e37e6ce	0.17959139
181	0xbd50dfc9	-0.05099467
182	0x3d6e63d5	0.058200676
183	0x3dc9f32c	0.098608345
184	0x3e2c4974	0.16824895
185	0xbd79723d	-0.06089996
186	0xbc1e3797	-0.009656808
187	0x3d953ea0	0.072873354
188	0x3dd437ff	0.10362243
189	0xbdd0f3b4	-0.10202733
190	0x3cdb20c6	0.026749026
191	0xbd82da65	-0.06389312
192	0x3b2fd9dd	0.0026832737
193	0xbd240460	-0.040043235
194	0x3cec0467	0.028810693
195	0x3dbdbfcc	0.09265098
196	0x3e24b0bf	0.16083048
197	0xbde9fd92	-0.11425318
198	0x3e435b43	0.19077782
199	0xbd32a2ab	-0.043612164
200	0xbe120d8d	-0.14262982
201	0xbdd93acb	-0.10606917
202	0x3dec2e61	0.115322836
203	0x3e17f8ed	0.14841051
204	0x3d4b4944	0.04963042
205	0x3e393b1e	0.18088958
206	0x3d1761b5	0.036958415
207	0xbdb732d4	-0.089452416
208	0x3e5073f1	0.20356728
209	0xbdc6d7ee	-0.09709154
210	0x3dd204b6	0.10254805
211	0xbdfc177c	-0.12309167
212	0x3e0f3bf7	0.13987719
213	0xbb284f8e	-0.0025682184
214	0x3e5016c0	0.20321178
215	0x3d014891	0.031563345
216	0x3cd31d8b	0.025770923
217	0xbd0aa759	-0.033851
218	0x3ddba1f2	0.10724248
219	0x3c7b30cf	0.015331461
220	0x3dd9eec9	0.10641248
221	0xbde106f4	-0.10987654
222	0xbddf30d2	-0.108979836
223	0x3d8c2b43	0.06844189
224	0x3e264cd1	0.1624024
225	0xbdf73312	-0.12070288
226	0xbbe6ed10	-0.007047303
227	0xbda03da5	-0.07824258
228	0x3e362df9	0.17790975
229	0xbdb98b8e	-0.09059821
230	0xbdc88569	-0.09791071
231	0x3e1108c2	0.14163497
232	0xbbc78910	-0.006089337
233	0xbcccd669	-0.025004582
234	0xbc596b27	-0.013270176
235	0x3dccbb1b	0.09996625
236	0x3d8f2e64	0.0699127
237	0xbd1cc678	-0.038275212
238	0xbdd4bb64	-0.103873044
239	0x3d8fa62b	0.07014116
240	0xbe0376f8	-0.12838352
241	0x3d942802	0.072341934
242	0xbdf517b2	-0.1196741
243	0xbdede096	-0.11615102
244	0xbdf66d67	-0.120325856
245	0x3dbeeafb	0.09322163
246	0x3e1c1dcd	0.15245743
247	0xbd6b6919	-0.057473276
248	0x3e17d56d	0.14827509
249	0x3dd2da31	0.10295523
250	0xbe5e673b	-0.21719067
251	0x3ca3c159	0.019989656
252	0xbe197145	-0.14984615
253	0xbdc845eb	-0.09778961
254	0x3cd63fdf	0.026153503
255	0x3e107046	0.14105329

conv_1.bias f4 [16]
0	0xbdecabe5	-0.11556224
1	0x3d1397ce	0.036033444
2	0xbe686f50	-0.22698712
3	0xbe349cd3	-0.17637949
4	0xbe7d8a05	-0.24759682
5	0x3dbd7f97	0.092528515
6	0xbe78e800	-0.24307251
7	0xbdbd0b07	-0.09230619
8	0xbd707e17	-0.058714
9	0xbd85d0fd	-0.06534002
10	0xbdf8f776	-0.121565744
11	0x3dfaab2d	0.122396804
12	0xbe34f308	-0.17670834
13	0xbe7963d3	-0.24354486
14	0xbdd9c320	-0.1063292
15	0xbca3b9c7	-0.019986046

conv_2.weight f4 [32, 16, 3, 3]
0	0xbd97a45e	-0.074043974
1	0xbd1b8085	-0.037964363
2	0xbe08609c	-0.13318104
3	0xbd79028e	-0.060793452
4	0xbe0171f9	-0.12641133
5	0x3c6d4b95	0.014483352
6	0xbd769c06	-0.06020739
7	0xbd8110cb	-0.06302031
8	0xbde6142c	-0.11234316
9	0xbda469c1	-0.080279835
10	0xbe0153ac	-0.12629575
11	0xbdd80f6b	-0.10549816
12	0xbddcf524	-0.10788944
13	0x3c64bb73	0.013960707
14	0xbcd4bd87	-0.02596928
15	0xbdd084d8	-0.10181588
16	0xbd539ed1	-0.05166513
17	0xbc20b300	-0.009808302
18	0xbc4e5f64	-0.012595985
19	0x3bcba679	0.0062149134
20	0xbdd54427	-0.1041339
21	0xbdb2d51a	-0.08732052
22	0xbda4b3e9	-0.08042128
23	0x3ca388ce	0.019962694
24	0xbc2789b8	-0.010225706
25	0x3c7af38c	0.015316855
26	0xbc9241f8	-0.017853722
27	0xbdf175b2	-0.11790027
28	0xbc9dc8d9	-0.01926081
29	0x3ce42905	0.02785159
30	0xbc521a65	-0.012823676
31	0xbcb32b95	-0.021871367
32	0xbdc3ae49	-0.09554727
33	0xbdadd44b	-0.08487757
34	0xbde3b2f4	-0.11118117
35	0xbd27b73b	-0.040946227
36	0xbd8076f8	-0.062726915
37	0xbdf686ba	-0.12037416
38	0xbda9f01e	-0.08297752
39	0xbd780e48	-0.060560495
40	0xbd6774e8	-0.056507975
41	0x3c8cb838	0.017177686
42	0xbdbba186	-0.091616675
43	0xbc4c28b9	-0.012460881
44	0x3dfb218b	0.12262257
45	0xbd7c48d7	-0.061592903
46	0x3b97ae46	0.0046289293
47	0xbdecd489	-0.11563975
48	0xbbfe9465	-0.007769155
49	0x3cd99880	0.026561975
50	0xbda96b6c	-0.08272442
51	0xbcdf90c6	-0.027290713
52	0xbd717568	-0.058949858
53	0xbd592e2c	-0.05302255
54	0xbd9398fc	-0.07206914
55	0xbdd49a58	-0.10381001
56	0x3cdbfccc	0.026853941
57	0xbdcfd203	-0.101474784
58	0x3c5c3f0b	0.013442765
59	0xbdabfd8d	-0.0839797
60	0xb93555ed	-0.00017293515
61	0xbdf9474d	-0.12171803
62	0xbdec9a48	-0.11552864
63	0xbe04ec97	-0.12980877
64	0xbdd41910	-0.10356343
65	0xbcdbd938	-0.026836976
66	0xbd96ced4	-0.07363668
67	0xbdae709d	-0.08517573
68	0xbe09179b	-0.13387911
69	0xbc836456	-0.016039055
70	0xbdeb74d5	-0.11496893
71	0xbbbe79cc	-0.005812859
72	0xbda3adf3	-0.079921626
73	0xbd076c50	-0.03306228
74	0xbc9e2e7b	-0.019309273
75	0xbdabeaf7	-0.08394425
76	0xbe100cbe	-0.14067361
77	0x3d12be4e	0.03582602
78	0xbc4961c6	-0.012291377
79	0xbd58fb6a	-0.052974142
80	0x3d0413c6	0.03224542
81	0xbd8bbc1b	-0.06822988
82	0xbdbc0c22	-0.09182002
83	0xbd919fcf	-0.07110559
84	0xbda8694b	-0.08223208
85	0xbe013597	-0.12618099
86	0xbd9d8b85	-0.07692627
87	0xbd272cff	-0.040814396
88	0xbda464b8	-0.08027023
89	0xbdb154b3	-0.08658733
90	0xbe14317e	-0.14472005
91	0xbdc5968b	-0.096478544
92	0xbdbc2cae	-0.091882095
93	0x3cdcc57a	0.026949633
94	0x3c81ff8b	0.015868923
95	0x3c1a6118	0.009422563
96	0xbcb18f9e	-0.021674927
97	0xbd0f210c	-0.034943625
98	0xbdcc36c9	-0.09971387
99	0xbe07ab84	-0.13249022
100	0xbd92987c	-0.0715799
101	0xbe051360	-0.12995672
102	0xbc34f20d	-0.0110440375
103	0x3c68d481	0.014210821
104	0xbd6ba210	-0.0575276
105	0x3a5d0785	0.00084316015
106	0xbd9a87fd	-0.07545469
107	0xbd6baa08	-0.0575352
108	0xbda47ca5	-0.080315866
109	0xbda7ac3e	-0.081871495
110	0xbd3ce044	-0.046112314
111	0xbd3dad69	-0.046307955
112	0xbddd3998	-0.10802001
113	0xbd0359e0	-0.032068133
114	0xbc8d9026	-0.01728065
115	0x3bd65ee4	0.0065420736
116	0xbd8040d3	-0.06262364
117	0x3cdd347a	0.027002562
118	0xbc7e9e7b	-0.015540714
119	0xbda919a1	-0.082568415
120	0xbd1c5331	-0.038165275
121	0xb7b34433	-2.137022e-05
122	0xbcab857d	-0.020937676
123	0xbca395ec	-0.01996895
124	0xbc45c6f9	-0.012071365
125	0xbd1e57fe	-0.038658135
126	0xbd969ea9	-0.07354481
127	0xbd6421ef	-0.055696424
128	0xbdc2df5e	-0.0951526
129	0xbd261bce	-0.04055386
130	0xbcbc22a8	-0.022965744
131	0xbe04b2a6	-0.12958774
132	0xbdd033fa	-0.10166164
133	0xbd6ae828	-0.057350308
134	0xbca6dbe8	-0.020368531
135	0xbd9421dc	-0.07233021
136	0xbd9a52e1	-0.07535339
137	0xbd7243f1	-0.059146825
138	0xbc58d7f6	-0.013235083
139	0xbdbaf363	-0.091284536
140	0xbd852a88	-0.06502253
141	0x3b518840	0.003197208
142	0xbdeb29fd	-0.11482618
143	0xbe02b2f5	-0.12763579
144	0xbde4de51	-0.11175216
145	0xbe01e610	-0.12685418
146	0xbde9436f	-0.11389815
147	0xbde8e4c5	-0.11371759
148	0xbc4f0ed9	-0.012637817
149	0x3c644223	0.013931784
150	0xbde2b1d5	-0.11069075
151	0xbd9a7de1	-0.07543541
152	0xbde49edb	-0.11163112
153	0xbdeb68b1	-0.11494578
154	0xbde2ddeb	-0.11077484
155	0xbdf0a6a5	-0.11750535
156	0x3cae6c78	0.021291956
157	0x3cab295b	0.020893743
158	0xbc994b3e	-0.018712636
159	0x3b7ac1b7	0.0038262436
160	0x3a5ea192	0.0008492704
161	0x3c9eb8fb	0.019375315
162	0xbb43b71d	-0.0029863783
163	0xbd046590	-0.03232342
164	0xbc0708ba	-0.008241827
165	0x3c9f5a2e	0.01945218
166	0x3ce2a1b7	0.027665002
167	0xbd0481a4	-0.032350197
168	0xbd0620ce	-0.03274613
169	0xbe0a5b8f	-0.1351149
170	0xbd833eca	-0.064084604
171	0xbd837796	-0.064192936
172	0xbde143c1	-0.10999251
173	0xbd30c68c	-0.0431581
174	0x3d31aeb5	0.043379504
175	0xbdae6c2f	-0.08516728
176	0xbd8c3783	-0.068465255
177	0xbc1f4b58	-0.009722553
178	0xbd81251d	-0.06305907
179	0xbdeec0f5	-0.116578974
180	0xbcdb8e74	-0.026801325
181	0x3c0e7153	0.008694011
182	0x3d2e3bf9	0.042537663
183	0xbc91dfb1	-0.01780686
184	0xbc87a142	-0.016556386
185	0xbd2ba380	-0.041903973
186	0xbd108fa4	-0.035293236
187	0x3cecc620	0.028903067
188	0xbbc2e4ed	-0.0059477002
189	0xbdc1a6f1	-0.0945567
190	0xbdbb9547	-0.09159332
191	0xb9e12533	-0.0004294306
192	0xbd4522a1	-0.048128728
193	0x3bd9d42c	0.0066476073
194	0x3d424658	0.047430366
195	0xbdd5a206	-0.10431294
196	0xbdbb7ae9	-0.091543026
197	0xbba53bf0	-0.0050425455
198	0x3d36cb3e	0.04462742
199	0x3c59cccb	0.013293455
200	0x3d22d419	0.039753053
201	0xbd5a5898	-0.053307146
202	0xbbe56121	-0.007000104
203	0xbdaa8233	-0.08325615
204	0x3d1e4101	0.03863621
205	0xbdeebdf7	-0.11657327
206	0xbde82357	-0.113348655
207	0xbdc1c38b	-0.09461125
208	0xbcd35a1f	-0.025799809
209	0xbcb61036	-0.022224527
210	0xba9290f5	-0.0011182117
211	0x3c0af0d2	0.008480268
212	0xbd890dc8	-0.06692082
213	0x3b61cd3c	0.0034454605
214	0x3c84f593	0.01623038
215	0xbdb8427b	-0.08997055
216	0x3d0c8bfb	0.034313183
217	0xbdbc5d6f	-0.091975085
218	0xbd0aeb4e	-0.03391581
219	0xbddb51eb	-0.10708984
220	0x3cb8ee93	0.022574699
221	0x3c95cc4a	0.01828589
222	0xbd091bf8	-0.03347394
223	0xbd9640d0	-0.07336581
224	0xbd9109b5	-0.070819296
225	0xbdad21ec	-0.08453736
226	0x3d2fe694	0.042944506
227	0x3bef7e8e	0.0073087877
228	0x3d119cf7	0.035550084
229	0xbdb86b1e	-0.09004806
230	0x3ac2fad1	0.0014875775
231	0xbd8cb404	-0.06870273
232	0x398e5bcb	0.00027152742
233	0x3b80c51d	0.0039297477
234	0xbd74a13e	-0.059724085
235	0xbdabc47b	-0.08387085
236	0xbdd63141	-0.10458613
237	0x3cb1da61	0.021710576
238	0x3d3bd5c2	0.045858152
239	0x3b9cb583	0.00478238
240	0x3c8d0005	0.017211923
241	0xbce88a28	-0.02838619
242	0xbcf3acea	-0.029745538
243	0xbde6ff61	-0.112791784
244	0x3c993ede	0.018706735
245	0x3d073988	0.03301385
246	0x3d3e1831	0.04640979
247	0xbc95b05a	-0.018272568
248	0xbd99d4fc	-0.07511327
249	0xbd6ed3df	-0.058307525
250	0x3bc583b5	0.0060276636
251	0x3d25971c	0.040427312
252	0x3cb58d92	0.022162233
253	0xbd1fc0a4	-0.039002076
254	0xbd851562	-0.06498219
255	0x3c34d034	0.011035968

conv_2.bias f4 [32]
0	0xbbf7d387	-0.007563058
1	0x3c1ac0f4	0.009445418
2	0x3b971c26	0.00461151
3	0xbdb5aa47	-0.088703685
4	0xbc7fb71a	-0.01560762
5	0xbd60ada6	-0.054853104
6	0xbdb82464	-0.08991316
7	0x3c85e365	0.016343782
8	0xbdef6395	-0.11688916
9	0xbb8429cc	-0.004033303
10	0xbd026af1	-0.03184027
11	0xbe18a09f	-0.14905022
12	0xbdbb5092	-0.09146227
13	0xbd9daa6f	-0.07698523
14	0xbdf1fcd6	-0.11815803
15	0xbb94d885	-0.0045424127
16	0xbcb3147a	-0.02186035
17	0x3c8b70c5	0.017021546
18	0xbc96d7fd	-0.018413538
19	0xbd2b15a5	-0.04176869
20	0xbda5315a	-0.08066054
21	0xbdeacc5a	-0.11464758
22	0xbb80fb71	-0.003936224
23	0xbddac20a	-0.10681541
24	0x3bbcc862	0.005761192
25	0xbdc046de	-0.09388517
26	0xbcf0dd4c	-0.029402398
27	0xbd89eeab	-0.067349754
28	0xbcc92451	-0.02455345
29	0xbc85e2f6	-0.016343575
30	0xbb4f164c	-0.0031598983
31	0xbcc85b0a	-0.024457473

fully_connect1.weight f4 [10, 5408]
0	0x3d839e83	0.06426718
1	0x3d6b830d	0.057498027
2	0x3d66a18a	0.0563064
3	0x3d4327b8	0.0476453
4	0x3d87cd53	0.06630959
5	0x3d48128d	0.048845816
6	0x3d5f180a	0.054466285
7	0x3d81eb09	0.063436575
8	0x3d40f85e	0.04711186
9	0x3d69c513	0.05707271
10	0x3d81eff5	0.06344596
11	0x3d22b256	0.039720856
12	0x3d3f41a0	0.046693444
13	0x3d79c592	0.060979433
14	0x3d34e1ca	0.04416064
15	0x3d80794f	0.06273138
16	0x3d2e8be1	0.042613868
17	0x3d353ce6	0.04424753
18	0x3d4ddb1f	0.0502578
19	0x3d2beb62	0.041972525
20	0x3d3bd8eb	0.045861166
21	0x3d2e9677	0.042623963
22	0x3d381bab	0.04494826
23	0x3d856de5	0.06515101
24	0x3d5d1711	0.053977076
25	0x3d301fde	0.04299914
26	0x3d81cbab	0.06337675
27	0x3d285b28	0.04110256
28	0x3d821108	0.06350905
29	0x3d79a980	0.060952663
30	0x3d7b53f5	0.061359365
31	0x3d34ebd9	0.044170234
32	0x3d26fd32	0.04076881
33	0x3d230dac	0.03980796
34	0x3d362c63	0.044475924
35	0x3d26238a	0.040561236
36	0x3d5a25bb	0.05325864
37	0x3d8589cb	0.065204225
38	0x3d8326d7	0.064038925
39	0x3d4ff5e8	0.050771624
40	0x3d7c1498	0.061543077
41	0x3d5adba1	0.05343211
42	0x3d5867a0	0.0528332
43	0x3d3e4d4f	0.046460446
44	0x3d28db4f	0.041224774
45	0x3d7ffda8	0.062497765
46	0x3d34c662	0.044134505
47	0x3d71cc0d	0.05903249
48	0xbd434889	-0.047676597
49	0x3d813ac5	0.063100375
50	0x3d7798c9	0.06044844
51	0x3d7c7bd2	0.06164152
52	0x3d8352f1	0.06412304
53	0x3d654c88	0.05598119
54	0x3d5049d8	0.050851673
55	0x3d55f6f1	0.052237455
56	0x3d5e7135	0.05430718
57	0x3d7883b0	0.060672462
58	0x3d737dd1	0.05944616
59	0x3d860e2b	0.06545671
60	0x3d733109	0.059372935
61	0x3d6528f8	0.055947274
62	0x3d7d7244	0.06187655
63	0x3d81f97a	0.06346412
64	0x3d7033a6	0.058643006
65	0x3d51e14c	0.05124025
66	0x3d38a991	0.045083586
67	0x3d82eb41	0.06392527
68	0x3d53920b	0.05165295
69	0x3d853243	0.06503727
70	0x3d4f267e	0.05057382
71	0x3d466dad	0.04844444
72	0x3d3dc48e	0.046330027
73	0x3d2b2f1d	0.041792978
74	0x3d26d260	0.040727973
75	0x3d83509e	0.06411861
76	0x3d3a54ee	0.04549115
77	0x3d74a74d	0.059729863
78	0x3d45067c	0.048101887
79	0x3d7a9d47	0.061185148
80	0x3d348460	0.044071555
81	0x3d809f49	0.06280381
82	0x3d80992b	0.062792145
83	0x3d628955	0.05530675
84	0x3d605a5e	0.05477368
85	0x3d4b1310	0.049578726
86	0xbd51fc71	-0.051266138
87	0x3d2ed8e0	0.042687297
88	0x3d427780	0.047477245
89	0x3d600faf	0.054702457
90	0x3d2ece9c	0.042677507
91	0x3d862302	0.06549646
92	0x3d6a7471	0.057239953
93	0x3d41f7e2	0.04735554
94	0x3d47b73b	0.048758727
95	0x3d5b3d1b	0.05352507
96	0x3d6eaf28	0.05827251
97	0x3d62f9e6	0.055414103
98	0x3d863859	0.06553716
99	0x3d4cdcd5	0.05001529
100	0x3d4c1b08	0.049830467
101	0x3d393bc3	0.04522301
102	0x3d4c723e	0.049913637
103	0x3d33f033	0.043930244
104	0x3d82790f	0.06370746
105	0x3d7aa2f8	0.061190575
106	0x3d4679ba	0.04845593
107	0x3d72fd56	0.05932363
108	0x3d85485d	0.06507943
109	0x3d2429b8	0.04007885
110	0x3d2221d3	0.03958304
111	0x3d3811ab	0.044938724
112	0x3d663efd	0.056212414
113	0x3d446fd9	0.04795823
114	0x3d21e882	0.039528377
115	0x3d3c4de1	0.04597271
116	0x3d73bc04	0.059505478
117	0x3d86e59a	0.06586762
118	0x3d6c4fcb	0.057693284
119	0x3d53bed3	0.051695656
120	0x3d518df6	0.051160775
121	0x3d838a72	0.06422891
122	0x3d742318	0.05960378
123	0x3d50d804	0.05098726
124	0x3d256227	0.04037681
125	0x3d355b52	0.044276543
126	0x3d70b9bd	0.058770884
127	0x3d388935	0.045052726
128	0x3d2fcaea	0.042918123
129	0x3d35979f	0.04433405
130	0x3d7ebbc2	0.06219078
131	0x3d21f4dc	0.039540157
132	0x3d218b10	0.03943926
133	0x3d228c79	0.039684746
134	0x3d806dbf	0.062709324
135	0x3d4a51f6	0.04939457
136	0x3d805195	0.062655605
137	0x3d752e69	0.059858713
138	0x3d420887	0.047371414
139	0x3d462c2d	0.048381973
140	0x3d5012ca	0.05079917
141	0x3d2f2b92	0.04276616
142	0x3d4bb42e	0.04973238
143	0x3d351289	0.04420713
144	0x3d7ca5e3	0.06168164
145	0x3d304f80	0.043044567
146	0x3d2967ce	0.04135876
147	0x3d36141c	0.04445277
148	0x3d428022	0.04748548
149	0x3d862088	0.065491736
150	0x3d3065cd	0.043065835
151	0x3d26aa6f	0.040689882
152	0x3d41ecbc	0.047344908
153	0x3d4ea139	0.050446723
154	0x3d24051b	0.04004393
155	0x3d2bbc6b	0.041927736
156	0x3d555cd7	0.052090492
157	0x3d3313b6	0.04371997
158	0x3d80fc3f	0.06298112
159	0x3d77d3fa	0.06050489
160	0x3d6cb36e	0.057788305
161	0x3d7aa923	0.061196458
162	0x3d722714	0.0591193
163	0x3d455ec7	0.04818609
164	0x3d7129ec	0.05887787
165	0x3d5b9960	0.053613067
166	0x3d60b3ba	0.0548589
167	0x3d66d4d1	0.0563553
168	0x3d543761	0.051810626
169	0xbc500baa	-0.012698093
170	0xbcd93271	-0.02651331
171	0xbbfb9f57	-0.007678907
172	0xbbb08f38	-0.0053881668
173	0xba8bf0c7	-0.0010676616
174	0xbcbfa573	-0.023394322
175	0xbc3cd59b	-0.011525537
176	0xbcde27be	-0.02711856
177	0xbc1c1905	-0.0095274495
178	0xbc5794e5	-0.013158058
179	0xbc5b5a0b	-0.013388167
180	0xbbd900a3	-0.0066223904
181	0x3c526b7f	0.012843012
182	0xbcc2dbff	-0.023786543
183	0xbc9586e7	-0.018252803
184	0xbc90420c	-0.017609619
185	0xbcd5af64	-0.02608461
186	0xbcbb1a0c	-0.022839569
187	0xbcc10360	-0.02356118
188	0xbd038f40	-0.032119036
189	0xbcef566d	-0.029216016
190	0xbd096957	-0.033547726
191	0xbc2da9ff	-0.010599612
192	0xbc958477	-0.01825164
193	0xbccb3ba9	-0.024808722
194	0xbca565f1	-0.020190211
195	0xbbb7157a	-0.005587277
196	0xbd17bf40	-0.037047625
197	0xbc80c1ff	-0.015717505
198	0xbcc38b04	-0.023869999
199	0xbd05512a	-0.032548107
200	0xbc8516d1	-0.016246231
201	0xbcb495ed	-0.022044146
202	0xbcf7b1a7	-0.030236078
203	0xbc7d18b7	-0.015447787
204	0xbd1a6ba4	-0.03770031
205	0xbd131399	-0.03590736
206	0xbc9cdf52	-0.019149456
207	0xbd25a241	-0.04043794
208	0xbcde6608	-0.027148262
209	0xbd1ef982	-0.038812168
210	0xbc4989aa	-0.012300888
211	0xbce5a0b2	-0.028030727
212	0xbcbbfd24	-0.022947855
213	0xbd003316	-0.03129872
214	0xbd10a665	-0.035314936
215	0xbcd2d240	-0.02573502
216	0xbc9d7ffe	-0.01922607
217	0xbd0189ab	-0.03162543
218	0xbd002bde	-0.031291835
219	0xbc472681	-0.012155176
220	0xbc7a82bf	-0.015289961
221	0xbc87fce4	-0.01660008
222	0xbca7eb3a	-0.020497907
223	0xbd076a0e	-0.033060126
224	0xbc1a0c5a	-0.009402359
225	0xbca83d30	-0.020536989
226	0xbce643c0	-0.028108478
227	0xbca44989	-0.020054596
228	0xbd3160bb	-0.04330514
229	0xbd1cbe32	-0.038267322
230	0xbd2f2407	-0.042758968
231	0xbd3a305b	-0.04545627
232	0xbd292028	-0.041290432
233	0xbc925eb4	-0.017867424
234	0xbd02e6d3	-0.031958412
235	0xbd1e5786	-0.038657688
236	0xbbbeb7f2	-0.005820268
237	0xbcfd18ab	-0.030895552
238	0xbcae5fec	-0.021285973
239	0xbcdbf454	-0.026849903
240	0xbca09eb7	-0.019606931
241	0xbc0f41a8	-0.008743681
242	0xbd2b347d	-0.041798104
243	0xbce5b22c	-0.02803906
244	0xbcc457eb	-0.023967704
245	0xbc916df5	-0.017752627
246	0xbc68b55a	-0.014203394
247	0xbb982af9	-0.0046437946
248	0xbcf7572c	-0.030192934
249	0xbbf65c99	-0.0075183627
250	0xbd1c0190	-0.038087428
251	0xbd0f897c	-0.035043225
252	0xbd07c2c5	-0.03314473
253	0xbcb2b33a	-0.021813978
254	0xbcebd4df	-0.028788028
255	0xbcaaf3d7	-0.020868225

fully_connect1.bias f4 [10]
0	0xbbadea46	-0.0053074686
1	0xbd4a8459	-0.049442623
2	0xbd92fe30	-0.07177389
3	0xbc72ae0b	-0.014812003
4	0xbd395472	-0.04524655
5	0xbd984031	-0.074341185
6	0xbd177b75	-0.036982972
7	0xbca40484	-0.020021684
8	0xbd6c8c32	-0.05775089
9	0xbd49d68f	-0.049276885

fully_connect2.weight f4 [1, 10]
0	0xbc0ff0cc	-0.008785438
1	0xbbf45e7d	-0.007457553
2	0x3d854de7	0.06508999
3	0xbd0bf0aa	-0.034165062
4	0x3d13d806	0.036094688
5	0x3df1a2f6	0.117986605
6	0xbe177053	-0.14788942
7	0xbe3fc9b7	-0.18729292
8	0x3e6f58fe	0.23373792
9	0x3eaa8f0c	0.3331226
