bs32_lr0.1_weight.pt (torch, 240184 bytes, 7 tensors)

conv_1.weight f4 [16, 3, 3, 3]
00000000: 5302 dd3e 510c bb3e d4fd 213f c5aa b73e
00000010: 1b59 273f 76cb 223f 34ab cbbe 015a 03bf
00000020: d516 1c3f e0a2 113f 948f 043f c571 0a3f
00000030: 8c50 253f 7205 283f cbdb 0f3f eb30 2dbf
00000040: 911b 23bf adf2 07bf 6aaa d83e 1d7a 083f
00000050: 5fb4 0f3f ecce c73e 78ed 093f 71bf 113f
00000060: c54e c93e 827d 223f f3d0 083f 90b5 e0be
00000070: 88eb 09bf 19d4 24bf 24ac dbbe 9b85 1abf
00000080: 59d4 b0be c53a 20bf 3bc0 f4be b576 37bf
00000090: c85f c4be d1f3 d4be bb5a 0bbf 67a9 c6be
000000a0: 4d68 f1be 73f3 24bf e094 ea3e b0ba c83e
000000b0: 1f0c eabe 8410 05bf d73f 06bf 7a44 30bf
000000c0: 8b65 29bf 10e2 e3be 6eb9 ffbe 031b 1e3f
000000d0: 3783 343f 2051 efbe 929d 35bf fb4f 133f
000000e0: ad91 243f 950b 113f b428 1c3f ba3f fd3e
000000f0: 687f ca3e 720e 203f 936d 2e3f d667 ffbe
00000100: 09d2 f13e 7e4f 313f 3855 33bf e283 c23e
00000110: 154a d93e 0bf3 31bf d57a df3e 4a29 323f
00000120: acdd 18bf 56a8 073f 36b3 023f b8c9 b0be
00000130: 58e0 c13e 2a9f 1f3f 1936 df3e 9b1d eb3e
00000140: 8b17 b63e 05db 23bf 2bb0 da3e 0197 193f
00000150: 1513 0dbf d40c 2fbf 4051 c23e 9c1b 2b3f
00000160: a623 bcbe 554c d7be d93e f8be 749c 12bf
00000170: 5f2b 093f fa88 17bf 10bd f7be 9354 2dbf
00000180: 36ea eabe 70b5 15bf cb43 16bf 67bb 2abf
00000190: db01 22bf cecb 2fbf 9042 e2be 36af 09bf
000001a0: 25d7 e1be 9faf c6be 975e 04bf 9d53 e5be
000001b0: 7323 1f3f e53d 263f 1eca fc3e bae7 283f
000001c0: bfbe 263f 170f d53e e4b5 bb3e 3222 df3e
000001d0: 53a6 133f 9ac6 0b3f f7a7 d23e fc76 383f
000001e0: 4921 083f b630 df3e 4ec8 d33e 6654 2a3f
000001f0: 798b 203f fef5 173f 807b 363f 5bf8 193f
00000200: 1e9f 36bf 2bf6 e23e 738b 123f e505 0f3f
00000210: 2f42 133f d04e 313f 1b66 31bf acfa d93e
00000220: 5777 143f 00ae fabe 6424 263f 3b3f cd3e
00000230: e3b4 f93e 7772 cf3e 5441 d23e de41 b53e
00000240: 785b 333f 6d42 d53e 3789 26bf e250 1c3f
00000250: 2bad 233f 4712 b93e c192 273f be18 f33e
00000260: 35cf 2e3f 13bb fd3e 5a9f 0bbf 1232 33bf
00000270: 5f33 f23e 0e75 2dbf 5331 38bf a8a6 08bf
00000280: 404f edbe 7e01 343f f3f0 0f3f 6cbf f93e
00000290: b0a6 1f3f 3e91 c93e 6a11 173f 9e8e 0c3f
000002a0: d77b cf3e be22 2c3f b762 383f 5b00 333f
000002b0: 8fab cc3e 30a5 e03e e9e1 d13e 56b8 e93e
000002c0: 11bc 083f 24ba ad3e e2e8 d73e 1c76 d53e
000002d0: 42f1 dd3e c6b0 e53e 31cc cb3e b01c f03e
000002e0: 8b97 2a3f bc2e fc3e e64a 083f a64a 233f
000002f0: edaf b63e e56b e43e a648 d43e 91a3 1f3f
00000300: 9919 083f d719 043f ab06 013f 2454 0f3f
00000310: cfaa 2c3f 65ab 143f 9818 2a3f 61f1 e93e
00000320: 9c09 143f b5f9 d23e fbae 333f 3a7f 353f
00000330: 5c0b 2d3f 2285 da3e 0730 f63e b224 1a3f
00000340: fff3 173f cab1 113f cfcc 253f fbe2 fe3e
00000350: 2996 323f aab5 f93e 0289 1d3f ceba bc3e
00000360: f954 01bf 47d5 36bf 3b28 0c3f b7f0 eebe
00000370: d526 bcbe 5b82 de3e 6c9a 36bf 1b1d bd3e
00000380: 9f9b 0e3f 955d 20bf dd67 ed3e ad47 b53e
00000390: be2d 17bf 8ca4 b53e 4eae 383f 5067 e1be
000003a0: 0f81 2f3f 5cde 063f aad2 15bf 30e3 d5be
000003b0: d548 063f bcd7 cfbe 4dc7 eabe 9925 373f
000003c0: df38 05bf 8189 24bf 138b d03e d1bd 22bf
000003d0: 29a8 2abf fa93 22bf 7942 c6be 0619 16bf
000003e0: 943c 25bf ef39 2cbf 1d82 dabe e88a 1bbf
000003f0: caf1 133f eca1 353f 8bd1 303f 48b2 233f
0.43165836 0.36532834 0.63277936 0.35872474 0.6537034 0.63591707 -0.39779055 -0.5130921
0.6097234 0.5688915 0.5178158 0.5407985 0.6457603 0.6563331 0.5619475 -0.6765277
-0.6371394 -0.5310467 0.42317516 0.5331133 0.561346 0.39025056 0.53877974 0.5693274
0.3931791 0.6347276 0.5344383 -0.4388852 -0.5387502 -0.64386135 -0.4290477 -0.60360116
-0.34537008 -0.62589675 -0.4780291 -0.7166551 -0.38354325 -0.41592267 -0.5443532 -0.3880112
-0.47149888 -0.64433974 0.45816708 0.3920493 -0.45712373 -0.51978326 -0.5244116 -0.68854487
-0.6617057 -0.4450841 -0.4994616 0.61759967 0.7051272 -0.4674158 -0.7094356 0.57543916
0.64284784 0.566583 0.6099961 0.49462682 0.39550328 0.6252204 0.68135947 -0.49883908
0.47230557 0.6926192 -0.7005191 0.37991244 0.42439333 -0.6951148 0.436484 0.6959425
-0.59713244 0.52991235 0.51054704 -0.345289 0.37866473 0.6235224 0.4359596 0.45921025
0.35564837 -0.6400607 0.4271253 0.5999604 -0.5510724 -0.6837895 0.37952614 0.66839004
-0.36745948 -0.42050424 -0.4848545 -0.5726998 0.53581804 -0.59193385 -0.4838643 -0.67707175
-0.45881814 -0.58479977 -0.58697194 -0.66692203 -0.6328408 -0.68670356 -0.44191408 -0.53782976
-0.44109455 -0.38805863 -0.5170683 -0.44790354 0.62163466 0.64938194 0.49372953 0.65978587
0.65134805 0.41613075 0.3666221 0.43580776 0.57675666 0.54599917 0.41143772 0.72056556
0.5317579 0.4359185 0.41363758 0.6653503 0.6271282 0.5935973 0.71282196 0.60144585
-0.71336544 0.44328436 0.5724403 0.5586837 0.57522863 0.69260883 -0.69296426 0.4257406
0.579946 -0.48960876 0.6489928 0.40087304 0.48770818 0.40517017 0.41065466 0.35401815
0.70061445 0.4165224 -0.65053123 0.6106092 0.6393611 0.36146757 0.65458304 0.47479814
0.6828492 0.4955679 -0.54540026 -0.69998276 0.47304818 -0.67756736 -0.7195026 -0.533793
-0.46349525 0.70314777 0.56227034 0.48778856 0.6236372 0.39368623 0.59010947 0.54905117
0.4052417 0.6724051 0.72025627 0.6992242 0.3997464 0.43876028 0.40992668 0.4564845
0.53411967 0.33931077 0.42169863 0.41691673 0.43348128 0.4486143 0.39804223 0.46896887
0.66637486 0.49254405 0.53239286 0.6378578 0.35681096 0.44613567 0.41461676 0.6235896
0.5316406 0.5160193 0.504008 0.55987763 0.67448133 0.5807403 0.6644378 0.4569197
0.5782716 0.41206136 0.70188874 0.7089726 0.6759546 0.42679697 0.48083517 0.6021224
0.59356683 0.5691191 0.6476564 0.49782547 0.69760376 0.4877141 0.6153718 0.3686127
-0.50520283 -0.71419185 0.54748887 -0.46668026 -0.36748376 0.43458828 -0.7132938 0.36936268
0.5570621 -0.62642795 0.46368304 0.35406247 -0.5905417 0.35477102 0.7214097 -0.44024134
0.685563 0.52683043 -0.5852457 -0.41774893 0.5245488 -0.4059428 -0.4585518 0.71541744
-0.52039903 -0.64272314 0.40731105 -0.63570887 -0.6666284 -0.63507044 -0.3872259 -0.5863193
-0.6454556 -0.672759 -0.42677394 -0.6075883 0.57790816 0.709502 0.6906974 0.6394391

conv_1.bias f4 [16]
00000000: 438f cdbe 637b 35bf 2163 d23e fcfa dc3e
00000010: 69b1 0f3f 836b c83e 95b1 20bf 19e7 073f
00000020: 308f 143f 229e 163f 26d3 0b3f a4f2 d9be
00000030: f119 f73e 9d78 2f3f 4d2c 243f 159e f6be
-0.40148363 -0.708914 0.41091254 0.43160236 0.5613008 0.39144525 -0.6277097 0.53087
0.58030987 0.5883504 0.5461906 -0.42567933 0.4826198 0.68543416 0.641301 -0.48167482

conv_2.weight f4 [32, 16, 3, 3]
00000000: 5b34 ecbe ab19 013f 7e9d 083f 6897 fc3e
00000010: 5c35 fa3e 3978 1c3f 1b48 15bf ebee ed3e
00000020: 2627 f53e 7c1a 0ebf a469 0d3f cc6d fa3e
00000030: 2354 02bf a121 133f 3b42 1b3f 851b 043f
00000040: 4590 1b3f dd2c 0a3f 9c5b f03e 14c2 193f
00000050: b570 fd3e d58e 073f 9ae5 1b3f 8f1c fa3e
00000060: 157f 093f 83ef f53e 829d 063f 88ab 163f
00000070: c435 063f a6d6 fb3e 052a 0d3f 6735 03bf
00000080: db6e 01bf df86 e6be 3f90 073f c449 1b3f
00000090: 8ea0 1abf 7b66 053f 1f01 033f b62d 01bf
000000a0: 3ffa f73e 7d64 00bf 20a4 173f e883 ffbe
000000b0: fa8d 003f cd22 133f d458 083f b1f1 073f
000000c0: c1ca 043f ee76 123f d017 f43e 340c 093f
000000d0: 4ec8 143f 5c8a 123f 0780 1c3f eeda ea3e
000000e0: e28b f53e 47bb e53e 911a 143f e5c0 073f
000000f0: 0f98 193f 6d4b 133f d11f fd3e d0fa 133f
00000100: 1cc0 093f 6e1e ea3e 8ab2 043f 05ec 053f
00000110: de60 173f 66c2 143f b7d3 fb3e 07df 0f3f
00000120: 2845 f73e 3c52 103f c592 0a3f 880a 043f
00000130: 7f21 ed3e 3a82 ec3e 360d e93e e784 e83e
00000140: f45b 0f3f 5d12 0c3f 5e71 133f 6c9c 143f
00000150: 3920 173f 152b e53e f17e 153f 7622 093f
00000160: 55cd 0b3f 6b7b 0c3f 31ad 003f 9fb8 1b3f
00000170: 6222 fc3e 9761 143f e675 0e3f 7a15 f33e
00000180: 4359 113f 67d4 0a3f 8081 0b3f c096 1a3f
00000190: b55c 153f 36dd 1a3f 2b40 013f f296 0b3f
000001a0: 86e4 143f 1346 0b3f bd64 083f a006 003f
000001b0: a8a2 0e3f c31b 133f 7ec4 e63e 5509 0d3f
000001c0: 11a0 063f 115c ec3e 4ace 173f 936f e73e
000001d0: 2fff 033f 1d33 18bf 1172 f63e b989 0e3f
000001e0: cd08 e83e 9f3a 0a3f 0e76 1bbf 1653 113f
000001f0: 1ab3 edbe d310 183f 78c1 043f ffef 043f
00000200: d92d 123f 88f7 f63e 6eb8 0b3f 13ec 003f
00000210: d9ce 013f 2604 153f 4f56 113f a40e f03e
00000220: ed14 113f 1e2d 0d3f 2cf6 f03e 7465 013f
00000230: 04fc 153f fded e43e 9a97 003f c1d3 f23e
00000240: 1d7c 073f afcd 0f3f 5486 e83e b759 f63e
00000250: 1392 fd3e 4429 143f df32 043f 6424 023f
00000260: 7ff6 1a3f c08c e93e 400d e53e a09a 0b3f
00000270: d7e0 193f c8ab f13e 2172 1b3f 7329 0b3f
00000280: 1c15 0d3f 278b 153f f6a0 193f 9a56 08bf
00000290: b158 e73e 721c ed3e fda8 1cbf 6871 06bf
000002a0: e584 163f f8ec 00bf 94b6 0ebf 1b17 f9be
000002b0: 5ab6 0c3f e4b1 0b3f 92a8 003f 4871 10bf
000002c0: 22ca 08bf 42a6 0b3f 2373 08bf 5505 f0be
000002d0: e2cf 043f 56ed 103f cb92 163f 4af8 ff3e
000002e0: f9ea 133f 28dd eb3e 042e 093f a26a 1c3f
000002f0: 66ea e63e 24df 063f c4ac fbbe 705d f13e
00000300: 1335 163f b9f9 093f 8b99 153f 0634 0d3f
00000310: 085a fb3e 0591 193f dd6b 113f e9f4 1cbf
00000320: 38b4 0abf df05 183f b50a fbbe 3e46 02bf
00000330: 0768 013f 2c62 1abf 911d fbbe 2f9c fe3e
00000340: 22c9 0e3f 517b 093f 9f97 0f3f f95e 163f
00000350: 8630 113f 9141 f33e 75bc 063f 6900 ec3e
00000360: 5f77 153f 9c00 0dbf 1528 093f 3b33 163f
00000370: c33f ef3e 49d3 01bf ecbc 123f f050 013f
00000380: 4d8f e63e f4df 023f a13b 0ebf fde5 f43e
00000390: 4b1e 14bf d4b7 053f 284a 0f3f 7d21 133f
000003a0: 52cf 1b3f ced5 0e3f faa8 0f3f 6ea8 04bf
000003b0: 9e3d f8be e691 113f 7a18 06bf c785 01bf
000003c0: 5d4d 133f 2f80 1b3f a566 1bbf 2345 143f
000003d0: e189 f33e 1151 ff3e 4549 ff3e 641b 083f
000003e0: 991c 0e3f 2cc1 153f 9e4e 063f 33d6 193f
000003f0: ff1a 133f 7bb9 e53e 6d2b 0d3f dca7 e93e
-0.46133694 0.5042979 0.53365314 0.49334264 0.48868835 0.61120945 -0.5831315 0.46471342
0.4788143 -0.5550916 0.5523932 0.48911893 -0.5090963 0.5747319 0.60647935 0.5160449
0.6076701 0.53974706 0.46944892 0.60061765 0.4950005 0.5295232 0.6089722 0.48849913
0.53709537 0.48034295 0.5258409 0.58855486 0.5242579 0.491872 0.5514224 -0.5125336
-0.5055978 -0.45024773 0.5295448 0.6065943 -0.60401237 0.521095 0.51173586 -0.50460374
0.4843311 -0.5015333 0.5923481 -0.49905324 0.5021664 0.57474977 0.5326054 0.53103167
0.5187188 0.5721272 0.47674417 0.53534245 0.5811814 0.5724237 0.61132854 0.45870155
0.47958285 0.44869444 0.5785304 0.5302871 0.5999765 0.57536966 0.49438336 0.57804585
0.5380876 0.4572634 0.5183493 0.5231326 0.5913218 0.5810913 0.49184963 0.5619969
0.4829495 0.5637548 0.541302 0.5157857 0.46314618 0.46193105 0.45517892 0.45413896
0.55999684 0.5471552 0.5759486 0.5805118 0.5903354 0.4475943 0.5839682 0.5356821
0.54610187 0.5487582 0.5026427 0.60828584 0.49244982 0.5796141 0.5564865 0.47477323
0.5677683 0.5423035 0.54494476 0.60386276 0.58344585 0.6049379 0.5048854 0.545272
0.581612 0.544038 0.53278714 0.5001011 0.55716944 0.57464236 0.45071787 0.55092365
0.5258799 0.4616399 0.5929915 0.45202312 0.51561254 -0.5945299 0.481339 0.556789
0.45319214 0.539957 -0.6072701 0.56767404 -0.46425706 0.5940067 0.5185771 0.51928705
0.5710121 0.48235726 0.5457829 0.5036022 0.5070625 0.58209455 0.5677232 0.4688617
0.56672555 0.5514697 0.47062814 0.5054543 0.5858767 0.4471282 0.50231326 0.4742718
0.52923757 0.56173223 0.45414984 0.48115322 0.49525508 0.57875466 0.51640123 0.5083678
0.60532373 0.45615196 0.4473667 0.54532814 0.60108703 0.4720137 0.6072102 0.5436012
0.55110335 0.58415455 0.6001123 -0.53257143 0.45184854 0.46310765 -0.61195356 -0.52516794
0.5879653 -0.50361586 -0.5574734 -0.4865044 0.54965746 0.54568315 0.5025722 -0.56422853
-0.5343343 0.54550564 -0.53300685 -0.46879068 0.51879704 0.56612146 0.5881774 0.49994117
0.57780415 0.46067166 0.5358584 0.6110021 0.45100707 0.52684236 -0.49155247 0.471416
0.58674735 0.5389667 0.5843741 0.55157506 0.49092126 0.5998691 0.5680521 -0.61311203
-0.5418124 0.5938396 -0.49031606 -0.5088843 0.5054936 -0.6030605 -0.49045995 0.49728534
0.55775654 0.5370379 0.5609073 0.58738667 0.56714666 0.4751096 0.5263131 0.46094063
0.5838527 -0.55079055 0.53576785 0.5867192 0.46728334 -0.5071302 0.5731952 0.50514126
0.45031205 0.51122975 -0.55559736 0.47831717 -0.57858723 0.52233624 0.5597253 0.57472974
0.6086322 0.5579499 0.5611721 -0.51819503 -0.4848451 0.5686325 -0.523811 -0.50594753
0.5753992 0.6074247 -0.607035 0.57917994 0.4756613 0.49866536 0.49860588 0.53166795
0.55512387 0.5849788 0.5246371 0.6009247 0.5746307 0.44868073 0.5514439 0.4563588

conv_2.bias f4 [32]
00000000: 8ddb 183f 9775 093f ee5f 09bf 761f 11bf
00000010: 76a2 083f c256 fdbe ca5c 1c3f 3ebb ecbe
00000020: 9553 043f 6afd 043f 4749 0cbf fe1e 043f
00000030: 7866 12bf fb3d 19bf 7e12 033f 7216 fd3e
00000040: a2f7 193f 94a2 0b3f b685 01bf d65b 123f
00000050: 67e8 01bf 77c0 0ebf 0190 123f df40 ed3e
00000060: 5037 fd3e 16b0 02bf 5ae0 e43e 965a 19bf
00000070: 17a9 043f 1f72 ecbe 3692 16bf 3171 f33e
0.5971001 0.5369505 -0.53662 -0.5668863 0.53372896 -0.49480253 0.61079085 -0.46236604
0.51690036 0.5194918 -0.5479931 0.5160979 -0.57187605 -0.598602 0.5120009 0.49431187
0.6014348 0.5454495 -0.5059465 0.5717138 -0.5074524 -0.5576243 0.5725098 0.46338555
0.49456263 -0.51049936 0.44702417 -0.5990385 0.5182051 -0.46180817 -0.5881685 0.47547296

fully_connect1.weight f4 [10, 5408]
00000000: f088 14ba 942e e93b bdb2 47bc 11a1 2fbc
00000010: 8297 54bc 1007 573b 88e0 9d3b f0ed 6aba
00000020: a0fe 153c 46c2 123c ec40 583c 9a75 94bb
00000030: 58f8 e83b c6d4 5b3c c0a5 3cb9 f1c9 e5bb
00000040: ea14 103c 4cc5 03bb 48a3 543c 649f 42bc
00000050: 901a 42bc e02b cd3b cebe 5abc 1a66 3a3c
00000060: 6092 8d39 90d2 283a 60b7 79ba 407d 083b
00000070: 03fa 56bc 8a0e 91bb 2014 40ba a264 053c
00000080: fe18 183c 28a0 bbbb 966f 033c 1c14 76bb
00000090: 2aa2 22bc 7e95 393c 80d8 6e39 a02b 813a
000000a0: 0807 0d3b 7449 6cbb 5801 b8ba 0cd9 1ebc
000000b0: 444e ff3b 9848 0f3c 30ec bcba a51c 0bbc
000000c0: 401b 8339 fce0 5abb 14db 243c 60a0 f33b
000000d0: 40be a53b 6e39 3d3c 20d6 b03b 58fd 603b
000000e0: 5483 52bb cea7 2d3c aee6 463c 2bab dbbb
000000f0: c017 d13b eed2 92bb 0058 2cba 5fe7 47bc
00000100: cad3 543c 98d3 4b3c b8df 3dbb 8841 703b
00000110: 5ec1 02bc 0c2e ec3b 9ae4 05bc fa70 20bc
00000120: 74a8 72bb 8cf7 47bc 8474 263c e41a 38bb
00000130: 44fc 1a3c 103e 5a3c 48e3 34bc 8cad 07bb
00000140: 7a02 acbb 189c 443c e075 653a 5cc8 943b
00000150: 7c84 27bc 9cf5 d43b 2106 cabb e89c bd3b
00000160: 54c8 f93b 9215 12bc 4629 93bb d855 c5bb
00000170: 4806 403c 18e9 88ba fb35 54bc 818b 0abc
00000180: 0835 b93a 9851 39bc d80d 35bb b832 b93b
00000190: c426 f03b d8ca b13a d0e5 24bc a885 a03b
000001a0: 60fe 18bc c6e1 3a3c d4ec 03bc 541f 033c
000001b0: ac8d 3bbc 3e7c 153c 4a8a 5ebc 5860 7dbb
000001c0: 6ef3 173c fcc7 cf3b 46e1 493c 0c8c 05bb
000001d0: e8b5 b63b a09f fd3b 76e1 4a3c 0ca0 03bc
000001e0: ece3 b93b 68c7 5dbc 5849 0b3c d8fd 843a
000001f0: d56c e5bb 5ede 88bb fa7d 083c 58e6 aa3a
00000200: 182b f83a 4c70 a1bb 8c89 003b 58e1 cbba
00000210: c884 c53a b025 513c fb3d 06bc 4213 2b3c
00000220: 5036 ff3a 3ec7 313c ebff 43bc 60df df39
00000230: 20d4 73bb 1825 59bb c442 f03b 2897 393c
00000240: c0d2 c23a 3450 ac3b 90e8 41bb a06e f53a
00000250: b45c 3abc 88f8 f4ba 1e9d f7bb 00c9 563b
00000260: 31a2 ecbb 8ad2 b7bb 10a0 803a 9142 49bc
00000270: 2aaf f6bb e897 533c 4054 163c c00d 2f3b
00000280: 20b3 81b9 ec61 573c ae6d d7bb 040e 1d3c
00000290: 30b8 7e3a 4c2a 12bc 40ac c739 48c2 80ba
000002a0: 6bd9 49bc 4ae7 15bc b2bc 45bc 1058 f7ba
000002b0: 7079 0bbb 444b 69bb 6af5 43bc 7001 d03b
000002c0: d643 14bc b472 2a3c 98ca e63a decd 22bc
000002d0: 5904 dabb 0e6c 223c 2409 593c 0462 25bb
000002e0: bc03 94bb 10be ae3a a54c f0bb 30f2 9dbb
000002f0: aa72 50bc c023 413b 2ca3 a0bb 90c4 1c3c
00000300: ba75 3fbc 109f 363c b77b 43bc 42b7 473c
00000310: 68ba 703b 82e4 19bc f232 e1bb 88b5 3abb
00000320: 7c90 15bc b873 c7bb 1e5d 1d3c 9672 11bc
00000330: 62e8 00bc 4a7e 263c b896 89bb 4e9f 3bbc
00000340: 609b e939 6b93 5ebc 0e10 82bb 3824 96bb
00000350: 2481 02bc f09d 733a 08b0 563c 807f 8338
00000360: 1049 2b3b e449 c23b 2ac4 c4bb b4c1 573c
00000370: 00f8 bdb7 745f a1bb a72b fdbb 8cce 2fbc
00000380: 9411 0abc a018 c9b9 e25d 53bc 6829 413b
00000390: a011 c939 c026 283c fed4 f4bb 6c6e 12bb
000003a0: e073 4aba c059 95bb c072 f2b9 0c60 afbb
000003b0: 01da bebb e028 aeba 6032 0d3b 7a7a 4fbc
000003c0: 502b aebb caf4 9ebb 523c b7bb 0a11 5bbc
000003d0: 5457 593c 8a42 0c3c 14ea 40bb 205d 413c
000003e0: b40d 9c3b a047 e03b a08d 883b 1826 133b
000003f0: 3445 a13b acc8 7cbb 0400 63bb 9c23 fe3b
-0.0005666157 0.0071161482 -0.012188611 -0.010719554 -0.012975575 0.0032810606 0.004818026 -0.0008961847
0.009154946 0.008957451 0.013199072 -0.0045306208 0.007109683 0.013417428 -0.00017990824 -0.0070125987
0.008794049 -0.0020106612 0.012978382 -0.011878822 -0.011847153 0.006261334 -0.013351155 0.011376882
0.00027002674 0.00064400677 -0.0009525921 0.0020826608 -0.013121131 -0.004426782 -0.00073272176 0.0081416685
0.009283302 -0.005725879 0.00802221 -0.0037548607 -0.009926358 0.011327146 0.00022778101 0.000985492
0.0021519084 -0.0036054524 -0.0014038486 -0.009695303 0.0077913124 0.008745335 -0.0014413651 -0.008490716
0.0002500657 -0.0033398261 0.010061998 0.0074348897 0.00505808 0.011549337 0.0053966194 0.0034330692
-0.0032121735 0.01059909 0.012139959 -0.0067037544 0.006381005 -0.004480711 -0.00065743923 -0.012201159
0.012989948 0.012440585 -0.0028972458 0.0036660153 -0.007980673 0.0072076377 -0.008172179 -0.009792561
-0.0037026675 -0.012205016 0.010159615 -0.00280922 0.009459559 0.013320461 -0.011040516 -0.0020702807
-0.0052493187 0.012000106 0.00087532215 0.0045404863 -0.010224458 0.0064990055 -0.0061652814 0.005786527
0.007622758 -0.008916276 -0.004491004 -0.0060221963 0.011720248 -0.0010445444 -0.012952323 -0.008456112
0.0014130184 -0.011310957 -0.002762666 0.005651798 0.00732884 0.001356448 -0.010064557 0.0048987456
-0.0093379915 0.011406368 -0.00805207 0.008003075 -0.011447351 0.00912386 -0.013582775 -0.0038662162
0.009274347 0.0063409787 0.012321776 -0.0020377664 0.005575884 0.007739976 0.012382856 -0.008033764
0.0056729224 -0.013536312 0.008501373 0.0010146452 -0.007001499 -0.004176899 0.008330816 0.0013038618
0.0018933741 -0.004926717 0.0019613234 -0.0015554829 0.0015069479 0.012765333 -0.008193488 0.010441603
0.0019471142 0.010850726 -0.011962871 0.00042700302 -0.0037205294 -0.0033133682 0.007332178 0.011327542
0.0014863834 0.0052585844 -0.002958808 0.0018724985 -0.011374641 -0.0018689791 -0.0075565716 0.0032773614
-0.007221483 -0.005609815 0.0009813327 -0.012283937 -0.0075282054 0.012914635 0.00917536 0.0026711076
-0.00024738256 0.013145905 -0.006574354 0.009585861 0.0009716777 -0.008921217 0.00038084574 -0.0009823525
-0.012319903 -0.009149382 -0.012068914 -0.0018870849 -0.00212821 -0.003559784 -0.011960367 0.0063478276
-0.0090493765 0.010403324 0.0017607985 -0.009936778 -0.0066533503 0.009913458 0.013246808 -0.0025235424
-0.0045170467 0.001333179 -0.0073333555 -0.0048201308 -0.012722651 0.0029470772 -0.004902264 0.0095683485
-0.011685783 0.011146322 -0.011931351 0.012189688 0.00367322 -0.009392859 -0.006872528 -0.0028489549
-0.009128686 -0.006086793 0.00960472 -0.008877417 -0.007867904 0.010161946 -0.0041988753 -0.011451555
0.00044556987 -0.013584952 -0.003969199 -0.0045819543 -0.00796536 0.0009293249 0.013103493 6.2703155e-05
0.0026136078 0.0059292186 -0.00600483 0.013168741 -2.264604e-05 -0.004924709 -0.007726151 -0.010730397
-0.0084270425 -0.00038356055 -0.012900801 0.0029474143 0.0003835084 0.010263145 -0.0074716797 -0.0022343649
-0.0007722955 -0.004557818 -0.00046243332 -0.005352026 -0.005824328 -0.0013287328 0.0021544918 -0.012663478
-0.005315222 -0.0048509585 -0.0055919075 -0.013370762 0.01326545 0.008560786 -0.0029436396 0.011801988
0.0047623757 0.006844476 0.0041672736 0.0022453126 0.0049215797 -0.0038571758 -0.003463746 0.00775571

fully_connect1.bias f4 [10]
00000000: 22fd 523c 581d 0a3f 68a0 093f 7e99 04bf
00000010: edfe 053f a4f8 053f 322b 37bc 79bb 09bf
00000020: 1dd4 04bf 15ae 0a3f
0.012877734 0.53951025 0.53760386 -0.5179671 0.5234211 0.5233252 -0.011179732 -0.53801686
-0.5188616 0.5417188

fully_connect2.weight f4 [1, 10]
00000000: 7c4d 3ebe 90b2 1f3f 10fd 9abe 6c54 21bf
00000010: bbd4 093f 0db5 493f a1e7 8a3e 601b e53e
00000020: 791a b43e fed8 0a3f
-0.18584245 0.6238184 -0.30271196 -0.6301944 0.53840226 0.78791887 0.27129844 0.44747448
0.35176447 0.54237354
