bs32_lr0.001_weight.pt (torch, 240208 bytes, 7 tensors)

conv_1.weight f4 [16, 3, 3, 3]
00000000: d4ef d2bd ec41 183e 3bb6 4f3d 6f72 18be
00000010: 8348 2c3e 2788 873d bd1c 01be a289 d33d
00000020: b497 65bd 12c3 3fbe 3568 3d3e 719a f83c
00000030: ec5e 2ebe 8ab9 1bbe 8dbe 36be 20b9 6cbd
00000040: c89a 4a3e 988b cbbd a5cc 003e 184d 29be
00000050: 3ea9 bb3d 7a55 393e 3662 c93c 6dd1 bbbc
00000060: b7b3 89bd 8f5e 18bd ea43 c83d 452a 3d3c
00000070: 094a 2cbc 33cd 103e 4ae2 28be 0dd1 ffbd
00000080: 302c f0bb e867 52bd 155d 4fbb 6ec8 1b3e
00000090: d6a7 95bd cc3c 9f3c 7f9e c73c 5c1d 24be
000000a0: baa2 22be eec6 623d 2f05 af3c 8e8f c83d
000000b0: 2dbf 99bc 655e bbbd 28ac 753d dd88 923d
000000c0: 1288 ccbc ce5e bc3c 580a de3d b37d 35be
000000d0: dd95 a4bd c5f6 d6bd ea52 333e a6bb 6bbd
000000e0: 4a8a 5f3d b030 27be a1ab e7bd 2347 50bd
000000f0: 5075 febb 0f69 7fbd ef3e 413c bbe2 ce3d
00000100: 94bd ae3d fabc f0bd a632 e03d 74c7 d73d
00000110: ae30 c73d d912 923d 76c1 abbd 32e2 c43d
00000120: 7601 2a3e 8ecb 083e f0e2 3ebd 3eb7 193e
00000130: 31ca cbbd bffb 46bd 8a8b 053e 9617 29bd
00000140: 905e 073e 3a0a 12be d58e 7fbd dffd 0bbd
00000150: 3937 133d 6dc7 be3c 73c2 44be 5c66 913d
00000160: 2cdd ca3c 08ea 26be 2623 19bd 3baa a13d
00000170: 2e68 24bd 2f7a ec3d 3b58 193e 153c 0ebe
00000180: 937f ebbd 3a36 0fbe aebb 15bc 4a61 97bd
00000190: f3e3 9c3d 78f9 31be f6a5 1fbe 7760 973d
000001a0: 32e5 04be a425 9e39 18e9 3a3e b706 863d
000001b0: 41e1 4fbc adc1 233d bf0b 31be c7c6 62bd
000001c0: e9cd 2e3e 1a8a 00be 09d1 223b eaea f83d
000001d0: 2ee7 fdbd d28f f3bd d847 1dbd 9216 1b3e
000001e0: 0735 95bd 3cab b5bd 8061 4f3d 9566 06bd
000001f0: ee7c 0cbe 41ce e13c 3d38 2ebe 1889 cabd
00000200: fb7c 44be 977d 4abe 03fa 10be 50be 623c
00000210: 3427 a1bd 3b6b 2bbe 02c9 e83d 9c6b d23d
00000220: 6bcb 383d 4448 a33d 8516 f3bd 6911 ee3b
00000230: e084 fbbd edd1 45be afe5 b23d 5a13 cb3d
00000240: 88c2 283d 7ae1 113e 5654 193e 9575 ad3d
00000250: 799d 223d 5d0e 53bd 10eb 003e a898 28be
00000260: 3cd5 c53c b7fd f93d 4746 653d dd1d bc3d
00000270: ba3a f7bb 7793 f83c ed15 1bbe 2611 25be
00000280: b148 733d 8d72 313d 7838 89bd 2591 0bbe
00000290: 9713 3b3e 0fd3 5fbd b88c 473c 7b5e 483d
000002a0: 78f1 183e 3965 e8bd 3830 49bd f938 c1bc
000002b0: bd4d d3bd 44e7 0abb 38f5 ec3d ca29 633d
000002c0: cda7 a13d bca7 6cbd 770d ddbd 3232 383e
000002d0: 3856 56bd ce3f a9bd 4c6e c73c 1c11 153d
000002e0: d1b6 b6bd 7e1f 383e 4e6c d13d a755 ff3d
000002f0: 32ab a63d 272d 8a3d bc7c 98bd a4b9 333e
00000300: e77c e13c 7788 a139 5b74 49bd 0a12 56bd
00000310: 9b02 27be 21de a8bd 4f70 91bd 330c 1abe
00000320: 03fe 32bb 6290 d1bd ab2f bfb9 8e39 2fbe
00000330: 7dab ccbd 0334 483d cf66 debd 0d0c 713d
00000340: 1d82 a5bd ba97 7d3c d1a1 6d3d 6252 d0bd
00000350: bd87 27bd 7658 24be e369 2e3e 2e08 253e
00000360: 25cb 0cbd 0354 20be 7c56 5a3d 8134 e83d
00000370: dc76 163e 5614 94bd 9375 3cbe 9a89 fd3c
00000380: 23e6 803d 249b e13d ec63 65bd 1879 803a
00000390: 4795 a33d 30cb 2abe 8fa3 cdbd e7eb 023e
000003a0: 58cd 90bd 8bae 9abb fbf2 223e 0ce2 f7bd
000003b0: 6777 a6bb a85d 933d a5ac 04be 2aee 043e
000003c0: 4dcf 40be 6ea9 9abc 95e8 4239 bd90 6c3d
000003d0: 9719 46be ce9b 44bd b114 80bd 204f 91bd
000003e0: a336 7bbd d29e e73d ac5f b0bd 8577 e63d
000003f0: 6f2e c6bd 4383 babd b614 e83c 1eae 3e3d
-0.1029965 0.14868897 0.050710898 -0.14887403 0.16824536 0.06617766 -0.12608619 0.10328986
-0.05605288 -0.18726757 0.18496783 0.03034708 -0.17028397 -0.15207496 -0.17846127 -0.057793736
0.19785607 -0.09938735 0.12578066 -0.16533315 0.0916314 0.18099013 0.024582963 -0.02292701
-0.06723731 -0.037199553 0.097785786 0.011545722 -0.010515698 0.14140777 -0.16492572 -0.12491045
-0.0073294863 -0.051368624 -0.0031641175 0.15213177 -0.07307403 0.01943817 0.024367569 -0.16026825
-0.15882388 0.055365495 0.021364776 0.09793006 -0.018767918 -0.09148864 0.059978634 0.07155011
-0.024967227 0.022994425 0.10841817 -0.17723732 -0.08036397 -0.10496286 0.17512098 -0.057552002
0.054575242 -0.16327167 -0.113120325 -0.05084909 -0.0077654496 -0.06235605 0.01179479 0.10101839
0.08532253 -0.117547944 0.109471604 0.105360895 0.09726082 0.07132501 -0.08386509 0.09613456
0.1660212 0.133589 -0.046603143 0.15011308 -0.09950674 -0.048579928 0.13041511 -0.04128226
0.13219666 -0.14261714 -0.062392075 -0.034177657 0.035941336 0.023288453 -0.19214801 0.070996016
0.024763666 -0.16300213 -0.037387036 0.07893797 -0.040138416 0.11546742 0.14975064 -0.13890107
-0.11498942 -0.1398553 -0.009138985 -0.07391603 0.07660665 -0.17380321 -0.15590653 0.07391446
-0.12978056 0.00030164153 0.1825298 0.065442495 -0.012687982 0.039979625 -0.17289637 -0.05536535
0.17070736 -0.12552682 0.0024843833 0.12154181 -0.1239761 -0.11892666 -0.038398594 0.15145329
-0.07285505 -0.08870551 0.050630093 -0.032812674 -0.13719532 0.02756417 -0.1701364 -0.0988943
-0.19188301 -0.19774471 -0.14157872 0.013839319 -0.078688055 -0.16740124 0.11366464 0.10274431
0.04511587 0.07972768 -0.1186953 0.007265259 -0.12281203 -0.19318362 0.08735215 0.099158004
0.041201144 0.14246169 0.14973578 0.084696926 0.03970096 -0.05152737 0.12589669 -0.16464484
0.02414953 0.122065954 0.055975225 0.091853835 -0.0075448425 0.030343754 -0.15145083 -0.16119823
0.059395496 0.043322135 -0.06700224 -0.13629587 0.18269192 -0.05464464 0.012179546 0.04891823
0.14935863 -0.11347432 -0.04911825 -0.023586737 -0.10317562 -0.0021194974 0.11570209 0.055459775
0.078933336 -0.05777715 -0.10793584 0.17987898 -0.05232832 -0.08264123 0.024344586 0.03639327
-0.08921588 0.17980763 0.102257356 0.12467509 0.08138122 0.067468934 -0.07445666 0.17551285
0.027525378 0.00030809987 -0.04918323 -0.052263297 -0.16309588 -0.08245493 -0.07101499 -0.15043716
-0.0027312047 -0.10232617 -0.00036465874 -0.17111799 -0.09993646 0.048877727 -0.10859453 0.058849383
-0.08081458 0.015478069 0.05801565 -0.10171963 -0.040900934 -0.1604937 0.1703258 0.16116402
-0.03437342 -0.15657048 0.053305134 0.11338139 0.14693779 -0.07230441 -0.18404226 0.030949403
0.06293895 0.11015919 -0.056003496 0.0009801714 0.07987457 -0.16679072 -0.10040962 0.12785302
-0.07070416 -0.004720514 0.15913002 -0.12103662 -0.005080152 0.07195598 -0.12956484 0.12981477
-0.18829079 -0.018879618 0.00018587925 0.05775522 -0.19345699 -0.04800015 -0.062539466 -0.0709517
-0.061331403 0.113095894 -0.08611998 0.11253265 -0.09676825 -0.091070674 0.028330188 0.04655277

conv_1.bias f4 [16]
00000000: 3ec0 33be 2ba9 363d 8502 193e 5300 8c3d
00000010: b6dd 3dbe 2a86 71bd e3b8 88bd e3f0 abbd
00000020: eb7d 143e 46a7 fb3d c568 eebd 674e e0bd
00000030: afee 03be b8cb 1f3e 8f46 9b3d ef7f 273e
-0.17553803 0.044594925 0.14942367 0.06835999 -0.18541607 -0.05896584 -0.06675889 -0.08395555
0.14501159 0.12287764 -0.11641077 -0.10952454 -0.1288402 0.15605056 0.07581817 0.16357397

conv_2.weight f4 [32, 16, 3, 3]
00000000: 0a50 a0bd 38eb 30bd d33b 8d3c ce40 acbd
00000010: 245f 9ebd 4638 873d 11d7 35bd c702 213d
00000020: 973f 94bc e344 e9bc 85cf 6a3c 1a4d 00ba
00000030: 9701 803d 7a99 213d 9937 a63d 7c90 033d
00000040: 297b 0d3d a5ee 09bc 0ed0 1bbd c95a 793d
00000050: 5bbc ae3c 6060 133b fbbe 0d3d c7d1 61bc
00000060: f10a 4dbd 12b4 1e3c 4521 19bd b42e 7d3d
00000070: 513d 3bbd 143c 0bbd 8c72 7c3d e561 7c3c
00000080: 9c39 f13c 5c7c a6bd d969 5c3d add6 e63b
00000090: 8fd0 2dbc 7f7e a3bc d65f 8c3d 679d cfbc
000000a0: d5ea 0c3d 9eb3 e53a 0a55 cf3c 1f9a 7cbd
000000b0: 87dc 113c 72fc b1bc 0f67 80bd 42cd 64bd
000000c0: 4e7a 873b 240c 29bd 047a 54bb 2584 07bd
000000d0: ae15 7fbd 5a35 083c de2d 5f3d 45f2 d53c
000000e0: 69f9 1fbb 9ad6 71bd 8646 88bd b6c8 8cbd
000000f0: a0fc 083d 0800 be3b b0fd 1a3d dd9b 88bd
00000100: aba5 0dbc e3dd d7bc eb40 7bba 5d00 153d
00000110: d529 963d a325 92bd 782a 3b3d e176 763c
00000120: f1c4 0f3d 6531 8a3d eca3 74bc 7a92 dd3c
00000130: 04b0 92bd 6fb7 4ebd f3a9 9a3d a8c9 82bc
00000140: f4ef 863c 69c1 953d c17f 8ebd 3006 eebc
00000150: 90aa d2bc a0a5 10bd 560c edbc fb5c 183d
00000160: b461 0bbd eca1 20bd 005f 56bd 0974 1cbd
00000170: 6b76 5b3d 2333 47bd 8a1e 673d 622e 25bc
00000180: 34fd e13c b098 5ebd 06e3 9cbc f8e3 ccbc
00000190: e06e 56bd d38f 3f3d dbb7 59bd de87 e0bc
000001a0: 01ae 25bd 1107 ab3d 004e 51bd 6688 08bd
000001b0: d74a 393c 18e8 d5bc 080c 433d 6b6d 71bd
000001c0: 7a68 9abc ddb5 95bd e6b9 0c3c 8d72 5cbc
000001d0: 810e 7f3d 65b6 e33c 97b7 493c 7fd6 0f3d
000001e0: 5485 62bc c2b5 4c3d 2bbc 203d 00a7 32ba
000001f0: 5a94 303d cbd4 993d ab90 91bc 932b 9f3d
00000200: fcbc 273d 7e93 183d 673b 17bd 2c6b e83c
00000210: e9c4 043c 4f78 ec3b 7773 233d 1e3c 8c3d
00000220: a8af f23c 58e7 c53b e4b7 b2bc f3d3 17bd
00000230: 57a7 9ebd 1b0d 313d ec8b 873c 342f 9cbd
00000240: 670d 9ebd 081f 343c 83d1 8ebd 88a0 6bbc
00000250: 20e2 9b3c 1b2c 9bbd e633 483d d45b 89bc
00000260: c1cb a43d 23ca 4dbd 5088 f93c 4a29 273d
00000270: a106 a53d 3aca 7d3d 587e 48bc 9852 02bd
00000280: ebd9 a4bd 505b 34bd 3695 c9bc 7e9f 723d
00000290: 4ec4 2cbd 481a 1e3c f07d f53c c0aa 283d
000002a0: a66b 9bbd 787b 6abd b62d 213d 90ef 99bb
000002b0: 1692 5abd 9881 083c 0666 083d 0215 753d
000002c0: 4734 81bd f009 e73c d020 a93b 9ea6 46bd
000002d0: ac0c dbbc 0014 18bd 20fe 8fbd 60bb 513c
000002e0: 265d 373d 18dc 2abd 1856 04bd c0be f43a
000002f0: 4ea3 6abd 0c8c d9bc 60d6 a7bc 0491 c73c
00000300: 76ad 3fbd 6091 77bd 273e 8bbd db67 6abd
00000310: 406a 943c ac64 b23c fbf1 a03d c07d df3b
00000320: 6848 47bc 501d 933c 6811 24bd 8ebd 3abd
00000330: e24c 7b3d 05a7 983d 4807 34bc 5d87 873d
00000340: 0800 4dbd 84f0 94bc 6f96 a7bd ca1a a0bd
00000350: f3e4 62bd b336 87bd 80ca b83c 9c0f e23c
00000360: 90d7 c23b a0b2 4abc 8bdf 51bd 2a9d 493d
00000370: 7499 913c 3e6a 5bbd 16d3 aabc 9013 9abd
00000380: 8888 9ebd 4b46 60bd 26a5 97bd b070 8fbc
00000390: f2db 773d a644 dcbc a00e 45bc beaa 533d
000003a0: c2b8 6d3d f765 97bd 2e63 273d ccd6 ec3c
000003b0: f88b 01bd 3c15 f1bc 109a 21bd 0ea1 423d
000003c0: 76ec 253d e037 66bb c031 cdba 7d93 a33d
000003d0: 195b 883d 2e79 6cbd e0d1 173c f0f5 acbc
000003e0: cc72 b13c 8636 a3bd e598 a93d cb13 90bd
000003f0: 6df9 813d 60e1 dbbc 60b4 f2bc f2be 95bd
-0.07827766 -0.043193072 0.01724044 -0.08410798 -0.077329904 0.0660253 -0.044394556 0.03930929
-0.018096728 -0.02847523 0.014331703 -0.00048943015 0.06250303 0.039453007 0.08116073 0.032120213
0.034541283 -0.008418714 -0.038040213 0.060877595 0.02133005 0.0022487864 0.03460596 -0.013782925
-0.050059263 0.009686487 -0.037385244 0.061812118 -0.045712773 -0.03399284 0.061632678 0.015404199
0.029446416 -0.081291884 0.05381188 0.0070446343 -0.010608806 -0.019957779 0.06854217 -0.02534361
0.03440364 0.0017524844 0.025309104 -0.06167042 0.0089026755 -0.02172682 -0.06269657 -0.05585981
0.004134453 -0.041271344 -0.003242136 -0.033085007 -0.062276535 0.008313501 0.0544871 0.0261165
-0.0024410135 -0.05904255 -0.06654076 -0.0687422 0.033444047 0.0057983436 0.03783959 -0.066703536
-0.008645455 -0.026350921 -0.00095845637 0.0363773 0.073321976 -0.07136085 0.0456948 0.015042991
0.035099927 0.067477025 -0.01493166 0.027047385 -0.071624786 -0.050467905 0.075519465 -0.015965298
0.01647184 0.07312281 -0.06957961 -0.029055685 -0.025716096 -0.035314202 -0.028936546 0.037198048
-0.034028724 -0.03921692 -0.052336693 -0.038196597 0.05357973 -0.048632752 0.05642561 -0.010081859
0.027586557 -0.054344833 -0.019151222 -0.025011048 -0.052351832 0.04676802 -0.053153854 -0.027408537
-0.040449146 0.08350957 -0.051099777 -0.033333205 0.011309347 -0.026111647 0.047618896 -0.05894224
-0.018848646 -0.07310078 0.0085892435 -0.013455045 0.06226969 0.027796933 0.012311838 0.03511667
-0.013825733 0.049978025 0.03924195 -0.0006815046 0.04311023 0.0751129 -0.017769178 0.07771983
0.040951714 0.037250035 -0.036921885 0.028371416 0.008103588 0.0072164903 0.039905038 0.06847404
0.029624775 0.006039541 -0.021816202 -0.037067365 -0.07746761 0.04322539 0.016546212 -0.07626191
-0.077174 0.010993727 -0.06973555 -0.014381535 0.019028723 -0.07576772 0.04887762 -0.01676742
0.080466755 -0.0502416 0.030460507 0.04081086 0.08057905 0.061960436 -0.012237154 -0.03181705
-0.08049377 -0.044032395 -0.024607282 0.059234135 -0.0421794 0.009649821 0.029967278 0.041178465
-0.07588892 -0.057246655 0.039350234 -0.0046977475 -0.053361975 0.008331679 0.033300422 0.059834488
-0.06308799 0.02820298 0.0051613823 -0.048498742 -0.02673944 -0.03712845 -0.07030892 0.012801021
0.044766568 -0.041713804 -0.032308668 0.0018672571 -0.057284646 -0.026556037 -0.020487964 0.024361141
-0.046796285 -0.060441375 -0.06798964 -0.05722795 0.01811707 0.02177652 0.07858654 0.0068204105
-0.012163259 0.017958313 -0.040055662 -0.04559093 0.061352618 0.074537314 -0.010988064 0.06617615
-0.050048858 -0.018181093 -0.0818299 -0.078176096 -0.055394124 -0.0660223 0.022557497 0.027595334
0.005946107 -0.012371689 -0.051238578 0.04922215 0.017773367 -0.053568117 -0.020852607 -0.075232625
-0.07740885 -0.054754537 -0.074045464 -0.017509788 0.06051249 -0.026888203 -0.012027413 0.051676504
0.058037527 -0.07392495 0.04086607 0.028911017 -0.031627625 -0.02942907 -0.039453566 0.047516875
0.04050871 -0.003512852 -0.0015655085 0.079871155 0.066580005 -0.057732753 0.009266347 -0.021113366
0.021661185 -0.07969384 0.082811154 -0.07035025 0.06346402 -0.026840866 -0.029627025 -0.073118106

conv_2.bias f4 [32]
00000000: ef38 763d 4ed4 85bd 5ddc 9a3d 4b2e 15bd
00000010: 9d1f a63d 8629 59bd c1e8 af3d 33ce 57bd
00000020: 97e9 6c3c aa1c 91bd f97b 9d3c c85e 88bc
00000030: 48d2 36bd d432 b83c 802a bcbc 74e6 e63a
00000040: c383 d23b 5c60 c73d 5b33 b6bc 8455 ad3d
00000050: 9c00 a8bc c0b0 37bd 153a 1abd c4c9 25bd
00000060: 9c49 2bbd 099d c2bb f7d1 8f3c 4f7d 8d3c
00000070: 84f0 8cbd 0542 8dbd 4423 ff3b 01bd 97bd
0.06011289 -0.065346345 0.07561562 -0.0364211 0.081114985 -0.053018115 0.08589316 -0.05268688
0.014459989 -0.07085545 0.019224154 -0.016646758 -0.044634134 0.022485174 -0.022969484 0.0017616288
0.0064243986 0.09735176 -0.022241285 0.084635764 -0.020508103 -0.044846296 -0.037653048 -0.04047562
-0.041818246 -0.00593913 0.017556174 0.017271666 -0.06881812 -0.06897358 0.0077861864 -0.074090965

fully_connect1.weight f4 [10, 5408]
00000000: b160 04bb a17e 60bc 7e11 043c f025 233b
00000010: ae26 89bb 78c7 9bba 802b 263b 1000 af3b
00000020: feea 5dbc 4a41 eebb c84e 02bb 83c8 6eba
00000030: da83 a93a 4eb4 093c e133 a93b d91a 86ba
00000040: c36e 1fbc 9864 073b 89c7 b83b 881b 81ba
00000050: d06f 603a dbd3 bdbb 907c b43b c5eb 773b
00000060: 7b86 003b ec9d 04bc 668c fb3b 9171 d0ba
00000070: 69df 173a e7fb cfba 582e 75bc 36c9 cdbb
00000080: 1aa1 85bc 99cb 90bc de59 55bb 5f95 03bc
00000090: 1f35 e1bb 81b3 6cbc e748 8bbc 45fb ac3b
000000a0: f33d b7bb 497b 98bb 9da8 6cbc 9743 2fbc
000000b0: 4a6f 69bc 9142 be3b 136b cb3b fc8f 24bc
000000c0: b070 a6ba fcd5 80bc 4f99 79bc c44b 343b
000000d0: 3573 ee3b 7cf7 20bc c77f bcbb a635 843b
000000e0: 34e3 6b3b 935e ebbb 113b 20bb add6 89bc
000000f0: 5e50 1f3b 7266 04bc d911 033b dc87 c63b
00000100: 0827 7bbc 9921 f3bb 6834 ae3b 2f24 3cbc
00000110: d548 8fbc e2d0 be3a d5f2 88bc 6fc5 80bc
00000120: 73c1 a1bb 5737 3a3b 3fb5 3fbc c3ff 88bc
00000130: 42bf 80bc ddb2 423a eec2 143b ad48 ca3b
00000140: 4afe 01bc 52ae 91bb 9c9d a43b 5ffa 66bb
00000150: d160 42bc 3913 80bc e942 8ebc b7f7 a43b
00000160: 49c9 0f3c 2562 96bc c16a fe3b ed25 77bc
00000170: 4303 b8bb ab2e 96bc 2c4c 403b 1a9f c13b
00000180: bcb1 5d3b 1d17 72bc 06e8 f43a e13d 8cbc
00000190: 0be9 e1ba ebe3 ff3a 2b6e 0fbc eed5 7f3b
000001a0: e6ea 42bb 68ed 23bc 80e5 8dbb 6db6 2bbc
000001b0: e2db ac3b 1ba8 76bc e405 8bbc 8311 2ebb
000001c0: 6ca9 c03b 09de d8ba 8117 963b 62e0 d1bb
000001d0: b55b 61bc a06e 16bc 205e cebb 323b 023c
000001e0: ec50 c33b d452 51bc bfda 6ebc d736 45ba
000001f0: 8d01 663b 91d4 f2bb 1f42 0e3c d369 42bc
00000200: 6a42 a93b 0885 5abc 7e42 96bc ad3c 1fbb
00000210: e64a 31bc 215b 2bbc dab4 66bb 6378 e2bb
00000220: ddd5 3abc af24 7fbc f149 e63b b379 89bc
00000230: ec4a b439 9338 6f3b f792 90bc 1198 74ba
00000240: 602f 01bb 055a c8bb 601a 02ba 5164 79bc
00000250: 0fa0 a7ba c60b 6fbc 0a35 b23a 6a65 b9bb
00000260: 3716 afbb cf45 4f3a fb4c 98ba 93b3 92bc
00000270: e8b4 2abc 7e88 08bc 9176 a93a b551 963a
00000280: fc6a 653a bdbe 2fbc 848d 38bc cad9 ba3b
00000290: 8bef 7cbc 4cf8 3fbc c61a 34bc 83aa d0ba
000002a0: ffd0 19bc 9854 68bb 7ac1 06bc 7969 17bc
000002b0: eb7b 1dbc 4198 2dbc 2280 0ebc 782f 493b
000002c0: 1a18 5a3c 2e23 2b3c 6118 c8bb 38b6 d83b
000002d0: 90f4 bf3a ae0f 0d3c 8cb4 483c 8813 8dbb
000002e0: 6892 c33b ae72 203c 78a3 db3b 72d2 103c
000002f0: d82f e03a ccd1 863b 2eb7 c2bb f0db ce3b
00000300: e020 8e39 0ff3 3ebc b689 333c 7c21 d33b
00000310: 54ac 0bbc 74da f23b 92fe 22bc 9421 44bc
00000320: 90ac 373a a671 97bb f26d 543c 4490 21bc
00000330: e695 373c be07 403c 68fe ce3a fc3b 36bc
00000340: 98eb 89ba 6445 963b 40c7 1d3c 08f2 5f3b
00000350: c57a 3dbc 607d c1ba 266e 5d3c be3a 0fbc
00000360: 441d 343c 86c4 013c 104d a23b c0e5 50b9
00000370: 56e3 12bc fc07 d03b dc78 5abb faf7 b6bb
00000380: f73e e9bb 78c6 983b c3d1 4cbc 8600 283c
00000390: 8055 7b3a e844 9e3a e0ed 803b ac11 57bb
000003a0: b6ed 01bc 60f8 1abc 10ac e33b 6c55 46bc
000003b0: e716 4ebc 98f6 fb3b 20f7 f63b 4c55 973b
000003c0: 18b7 c53a 50d8 183b 70d1 083b 866f a5bb
000003d0: 6d20 37bc 7bb0 ffbb 0076 ea39 9098 713a
000003e0: f058 06bc b6ff 22bc 8016 60b9 e020 733a
000003f0: aed6 2c3c 5003 6eba d622 86bb 0074 82ba
-0.0020199234 -0.013702066 0.008060811 0.0024894439 -0.004185519 -0.0011885008 0.0025355518 0.0053405836
-0.013544796 -0.0072709667 -0.0019883383 -0.0009108858 0.0012932972 0.008404804 0.005163655 -0.001023139
-0.0097309975 0.0020659324 0.005639021 -0.0009850124 0.0008561583 -0.0057930774 0.005508013 0.0037829739
0.0019611407 -0.008094292 0.007676649 -0.0015902986 0.00057934836 -0.001586792 -0.0149646625 -0.0062800897
-0.01631217 -0.017675208 -0.0032554786 -0.008031218 -0.0068727876 -0.014447094 -0.017002536 0.005278977
-0.0055921017 -0.0046533686 -0.014444497 -0.010697267 -0.014247725 0.005806275 0.0062078326 -0.010044094
-0.0012698378 -0.015727036 -0.0152343055 0.002751098 0.0072769173 -0.00982463 -0.005752537 0.0040347157
0.0035993578 -0.007182905 -0.0024449269 -0.016825998 0.0024309377 -0.0080810655 0.0019999652 0.006058676
-0.01532913 -0.0074197766 0.005316306 -0.011483236 -0.017490784 0.0014558102 -0.016717354 -0.015719144
-0.004936391 0.0028414333 -0.011700927 -0.01672352 -0.015716199 0.00074271654 0.0022699195 0.0061732144
-0.007934162 -0.0044458294 0.0050236713 -0.0035244448 -0.011863903 -0.015634166 -0.01736589 0.0050344127
0.008776017 -0.018357346 0.007764191 -0.015084726 -0.005615623 -0.0183328 0.0029342277 0.005908859
0.0033827862 -0.014776018 0.0018684871 -0.01711935 -0.001723559 0.0019522881 -0.008754293 0.0039037424
-0.002974206 -0.0100053325 -0.004330337 -0.010480505 0.0052752355 -0.015054728 -0.016970582 -0.002656073
0.0058795717 -0.0016545664 0.0045804386 -0.0064049223 -0.013754775 -0.0091816485 -0.0062978417 0.007948684
0.0059605744 -0.012776095 -0.01457852 -0.00075231254 0.003509614 -0.007410594 0.008682757 -0.011866051
0.005165388 -0.013337381 -0.018342253 -0.002429764 -0.01082108 -0.010458739 -0.003520301 -0.006911324
-0.011403528 -0.015572711 0.0070278575 -0.016781664 0.00034388097 0.0036502227 -0.017648203 -0.0009330521
-0.0019712076 -0.006114247 -0.00049630366 -0.015221671 -0.001278879 -0.014590209 0.0013596129 -0.0056578415
-0.0053432244 0.00079068256 -0.0011619622 -0.017907893 -0.010419108 -0.0083333235 0.0012929012 0.0011468442
0.00087515987 -0.010726628 -0.011264209 0.005702232 -0.015437971 -0.011716913 -0.010992711 -0.0015919957
-0.009388207 -0.0035450812 -0.008224839 -0.009241455 -0.009612064 -0.010595382 -0.008697541 0.003069846
0.01331141 0.010445399 -0.006106422 0.006613519 0.0014645029 0.008609695 0.012250077 -0.004305307
0.0059683807 0.009792967 0.0067028366 0.008839237 0.0017104102 0.004114365 -0.005942247 0.0063128397
0.00027108844 -0.011654629 0.010958126 0.0064432006 -0.008524973 0.0074112955 -0.00994839 -0.011970896
0.000700661 -0.0046217022 0.012965666 -0.009861056 0.011205172 0.011720596 0.0015792372 -0.0111227
-0.0010522483 0.0045859087 0.009630024 0.0034171361 -0.011564915 -0.0014762096 0.013515031 -0.008742033
0.010993306 0.00792039 0.004953034 -0.00019922014 -0.008965334 0.006348608 -0.0033336198 -0.0055837603
-0.0071181017 0.004662331 -0.012501183 0.010254031 0.00095876306 0.0012074979 0.003934607 -0.003281693
-0.00793021 -0.009458631 0.0069480017 -0.012105327 -0.0125787025 0.0076893084 0.007536784 0.0046183225
0.0015084473 0.0023322292 0.0020876788 -0.005048695 -0.0111771645 -0.0078030205 0.00044719875 0.0009216154
-0.008199915 -0.009948662 -0.00021370687 0.0009274613 0.0105492305 -0.0009079473 -0.0040935082 -0.0009952784

fully_connect1.bias f4 [10]
00000000: 99a5 77bb 5af2 7fbc 5887 073c 9a31 e13a
00000010: 9517 083c af1f 44bc 6be0 6039 0a68 4e3a
00000020: 097c 0abb e439 e8ba
-0.0037787913 -0.015621746 0.008272015 0.001718092 0.008306404 -0.011970445 0.00021445907 0.00078737794
-0.002113106 -0.0017717448

fully_connect2.weight f4 [1, 10]
00000000: c148 a53d 3bb4 8d3e f52c de3d 7448 1a3e
00000010: 5cff 5dbd 48f8 873c 4d77 b63d c80d 573e
00000020: 3900 3d3d e14a ab3d
0.08070517 0.27676567 0.108484186 0.15066701 -0.054198608 0.016597882 0.089094736 0.21001351
0.04614279 0.083638914
