bs48_lr0.001_weight.pt (torch, 240208 bytes, 7 tensors)

conv_1.weight f4 [16, 3, 3, 3]
00000000: ac2a 85bd b3dd 1d3e cd25 d4bd 08cf 913d
00000010: 9832 b8bd a9d7 273e 1a3c 5a3d e9d6 16be
00000020: 566a 503d 9932 20be 3b90 36be 95a1 1bba
00000030: c602 263d 2798 293d ce69 dfbd ea79 db3d
00000040: 97c2 393e c1f5 d4bd cf51 a73d aead 3d3e
00000050: ebc5 13bd eb33 cd3d 7cf2 d83d 18d6 62bd
00000060: 0031 313e 3da8 8e3d 8764 383e b44f 27bd
00000070: f750 36bd b097 26be 37fa cdbd 9516 8b3d
00000080: 193c 163e 9f0e 9439 1268 2d3e 6073 92bc
00000090: 54a6 47bd 3758 cbbc 7e1b 263e b4f8 6abd
000000a0: 1cbf e13d a2cb cd3d 9798 84bd c5a2 b53d
000000b0: 39e8 243d 5efd 05be 7ca1 0a3e b088 2dbc
000000c0: 59b1 003e 0583 e23d a3a4 2c3e 49da 243e
000000d0: 59de 463e 54c4 333d 6f83 2f3e 01f9 343e
000000e0: 369e 3fbe 9e37 a33c 55b7 173e 3592 2b3e
000000f0: 3a92 15be f477 fb3d 7dc0 00be 3b6e c4bd
00000100: b838 edbd 179d 17bd 3356 01be e1b4 0dbe
00000110: 2f74 5e3d 8801 3fbe 479f 05be 7724 04be
00000120: d741 9ebd a242 49be b9a4 62bd a8a7 53bc
00000130: 308f 293e 96ce b93d 617a 963d 4df1 26be
00000140: f679 513c d076 85bd 60c6 a3bd d5a9 ef3d
00000150: cdd3 ce3d 3c73 e93d 8766 12bc f162 37be
00000160: d082 1e3e b6c2 fb3d 0442 c13d 5a74 263e
00000170: e0e6 0cbe a8dd 45bd a98e 35bd ac82 343d
00000180: ffb1 7b3d 3c0b 163e 45f3 31be 97e4 92bb
00000190: bff0 013e f65e 34be c651 88bd e974 573d
000001a0: 7d3c ac3d 0c37 0f3c 74f0 2cbc bd63 3e3d
000001b0: 157a a93d 59e4 22be f9d4 42be 3f08 3c3e
000001c0: 829a b4bd 4102 2a3e 045b de3d 0eea b2bd
000001d0: 9460 c1bd 58c6 2f3e 8e1f 60bc f759 06be
000001e0: 9012 3a3e 32b9 7f3d ccf0 913d 8b83 febd
000001f0: 63ec 033d 5df6 91bd 5e67 433e ed40 f03d
00000200: 1c3a 09be b318 ac3a 2a19 003e 95bd 1abe
00000210: 1df1 26be 7ff9 c63d 4d46 bcbd 5fc3 02be
00000220: 0b99 213e 6471 85bd 2b20 0e3e 183f 183e
00000230: a1d2 013e b5ff 22be b469 95bc 4d1d a73b
00000240: 87e7 f63d 2c97 37bc 014a 2dbe 185b 57bd
00000250: adc2 123e af93 86bd 944d c5bd 4430 c4bd
00000260: 561b 1d3e 3f50 2a3e 14c8 d2bd f085 33be
00000270: 2bd1 103e 6984 63bd a4c1 c83d 3e3c 8abb
00000280: 3ae1 36be f322 973d e989 a8bd 5750 ecbb
00000290: f699 9d3d d882 79bd 1a99 27be 06e9 e93d
000002a0: 4be1 c4bc 7f76 3a3e 593a 333e 127d d13c
000002b0: 1652 8cbd 5206 143e 45d6 c63d 27b8 c43d
000002c0: 9223 09be d5e3 4e3e 46b7 e33d 5b20 b53d
000002d0: 1ce3 f1bd 3b72 883d 3533 9abc 6b53 3f3d
000002e0: 20cb 0c3e 64bd 183e 050a 4a3e c850 b3bc
000002f0: 3ffd d8bd e2b2 1bbd f717 483e b84b 1c3e
00000300: b1e1 3a3e f87d 11be a718 183c 793b 073c
00000310: 0588 c0bd 5d6b 423e 8e7f 09be f2d2 c9bc
00000320: 8dd6 7dbd 5800 a2bd bed6 65bd d956 3abe
00000330: 87e4 b23d 2b38 d3bd 08e7 ebbd dd2e 28bd
00000340: a426 733d fbd1 3b3e b0fd 0a3d 9496 413e
00000350: f4ce 22bd cfc7 05be 123e e6bc c5ea 113e
00000360: d570 4c3d 1546 f7ba 5c7f 113e 6625 043e
00000370: 172b 4cbe d3dd 26bd 5a08 183e ad5c 32be
00000380: 0fbc f9bd b4b6 04be 36d5 f23d 03ef 043c
00000390: 55e6 3ebe 7d7b e6bd 19c1 4cbe e575 353e
000003a0: 5985 a63d 4442 2e3e c3a9 713d 2f69 4abe
000003b0: 4d98 70bd b0ae 44be 8039 36be dd3a 1bbe
000003c0: 67e8 8e3d 4fb2 fbbd 269e ddbc 7a26 f23d
000003d0: 50a7 043c 2c4c 3dbe 03b9 c1bd 443b e4bc
000003e0: 6e0b 8abd 29f9 7d3c 97ab 343e 29f5 273e
000003f0: 5813 0abd 036a b03d 92e0 403d 410d a03d
-0.0650228 0.15416603 -0.103587724 0.07119566 -0.08994025 0.16390862 0.053279974 -0.14730419
0.05088266 -0.15644301 -0.17828457 -0.00059368584 0.04052999 0.04140487 -0.109088525 0.10716613
0.18140636 -0.10398436 0.081699006 0.18523285 -0.03607742 0.10019668 0.10593125 -0.055379957
0.17303848 0.06965683 0.18007098 -0.040847495 -0.044510808 -0.16268802 -0.1005749 0.067914166
0.14671363 0.00028239653 0.16934231 -0.01787728 -0.048742607 -0.024822338 0.16221425 -0.057366088
0.11022779 0.100486055 -0.06474417 0.088689364 0.040260527 -0.13084933 0.13538164 -0.010591671
0.12567653 0.11060146 0.16859679 0.16098894 0.19420756 0.043888405 0.17139982 0.17673112
-0.18712696 0.019923981 0.1481603 0.16754992 -0.14606562 0.122787386 -0.12573428 -0.09591337
-0.11583084 -0.037015047 -0.12630539 -0.13838531 0.05431002 -0.18652928 -0.1304904 -0.12904535
-0.07727402 -0.19654325 -0.055332873 -0.01291839 0.16558528 0.09072606 0.07347561 -0.16302986
0.012785425 -0.06516802 -0.079968214 0.11702315 0.100989915 0.11398932 -0.008935577 -0.17908837
0.15479589 0.122929975 0.094364196 0.16255322 -0.13759947 -0.04830709 -0.044325504 0.04406993
0.061449047 0.14652723 -0.17377956 -0.0044828164 0.12689494 -0.1761435 -0.06656222 0.05260173
0.08409975 0.008741152 -0.010555375 0.046481837 0.082752384 -0.1590742 -0.19026555 0.1836252
-0.088185325 0.16602422 0.108572036 -0.08736049 -0.09442249 0.17165506 -0.013679398 -0.13120256
0.18171144 0.062432475 0.071260065 -0.124274336 0.032207858 -0.07127068 0.190824 0.117311336
-0.13401073 0.001312992 0.125096 -0.15111382 -0.16302915 0.09715556 -0.09193096 -0.1276984
0.15781038 -0.06515768 0.13879459 0.14867818 0.12678005 -0.15917857 -0.01823888 0.0050999285
0.12055879 -0.011205476 -0.16922761 -0.05257711 0.14332075 -0.06571137 -0.096339375 -0.095795184
0.15342459 0.16632174 -0.10292068 -0.17531562 0.14142291 -0.055546198 0.09802559 -0.004218607
-0.17859355 0.07379713 -0.08229429 -0.0072117257 0.07695381 -0.060915798 -0.16366997 0.11421399
-0.02403321 0.18209265 0.17502727 0.025572333 -0.06851594 0.14455536 0.097088374 0.09605437
-0.13392475 0.20204099 0.11118941 0.08844062 -0.11810896 0.06662413 -0.018823246 0.046710413
0.13749361 0.14915997 0.19730385 -0.021889105 -0.10595178 -0.038012393 0.19540392 0.1526326
0.18250157 -0.1420821 0.009283221 0.0082539255 -0.09400944 0.18986268 -0.13427565 -0.02463672
-0.06197219 -0.07910222 -0.056112997 -0.18197192 0.087349944 -0.103134476 -0.11518675 -0.041060317
0.059363022 0.1834182 0.03393334 0.18905097 -0.039748147 -0.13064502 -0.02810577 0.14249714
0.049912293 -0.001886549 0.1420874 0.12904891 -0.19938312 -0.04073889 0.14846936 -0.17418166
-0.121940725 -0.1296032 0.11857073 0.008113625 -0.18642552 -0.11254022 -0.19995536 0.17720754
0.08130903 0.17017466 0.058999788 -0.19766687 -0.058738995 -0.19207263 -0.17795372 -0.15159173
0.06977921 -0.12289869 -0.02705295 0.11823745 0.008096531 -0.18486089 -0.09459116 -0.027860291
-0.06740461 0.015501299 0.17643581 0.16402115 -0.033709854 0.0861397 0.047089167 0.07815028

conv_1.bias f4 [16]
00000000: 7e20 e3bd e768 16be 7155 8e3d 27f5 9c3d
00000010: 7ea2 283e c15c 12be dfd8 993d a036 623c
00000020: 716c d9bd ce5b c9bd a3fa 383e 0787 98bd
00000030: 57e2 9cbd 7898 9bbc 83f0 aabd 9038 b8bd
-0.11090182 -0.14688455 0.069498904 0.076639466 0.16468236 -0.14293195 0.07512068 0.013806969
-0.10616387 -0.098319635 0.1806436 -0.074476294 -0.076603584 -0.018993601 -0.08346655 -0.089951634

conv_2.weight f4 [32, 16, 3, 3]
00000000: c309 813d d959 4dbc 2a31 f3bc 6924 493d
00000010: 4aa2 153d 9393 b7bd d9d4 1b3b c05a babc
00000020: 9be1 09bd 30c4 f33a 6fd7 953c e4f3 063d
00000030: 8151 16bc 1f52 3abd fb38 4bbd 7944 59bd
00000040: 5dcb 003c 7d84 c1bb 49ca 263c de67 883b
00000050: f212 efbc 0a3a 783d 396a 0cbd 4869 b83c
00000060: c94e a13d c4e1 81bd 39cd a33d ce2e 0ebd
00000070: 4d87 95bd cbe0 8bbd 440c 91bc 44c9 033d
00000080: a2fb aa3c 5255 1b3d 3251 89bc 0a55 1f3d
00000090: 8f69 ad3d 09a7 803c 8eac 53bc 5504 353d
000000a0: 9a62 c63b fd0b 943d 6aeb f23c da21 463d
000000b0: a92c 7e3c 56a1 90bd c705 f93c 189b af3d
000000c0: 2de3 fabc d15e 8e39 958e 68bd cf17 f3bc
000000d0: fdcc 2e3d 1c7b f6bc a7c6 a0bd 63fe e3bc
000000e0: 12da 383d 89ad 72bd d686 f43c 6a25 54bd
000000f0: 15aa 49bd 8c8f 9e3d 471c 903b 343e 0bbc
00000100: b8a1 a7bd de37 8bbd 0298 7d3d ab41 1b3b
00000110: fd2d 39bd a03e 67bd bee1 a0bd 9728 a93d
00000120: 2114 3ebd b670 893c 10e4 6a3d b756 113d
00000130: 718f c23c 07f6 57bb 5721 8e3b 20d9 3e3c
00000140: feda 943d a811 903d 89f8 9e3d d98e 0ebc
00000150: 6b60 863d 30e1 85bd 9201 e13c 2721 f63c
00000160: 25f2 0ebd b4b4 473b f2f6 28bc 1051 5f3d
00000170: 58b7 98bd 9014 933c b898 373d 2753 95bd
00000180: fe9c f83c 95ee 8bbd b0a1 5dbd 180f 93bd
00000190: 78ea 6cbd 63c5 773d a953 0bbc 5885 8a3d
000001a0: 8d14 72bc 26d3 03bd e62e 5ebd bb69 343a
000001b0: 95ab 953d 1ec2 52bd edfa 3c3c 2611 04bd
000001c0: 9279 843d cca8 2c3c f2d1 8ebd 701f 0dbd
000001d0: 7552 97bc d0ec 4e3d bc9d 31bd 1b68 2b3d
000001e0: 028d cebc 4135 313d f6c3 67bd 92db a3ba
000001f0: 6e71 b7bc 2fc0 f0bb 9e5f 10bd 6959 8a3c
00000200: b76f a13d d9e9 b53d fd4f b23d 8748 cd3c
00000210: 9a9f 383d ee2d 93bd f260 aa3d 7ede 9bbd
00000220: 9c44 32bd 7792 c0bc 057d edbb d82c b23d
00000230: 9e55 d2bb 7069 b7bc 4c4a 893a 1e36 3d3d
00000240: 292e 16bd 2a5f 45bd 57db 63bc d368 d2bc
00000250: 66a4 a2bd 5a55 833d fd7c b0bd 8f40 853d
00000260: 5339 8fbd 3791 85bd 035c 1d3d 4ef9 89bd
00000270: 9894 c7bc 3cb4 0c3d 1e4f 6fbd 79fb 5bbd
00000280: 7f47 a2bd f77d 1f3d 89e5 49bd 5406 9ebd
00000290: f9ef 1bbd cf34 203b 90ff 25bd adf0 4a3d
000002a0: 308f c939 179b 8abd 7ea4 dcbc d8ac 3b3d
000002b0: 98cd a03d cb50 523d bf0f 603d 7fd8 a13c
000002c0: ca88 9b3d 7e41 1d3d c389 7cbd 56e2 a23d
000002d0: 0261 99bc 0c8d 9f3d c0ab 803d 309c ecbb
000002e0: a9d8 b73d 1235 5a3d e1bb a83c 80ce fb3c
000002f0: 2692 8c3d ae46 1bbd 1028 803d 70c0 2d3c
00000300: 1c80 87bd 0779 67bd ed20 54bd 7235 7fbd
00000310: 7a65 27bd 076b 593d 0ec7 843d f31e a73d
00000320: 7bd2 83bc 8063 c5bc 217b 7dbd b680 113d
00000330: 94fa 4fbd 5eb5 f73c 4606 bbbc 1176 97bd
00000340: 430d 813d 72ff 51bd 2e82 23bd 4ccf 2a3c
00000350: e574 d53c cfd6 4cbd 6b70 85bd 0f03 be3c
00000360: 98db 123d 7ccb 84bd bf69 a63d 63b8 923d
00000370: e472 263c 7e24 e3bc 187e 3abc f4ea 4f3d
00000380: 1297 68bd cbbc 62bb 0b01 aa3d a734 663a
00000390: 7dbe ab3d e104 933d 4dc8 813d e36a 64bd
000003a0: 3e1f 8ebc 618a 993d 1af1 9f3a e554 883d
000003b0: 69ba cabc fdf7 003d eca4 71bc 21db a23d
000003c0: fc80 cdbc ce02 6b3c eb97 503d 9f1c a73d
000003d0: c768 7a3d cee2 0e3d 1b1d 44bd cf8e 40bd
000003e0: c1aa 393d b512 a43c adb0 33bd 41c7 a3bc
000003f0: d752 213c d305 fb3b 8e8c 6ebd 1a5a 8b3d
0.0630069 -0.012533628 -0.02968653 0.04910699 0.036531724 -0.089636944 0.002377799 -0.022748351
-0.03366242 0.0018597897 0.018291203 0.032947436 -0.0091747055 -0.045488473 -0.049614888 -0.053043816
0.007860986 -0.0059056864 0.0101800645 0.0041627726 -0.029183839 0.060602225 -0.03428099 0.02251114
0.07876355 -0.063418895 0.079981275 -0.034712605 -0.07301197 -0.06829985 -0.017706044 0.032174364
0.020871941 0.037923165 -0.01676235 0.03889946 0.08467399 0.015704649 -0.012919558 0.044193584
0.0060542347 0.07228849 0.02965327 0.048372127 0.0155135775 -0.070620224 0.030398263 0.08574504
-0.030625904 0.00027154994 -0.0567766 -0.029674439 0.04267596 -0.030088 -0.0785039 -0.027831262
0.045129843 -0.059247527 0.029849451 -0.051793493 -0.04923447 0.07742223 0.004397902 -0.008498717
-0.08185142 -0.06797765 0.061912544 0.0023690264 -0.045209873 -0.05645621 -0.07855557 0.08259695
-0.046405915 0.016777378 0.057346404 0.03548309 0.023750039 -0.003295304 0.0043374705 0.011648446
0.07268332 0.07034618 0.07762248 -0.00870105 0.06561359 -0.06537092 0.02746657 0.030045105
-0.034898896 0.0030472698 -0.010312783 0.054520667 -0.07456845 0.01795414 0.04482338 -0.07291251
0.030348297 -0.06832615 -0.054109275 -0.07180613 -0.057840794 0.060490977 -0.008503833 0.067637146
-0.0147754075 -0.03218379 -0.054243945 0.000688221 0.07308117 -0.051454656 0.011534435 -0.032242917
0.064685 0.010538291 -0.06973638 -0.03445381 -0.018471936 0.05051881 -0.043363318 0.04184733
-0.025213722 0.043263678 -0.056583367 -0.001250135 -0.022392955 -0.007347129 -0.035247438 0.016888337
0.07882636 0.088824935 0.08706663 0.025058998 0.045074083 -0.07186495 0.08319272 -0.076107964
-0.043522462 -0.02350734 -0.0072475695 0.086999595 -0.006418898 -0.022389144 0.0010474413 0.04619419
-0.036665116 -0.04818646 -0.013907275 -0.02568475 -0.07941513 0.06412764 -0.086175896 0.06506454
-0.069933556 -0.06521838 0.038417827 -0.06737004 -0.024362847 0.034351572 -0.05842506 -0.05370662
-0.07923793 0.03893849 -0.049291167 -0.07716051 -0.038070653 0.002444554 -0.040526927 0.049545933
0.0003844439 -0.06767862 -0.026933905 0.045819134 0.07851714 0.05134658 0.054702517 0.019756554
0.0759445 0.038392536 -0.061654817 0.079533264 -0.018723015 0.077905744 0.06282759 -0.0072207674
0.089768715 0.053273268 0.0205974 0.030738115 0.06863813 -0.037909202 0.06257641 0.010604963
-0.06616232 -0.056511905 -0.051789213 -0.06230683 -0.04086826 0.053080585 0.06483279 0.081602
-0.016091576 -0.024095297 -0.061885003 0.03552314 -0.05077608 0.03023785 -0.02283014 -0.07395566
0.063013576 -0.051269002 -0.03991907 0.0104254 0.026056716 -0.050009545 -0.06515583 0.023194818
0.035853952 -0.06484124 0.08125638 0.07164075 0.010159228 -0.027727362 -0.011382602 0.050761178
-0.056784697 -0.0034597393 0.0830098 0.00087816495 0.08385942 0.07178665 0.063370325 -0.055765998
-0.017348882 0.07497097 0.0012202591 0.06656817 -0.02474709 0.0314865 -0.014748793 0.07951952
-0.025085919 0.01434393 0.05092613 0.08159756 0.06113508 0.034884267 -0.04787932 -0.047011193
0.04532886 0.020028451 -0.043869663 -0.019992473 0.009846411 0.0076606064 -0.058239512 0.06804295

conv_2.bias f4 [32]
00000000: 763e 503c 3c1e a93d b54d 9f3d 499f 97bd
00000010: 1c0a 893d 118c 693c 3511 af3d 7e18 483c
00000020: 6cda 34bd 682a 7f3d 1a72 87bd dac3 8fbd
00000030: 936d b3bc fc15 8bbd 397a 073b 1801 873d
00000040: d0f5 f63c 5a85 263c 45bb 5b3c a9eb 753d
00000050: 0e52 18bd e709 fd3c 3391 3abd bd45 663c
00000060: cd0e f0bc 4d69 39bd bd71 9abc c628 b1bc
00000070: b2ca 73bd 0fee b23d 5199 07bd 4424 563d
0.012710204 0.0825772 0.07778493 -0.07403428 0.06691381 0.014254586 0.08548204 0.012212871
-0.044153616 0.0622963 -0.0661356 -0.070197776 -0.021902835 -0.067913026 0.0020672216 0.065920055
0.03014651 0.010163629 0.013411348 0.060039196 -0.03718763 0.03088851 -0.04554863 0.014054713
-0.029303933 -0.04526644 -0.018853063 -0.021625888 -0.059519477 0.08736812 -0.0331052 0.05228068

fully_connect1.weight f4 [10, 5408]
00000000: 85d5 dd3b 5a13 3dbc 69e1 6c3c c498 8c3c
00000010: b09f b73c 5d25 9b3b e2fa 913c e5fa 033c
00000020: ba7c 613c d089 ee3a 223b 823c 996e 9e3c
00000030: c8a6 03bc 2936 0dbc 947e 553b 6df3 90bc
00000040: 432b 74bb 79f4 4a3b 8cbf 953c 2412 433b
00000050: ba6d 1bbb 3d8a b93c 5a0b 16b7 cb8e cf3b
00000060: 7a6a 0c3b 17e5 f9ba 68db 523c a686 223c
00000070: ef26 313b adc3 99bc df32 e1bb 04e3 e93b
00000080: 4848 9c3b ea3a 8a3b 4073 4b3c fb2b 30bc
00000090: 6151 363c ebdb 713b e915 963b a9db 333c
000000a0: 5bed 65bc f041 c4bb 4039 553b 2928 26bc
000000b0: 00f6 603c 2366 d0bb a393 3c3b d402 693b
000000c0: 9783 55bb 24e7 62bc 1a43 6e3b 8e54 30bc
000000d0: 3b93 88bc e5b9 8e3b 574e 6dba 897b 503b
000000e0: 444e 9a3c 3f3b 4fbc eaf4 2dbb e7fb 27bc
000000f0: 3c78 383c d399 38bc 3e9a 4abc 0ef1 be3b
00000100: 9e28 513c cca4 0fbb 5ac0 5bbc 0d8f e1bb
00000110: 795e 823c 80b1 dfba d1a6 adbc a4f2 adbc
00000120: 7f98 d13b 1879 463c 7552 fc3b 578c 253b
00000130: 3478 153b e2b7 d7bc 4998 0bbb 8ea5 96bc
00000140: 0cab 5ebc 22ac 953a b72b 0a3c d8fe 33bc
00000150: 4b40 02bc 09b1 563c ba96 8ebc 4281 6e3c
00000160: 411f 8dbc caeb 8cbc 8321 98bc 0d9d 2c3c
00000170: af62 67bc c833 41ba 1229 f1bb ff4f 93bb
00000180: db40 8739 7542 24bb 9e4d 74ba da15 303c
00000190: fef3 bf3b f0f5 453c bad7 af3b 17b7 16bb
000001a0: bc90 2e3b 688e a0bc 6b3f 023c 6296 02bc
000001b0: f7f4 d9bb abc4 3bbb c183 62bc d147 e3bb
000001c0: 3ef2 2a3b 8751 02bc 2f4c 573b 6851 25bc
000001d0: 6dde c9ba 5729 87bc e644 493b 0f4c 14bc
000001e0: f8f3 6ebc 9ca7 8abc fcdc 3d3c 46c5 bfbb
000001f0: b3ba 62bb fa4e b0bb e7f1 55bb 424b 103b
00000200: a171 623c 6372 ec3b 2586 b3bb 30e6 b63b
00000210: 2623 0a3c 8400 3d3c 81c3 9ebc 98c0 2abb
00000220: 4b40 d0bb 6d8f c8bc c992 743a 00a9 f03a
00000230: 76b5 a1bb 5173 d938 1d9a 0ebc 95f5 1dbc
00000240: 93e6 5dbc d6af e53b 0baf 15bc 55fc a23c
00000250: c318 b6bb 2957 2fbc 43a3 71bc 7be0 a7bc
00000260: 7f80 c7bb 1fa9 f939 8996 943b a94b 053c
00000270: 6be3 b9bb 0c8c dcb9 c109 f6bb 6d3c 20bb
00000280: b777 0a3b 0594 45bb 041b 3abc 48fd 0c3c
00000290: edff 90bc 5304 21bb 382e fb3b 6106 463c
000002a0: abf2 7a3a f023 e23b f888 79bb 930f d33b
000002b0: c38a af3b 7b67 2a3c e1a3 213c 60e2 073c
000002c0: 1dbe d93b 6a2d 17bb 289d 163c dcb7 a7ba
000002d0: a025 5b3c 8c55 abbb 553d 103c fe34 2dbc
000002e0: dbcf 443c 813c ddbb a443 f13b 2342 a13b
000002f0: 7232 003b b3b5 873c 05be d23b c21d 743a
00000300: 0c3b a43a 2bef 5c3c 0621 7a3c df05 653c
00000310: 3d47 0aba a9bf 2abc e84b 82bb 13f9 febb
00000320: 19ac 633c 550d 9d3c 1161 fc3b c473 7d3c
00000330: f244 cd3b 64b3 e63a 659d 30b9 4599 e7bb
00000340: da85 9e3b 08a8 0cbc 3348 1aba a38b 763c
00000350: a82e 083c 6171 203b 233b 703c f3f4 89bb
00000360: ff6f 713b 54c8 b83c 3662 26bb 76c0 113c
00000370: 92b7 e8bb d807 dcbb c6af 77bc 45d5 19bc
00000380: 5c44 083c 9c32 8b3c 3ccb b4bb 1349 9b3b
00000390: e3fc 64bc b53b eb3b 5a2b a13b 4ea9 663c
000003a0: 558d 90bb d3c2 d63a f55e 213c cb72 e53a
000003b0: aeea b5bb 11be b63b 676e 1f3c 8bcc 22bb
000003c0: eadc 9dbc 0bd5 19bc b6eb a03b c2fa fe3b
000003d0: 9f7c 013c 48f6 843b bed0 ddbb b085 b53a
000003e0: 1071 0f3c 287a 9dbb 9d10 81bb 1c95 5f3b
000003f0: d615 203c 5a65 46bc 3660 7dba eff5 bbbb
0.0067698383 -0.011540258 0.014458039 0.017162688 0.022415012 0.0047346787 0.017819826 0.008055423
0.013762647 0.001819903 0.015897337 0.019339846 -0.008035369 -0.00861887 0.0032576667 -0.0176942
-0.0037257231 0.003096847 0.018279813 0.0029765451 -0.0023716525 0.022648925 -8.94334e-06 0.006334161
0.002142577 -0.0019065466 0.012869693 0.009919798 0.0027031263 -0.018770063 -0.0068725194 0.007137658
0.004769359 0.004218449 0.012417614 -0.010752673 0.011127801 0.0036904763 0.0045802486 0.010977664
-0.014033641 -0.0059893057 0.0032535344 -0.010141411 0.013730526 -0.006359832 0.0028774522 0.0035554664
-0.0032579654 -0.0138490535 0.0036355914 -0.010762347 -0.016671767 0.0043556564 -0.0009052506 0.0031811914
0.018836148 -0.012648403 -0.0026543685 -0.010252929 0.011259135 -0.011267143 -0.012365876 0.005827076
0.012766032 -0.0021918295 -0.013412559 -0.006883508 0.015914189 -0.0017066449 -0.021197708 -0.021233864
0.006396353 0.012113832 0.0077002593 0.002526065 0.0022807242 -0.0263328 -0.0021300486 -0.01838949
-0.013590585 0.0011419097 0.008433274 -0.010986052 -0.007949899 0.013103732 -0.017405856 0.014557185
-0.017226817 -0.017202277 -0.018570667 0.010535491 -0.014122649 -0.0007370082 -0.0073596323 -0.0044956203
0.00025797528 -0.0025064026 -0.0009319427 0.010747397 0.0058579436 0.012082562 0.005366293 -0.0022997314
0.0026636561 -0.019599155 0.00794969 -0.007970424 -0.0066515165 -0.0028651159 -0.013825358 -0.0069360514
0.002608433 -0.007954008 0.0032851805 -0.01009021 -0.0015401371 -0.016499205 0.0030711233 -0.009051337
-0.014584534 -0.016925626 0.011588331 -0.0058523742 -0.0034596145 -0.0053805085 -0.0032645406 0.0022017513
0.013821037 0.0072157844 -0.0054786378 0.0055816397 0.008431232 0.0115357675 -0.019380333 -0.0026054736
-0.0063553206 -0.024482453 0.0009329734 0.0018360913 -0.004934962 0.00010368846 -0.008703736 -0.009641071
-0.013543743 0.0070094867 -0.009135972 0.019895712 -0.005557151 -0.010701933 -0.014748397 -0.020492783
-0.006088316 0.00047618986 0.0045345468 0.008135715 -0.0056728623 -0.00042066013 -0.007508487 -0.002445008
0.0021128485 -0.003014804 -0.01135898 0.008605309 -0.01770016 -0.0024569228 0.007665422 0.012086482
0.00095729035 0.0069012567 -0.0038076025 0.0064410656 0.005357118 0.010400648 0.009865732 0.008293718
0.0066449777 -0.002306784 0.009192742 -0.0012795883 0.01337567 -0.005228704 0.008803685 -0.010571716
0.012012447 -0.0067515974 0.0073627997 0.004921214 0.0019561318 0.016566133 0.0064313435 0.00093122956
0.0012529804 0.013484756 0.015266662 0.013978451 -0.00052748976 -0.010421672 -0.003976334 -0.007781157
0.013896012 0.019171396 0.007702001 0.015469495 0.0062643224 0.001760107 -0.00016843302 -0.0070678317
0.0048377337 -0.008584984 -0.00058853923 0.01504794 0.008311905 0.0024481642 0.014662537 -0.0042101084
0.0036840437 0.022556461 -0.0025388128 0.008895984 -0.0071019614 -0.0067148022 -0.015117591 -0.009389226
0.008317079 0.016991906 -0.0055173915 0.0047389357 -0.0139763085 0.0071787485 0.004918498 0.014078451
-0.0044113793 0.0016384966 0.0098493 0.0017505524 -0.0055516576 0.005576857 0.009730912 -0.0024841155
-0.01927038 -0.009389172 0.0049109114 0.0077813575 0.007903247 0.0040576793 -0.006769269 0.0013849046
0.008754984 -0.004805822 -0.003938748 0.0034115976 0.009770831 -0.012109125 -0.00096655206 -0.0057361047

fully_connect1.bias f4 [10]
00000000: 1801 1d3c 047b ef3a 2abb 1dbc 570f fb3a
00000010: 88f0 c039 05e8 763c 6840 2d3c 03c3 4fbb
00000020: 1145 91bb f39a 193c
0.00958278 0.0018270914 -0.009627143 0.0019154352 0.00036800303 0.015069966 0.010574438 -0.003170193
-0.004433282 0.009375322

fully_connect2.weight f4 [1, 10]
00000000: 63f7 a33e d92c 64be ed20 71be 8171 21be
00000010: d1cc 1d3e e45f 8cbe fa74 1abe e633 8fbd
00000020: 2bc1 a3bd c437 483d
0.3202468 -0.22282733 -0.23547716 -0.15765955 0.15410163 -0.2741691 -0.15083686 -0.06992321
-0.07995828 0.048881307
