bs48_lr0.01_weight.pt (torch, 240196 bytes, 7 tensors)

conv_1.weight f4 [16, 3, 3, 3]
-0.11653332 0.030188806 -0.14769605 0.10027584 0.11172235 0.023812542 0.050831027 -0.16564214
-0.023140632 -0.20686132 0.012591833 0.046248674 -0.18338396 -0.1755834 -0.026324647 -0.09516688
0.17192562 -0.0530071 -0.124213316 0.063735075 -0.14932074 -0.020865023 -0.10829431 0.1823875
0.14834663 -0.026741434 -0.1119989 -0.23184569 0.078125015 0.012033728 0.062024537 0.11165981
-0.21579455 -0.24727559 0.104632206 0.09737019 -0.012264565 -0.06295432 0.103292294 0.10439614
-0.10775846 -0.17538382 -0.06778429 -0.14162329 0.021005841 0.06434848 -0.043700334 -0.17330743
-0.10644281 -0.064567976 0.023240732 -0.14640746 -0.14446667 -0.21268524 0.15603958 0.019634547
-0.18620996 -0.012301551 -0.0358102 -0.069223985 -0.16550806 0.17778866 -0.16049229 -0.09929639
0.15044843 0.13956028 0.03794432 0.12860912 -0.024963513 -0.07195728 -0.083627924 -0.00064401247
0.08830821 0.019833889 0.2151276 -0.039319634 0.049597777 0.08511901 0.090872884 0.10278136
0.11142782 -0.22493844 -0.21013717 0.08516686 -0.1618108 -0.020184914 0.045665983 0.1972224
0.17601465 -0.08403572 -0.15214281 -0.18551266 0.0420194 0.109595776 0.06753648 -0.15326768
0.08960863 0.11843789 -0.1833135 -0.19033442 0.12140721 -0.15419026 -0.107184626 0.13924475
0.07479717 -0.09720159 -0.18979715 -0.20946288 -0.13772507 -0.011783129 0.06181721 0.2194118
0.02750451 -0.053539187 0.0042114765 0.15151319 -0.07858049 -0.105742365 0.007151652 -0.11446926
-0.11532342 -0.05010388 0.0650607 0.016990973 0.15465455 0.16189846 0.059104253 -0.17821276
-0.17996779 -0.16941729 -0.17266092 0.16382995 0.21919437 0.018404601 0.07360756 -0.02783177
-0.029144425 -0.08774227 0.037676156 0.19404224 0.0972284 0.100381285 -0.07094061 0.0922009
0.06831722 -0.11461112 -0.0058544786 0.042400286 0.041278996 -0.09747273 0.1774498 0.02501742
-0.15679863 -0.036464166 0.17830925 0.061211422 0.0524619 -0.0008602621 -0.17140178 -0.15704566
-0.117450446 -0.020205893 -0.010564368 0.118197165 0.18986508 0.04098183 -0.11554059 -0.06981183
-0.042701423 0.119717225 -0.18490659 -0.10961373 0.1347234 0.1787997 0.04555555 0.075468585
0.07292485 0.15544216 0.14148341 -0.1842967 -0.1015632 -0.007460603 -0.10503123 0.001900875
0.12414195 -0.008413124 -0.12684953 -0.16256885 0.03660835 0.0008947738 0.04605177 0.018561801
-0.06553447 0.08306137 -0.00065787625 -0.010055596 -0.054162174 -0.08798477 0.027777134 0.1778917
-0.09267313 0.13503857 -0.057305284 0.16461745 -0.03571364 0.11461784 0.11196179 0.010403833
0.11590283 0.094751224 -0.06250845 0.14868924 -0.11210265 0.070464924 0.15103193 0.17273366
0.07285853 0.111067645 -0.11872329 -0.03819679 0.031227939 0.12841274 -0.093373284 0.17688273
-0.00068520446 -0.009891589 0.07661917 0.120839365 0.0034647388 -0.09147088 0.12281645 0.05931397
0.04905912 0.16494481 0.25455922 0.036491532 -0.08820982 0.12871894 0.11626999 0.04581632
0.26979935 0.14809562 0.06320406 -0.13241628 0.17998946 -0.058521025 0.1623787 0.062225822
0.056038264 -0.10282652 0.072760954 -0.07209005 -0.09623106 0.12477752 0.07289462 0.1629067
00000000: 05a9 eebd 844e f73c a23d 17be 6b5d cd3d
00000010: b0ce e43d 8512 c33c 3234 503d 189e 29be
00000020: 6c91 bdbc 74d3 53be fa4d 4e3c 406f 3d3d
00000030: 01c9 3bbe 23cc 33be c9a6 d7bc dae6 c2bd
00000040: 450d 303e f91d 59bd 8d63 febd 8987 823d
00000050: 89e7 18be 20ed aabc 68c9 ddbd cac3 3a3e
00000060: 2ee8 173e da10 dbbc ae5f e5bd f568 6dbe
00000070: 0200 a03d 1d29 453c 710d 7e3d e6ad e43d
00000080: 3ff9 5cbe d035 7dbe 6949 d63d 066a c73d
00000090: 50f1 48bc 32ee 80bd e98a d33d a5cd d53d
000000a0: 78b0 dcbd d197 33be 7dd2 8abd b205 11be
000000b0: 7114 ac3c 23c9 833d 1fff 32bd 8177 31be
000000c0: b0fe d9bd 373c 84bd 5963 be3c d6eb 15be
000000d0: 12ef 13be 29ca 59be d7c8 1f3e a1d8 a03c
000000e0: d3ad 3ebe 728c 49bc b7ad 12bd 4ec5 8dbd
000000f0: f27a 29be 3b0e 363e 1758 24be e85b cbbd
00000100: 270f 1a3e e4e8 0e3e 816b 1b3d 1cb2 033e
00000110: 4880 ccbc 575e 93bd 1e45 abbd f2d2 28ba
00000120: efda b43d ae7a a23c 694a 5c3e a00d 21bd
00000130: 0a27 4b3d e052 ae3d 901b ba3d 097f d23d
00000140: 4534 e43d 4356 66be 332e 57be f66b ae3d
00000150: bbb1 25be d55a a5bc 410c 3b3d abf4 493e
00000160: 2f3d 343e eb1a acbd 53cb 1bbe 08f7 3dbe
00000170: 891c 2c3d c073 e03d 9150 8a3d 34f2 1cbe
00000180: bb84 b73d 918f f23d 89b6 3bbe 07e7 42be
00000190: 58a4 f83d 0de4 1dbe 9d83 dbbd 2d96 0e3e
000001a0: 422f 993d a111 c7bd 2f5a 42be 707d 56be
000001b0: cd07 0dbe 060e 41bc 0b34 7d3d 7dad 603e
000001c0: 2351 e13c e84b 5bbd 6d00 8a3b 4626 1b3e
000001d0: cfee a0bd 748f d8bd 6858 ea3b dc6e eabd
000001e0: af2e ecbd ba39 4dbd 8b3e 853d a730 8b3c
000001f0: c35d 1e3e b6c8 253e 4d17 723d 687d 36be
00000200: 7a49 38be ba7b 2dbe 06ce 30be 0ac3 273e
00000210: 7d74 603e 3fc5 963c 8fbf 963d 74ff e3bc
00000220: 4ac0 eebc 38b2 b3bd 5052 1a3d 02b3 463e
00000230: af1f c73d b494 cd3d 4f49 91bd d3d3 bc3d
00000240: e6e9 8b3d 3cb9 eabd edd6 bfbb ecab 2d3d
00000250: 2a14 293d c89f c7bd 66b5 353e 55f1 cc3c
00000260: d28f 20be 735b 15bd b396 363e d4b8 7a3d
00000270: 4ae2 563d 3683 61ba f383 2fbe 94d0 20be
00000280: dc89 f0bd d486 a5bc 2c16 2dbc 5b11 f23d
00000290: fe6b 423e 90dc 273d 8ba0 ecbd 81f9 8ebd
000002a0: b0e7 2ebd 4e2e f53d 2758 3dbe 2a7d e0bd
000002b0: eef4 093e 4517 373e 7598 3a3d 468f 9a3d
000002c0: a059 953d 3b2c 1f3e 07e1 103e 46b8 3cbe
000002d0: 5e00 d0bd 1378 f4bb 9d1a d7bd c826 f93a
000002e0: 223e fe3d 33d7 09bc d8e4 01be 7378 26be
000002f0: a3f2 153d 418f 6a3a c8a0 3c3d eb0e 983c
00000300: f036 86bd 141c aa3d 5475 2cba 3ac0 24bc
00000310: 28d9 5dbd 5c31 b4bd df8c e33c 3e29 363e
00000320: 69cb bdbd 8d47 0a3e f2b8 6abd 7a91 283e
00000330: 7748 12bd c2bc ea3d 394c e53d d774 2a3c
00000340: 775e ed3d ee0c c23d 6e04 80bd fe41 183e
00000350: 1396 e5bd ea4f 903d 1da8 1a3e 18e1 303e
00000360: da36 953d 6f77 e33d 3225 f3bd 3d74 1cbd
00000370: bcd1 ff3c a17e 033e 7e3a bfbd bf20 353e
00000380: 4b9f 33ba 5510 22bc 83ea 9c3d a17a f73d
00000390: ac10 633b 1655 bbbd 3187 fb3d 35f3 723d
000003a0: 37f2 483d 4be7 283e 9655 823e 2578 153d
000003b0: 5aa7 b4bd e6ce 033e f61e ee3d e5a9 3b3d
000003c0: 2423 8a3e 61a6 173e 2171 813d 2298 07be
000003d0: 284f 383e beb3 6fbd 9a46 263e 81e0 7e3d
000003e0: 6188 653d b696 d2bd b203 953d f3a3 93bd
000003f0: ca14 c5bd 5b8b ff3d c649 953d 04d1 263e

conv_1.bias f4 [16]
-0.21095553 0.108775705 -0.12363323 -0.09202978 -0.087159455 -0.02765914 0.07826623 -0.21549995
0.15491232 -0.09538065 0.037858237 -0.19799261 -0.26771054 -0.08777616 -0.09992098 -0.012266695
00000000: ba04 58be ccc5 de3d 6b33 fdbd 1c7a bcbd
00000010: a880 b2bd 6c95 e2bc 0c4a a03d 05ac 5cbe
00000020: 56a1 1e3e ee56 c3bd 3d11 1b3d 93be 4abe
00000030: 5b11 89be fdc3 b3bd 5fa3 ccbd 3ffa 48bc

conv_2.weight f4 [32, 16, 3, 3]
-0.114969805 -0.09457375 -0.00154993 -0.10455988 -0.010523852 0.017924586 0.06388374 0.12677018
-0.060949396 -0.017323405 0.021079706 0.04105398 -0.111591876 -0.0560083 -0.03594675 -0.008344135
0.042305395 -0.08543339 -0.020611254 0.09934443 0.11643852 -0.0044331527 -0.077155896 -0.006191897
0.0058177 -0.07792723 0.14103284 -0.015209292 -0.08931473 -0.07861943 -0.03337138 -0.019562928
-0.031778023 -0.064543605 -0.076004416 0.022243056 -0.041650243 -0.14465559 -0.033919036 -0.16195165
-0.09472638 -0.07761851 -0.033802252 -0.029804654 -0.10194701 -0.032074627 -0.052197136 9.69437e-05
-0.087780744 -0.114076525 -0.09812134 -0.13461028 -0.09409426 -0.0702185 -0.001185671 -0.114894375
-0.022449842 -0.030597826 -0.074551634 -0.013748424 -0.018481482 -0.15191358 -0.06596852 -0.035182256
-0.08283154 -0.040530916 -0.12471163 -0.112319686 -0.113218315 -0.024716659 -0.14974333 -0.062235568
0.017488627 -0.066437595 -0.063820064 -0.07998119 -0.03375819 -0.084333174 -0.017645774 -0.06948838
-0.015054057 -0.08498955 -0.046339188 -0.074723996 0.003809418 0.002605129 -0.10444952 -0.052281693
0.00865088 -0.031577002 -0.018432908 0.01247035 -0.009236064 0.083591096 -0.009876848 -0.029803181
0.007092062 -0.003041422 0.10666202 -0.09418222 -0.112867065 0.004053391 -0.1432827 0.011029168
0.072623976 -0.08472762 -0.032184176 -0.06814871 -0.0002447607 0.0034813643 0.03099498 -0.013538563
-0.06555975 -0.043919533 -0.0070411474 0.07824328 -0.065294534 -0.06694114 -0.07396004 0.008120684
-0.034690857 0.006621287 0.045803305 -0.09717786 -0.060192708 0.08017991 -0.011455505 -0.026104439
-0.056771155 0.026196983 -0.00817827 -0.030819386 0.01571549 -0.063212454 -0.11138644 0.05460918
0.0006393145 -0.07593755 0.029273923 -0.0021515014 0.029119018 0.002445449 0.0072665163 -0.04535728
0.0002230999 -0.108395666 -0.06221998 -0.06285719 -0.08541356 0.01803953 -0.026621174 -0.06270647
-0.06917234 -0.14351429 0.01603052 -0.06799128 -0.021308001 0.011341199 -0.008588266 -0.07835254
-0.03471198 0.014727429 0.013613578 -0.093489036 0.020840704 -0.12990206 -0.0058167437 0.02478184
-0.16024026 -0.12875518 0.043508675 -0.04208706 0.03463604 -0.018677711 -0.0783021 0.03492038
-0.037234824 0.041199047 -0.10661626 0.009780634 -0.10997132 -0.08866904 -0.097554706 -0.09709847
-0.06942195 -0.10828656 0.0047502248 -0.050924055 0.0022725756 -0.028808707 0.00768205 0.04222354
-0.088753946 -0.10455046 0.015143379 -0.069109514 -0.07517439 0.0126048885 -0.060660105 -0.006401164
-0.011905047 0.02438651 -0.09821369 -0.0022022866 -0.041447394 0.005086791 -0.0038851928 -0.01639881
-0.06467836 -0.006968486 0.006531617 -0.0072334297 -0.12171506 -0.03053447 -0.07294682 0.040075697
-0.116345346 -0.116138324 -0.08827492 -0.0121973725 -0.11489806 -0.06191267 -0.08991173 -0.061906
-0.072232194 0.042482145 -0.0002452882 -0.059751336 -0.016613217 -0.07917429 -0.106171496 -0.022737317
0.023968143 0.03723398 -0.13983989 0.00057669915 0.036976114 -0.1383634 -0.107695974 -0.04323933
-0.09961521 -0.035844672 -0.058556568 -0.11485284 -0.0778943 -0.07447375 -0.026741568 -0.042390388
0.00097323215 -0.049600244 -0.07472547 -0.113739625 -0.01663799 -0.080440596 -0.030375235 -0.024282258
00000000: 4a75 ebbd e2af c1bd 0527 cbba 7e23 d6bd
00000010: 3c6c 2cbc 95d6 923c 7ad5 823d 0bd0 013e
00000020: 13a6 79bd d0e9 8dbc 59af ac3c 3828 283d
00000030: 488a e4bd f668 65bd e63c 13bd d7b5 08bc
00000040: 6c48 2d3d b4f7 aebd efd8 a8bc 1875 cb3d
00000050: 5277 ee3d fb43 91bb e903 9ebd 66e5 cabb
00000060: 68a2 be3b 5098 9fbd ea6a 103e 6530 79bc
00000070: a4ea b6bd 3903 a1bd 6eb0 08bd 6f42 a0bc
00000080: ac29 02bd 702f 84bd 34a8 9bbd 1237 b63c
00000090: 7299 2abd 9820 14be b0ee 0abd a7d6 25be
000000a0: e8ff c1bd 74f6 9ebd 3b74 0abd e428 f4bc
000000b0: 98c9 d0bd af60 03bd aacc 55bd 414e cb38
000000c0: 64c6 b3bd f4a0 e9bd d7f3 c8bd 47d7 09be
000000d0: 7eb4 c0bd b8ce 8fbd 8468 9bba be4d ebbd
000000e0: bbe8 b7bc 4ba8 fabc 87ae 98bd 1241 61bc
000000f0: 7a66 97bc 3c8f 1bbe 811a 87bd 451b 10bd
00000100: 95a3 a9bd bf03 26bd d068 ffbd dd07 e6bd
00000110: 01df e7bd 977a cabc 5156 19be b9ea 7ebd
00000120: 4f44 8f3c 6f10 88bd 18b4 82bd 2ecd a3bd
00000130: 0746 0abd dfb6 acbd df8d 90bc ec4f 8ebd
00000140: 4ba5 76bc 000f aebd 29ce 3dbd e508 99bd
00000150: 6ea7 793b d0ba 2a3b a1e9 d5bd 5425 56bd
00000160: 6cbc 0d3c e356 01bd 9c00 97bc 7050 4c3c
00000170: dc52 17bc cf31 ab3d 81d2 21bc cd25 f4bc
00000180: 8764 e83b 9852 47bb 9e71 da3d 9ce2 c0bd
00000190: d926 e7bd 4fd2 843b b3b8 12be afb3 343c
000001a0: e1bb 943d ad85 adbd 8ed3 03bd 8d91 8bbd
000001b0: 3a53 80b9 9a27 643b 2fe9 fd3c d9d0 5dbc
000001c0: 3144 86bd f8e4 33bd 6db9 e6bb 033e a03d
000001d0: 24b9 85bd 7018 89bd 5d78 97bd 9e0c 053c
000001e0: 0018 0ebd 62f7 d83b 3f9c 3b3d 3005 c7bd
000001f0: a18c 76bd 5d35 a43d dfaf 3bbc fad8 d5bc
00000200: df88 68bd 0e9b d63c 27fe 05bc f078 fcbc
00000210: c5bd 803c 8875 81bd 931e e4bd e0ad 5f3d
00000220: ab97 273a 2585 9bbd decf ef3c 3400 0dbb
00000230: 028b ee3c d343 203b f51b ee3b 8ec8 39bd
00000240: ecef 6939 8cfe ddbd 61da 7ebd 45bb 80bd
00000250: 4eed aebd a3c7 933c a614 dabc 406c 80bd
00000260: 3aaa 8dbd 69f5 12be 7052 833c 033f 8bbd
00000270: 1e8e aebc 70d0 393c ccb5 0cbc 4c77 a0bd
00000280: 262e 0ebd 504b 713c 7c0b 5f3c 2e77 bfbd
00000290: 20ba aa3c 0c05 05be 629a bebb 4903 cb3c
000002a0: 0616 24be 66d8 03be 2736 323d 7b63 2cbd
000002b0: 85de 0d3d 0002 99bc da5c a0bd ac08 0f3d
000002c0: 8b83 18bd 55c0 283d a059 dabd f43e 203c
000002d0: a538 e1bd 1d98 b5bd c3ca c7bd 90db c6bd
000002e0: 182d 8ebd 58c5 ddbd c6a7 9b3b be95 50bd
000002f0: 7eef 143b 3d00 ecbc b5b9 fb3b 97f2 2c3d
00000300: a1c4 b5bd 8d1e d6bd ef1b 783c 4a89 8dbd
00000310: 08f5 99bd bc84 4e3c bb76 78bd dbc0 d1bb
00000320: 630d 43bc 38c6 c73c 4224 c9bd 3d54 10bb
00000330: bec4 29bd 18af a63b b89e 7ebb cc56 86bc
00000340: 1776 84bd e657 e4bb 2d07 d63b 6806 edbb
00000350: bf45 f9bd 6d23 fabc 2465 95bd 6a26 243d
00000360: 7846 eebd eed9 edbd 7bc9 b4bd 7dd7 47bc
00000370: ad4f ebbd 2498 7dbd a423 b8bd 2591 7dbd
00000380: 79ee 93bd c201 2e3d 069a 80b9 d1bd 74bd
00000390: 7118 88bc 2126 a2bd 7170 d9bd 9c43 babc
000003a0: d758 c43c a882 183d 3032 0fbe a02d 173a
000003b0: 4474 173d 23af 0dbe b58f dcbd b91b 31bd
000003c0: 0f03 ccbd ddd1 12bd 03d9 6fbd f737 ebbd
000003d0: 0c87 9fbd b285 98bd 2211 dbbc 8ba1 2dbd
000003e0: 8120 7f3a a029 4bbd ab09 99bd 52f0 e8bd
000003f0: 654c 88bc 0abe a4bd 7cd5 f8bc 96eb c6bc

conv_2.bias f4 [32]
-0.11348419 -0.07614361 0.031771746 -0.07085996 -0.06804275 -0.057942342 -0.045617193 -0.00083417783
-0.02260944 -0.066631116 -0.017748803 -0.122959614 -0.101776466 -0.004039775 -0.0047668535 0.013545
0.058605343 -0.022945995 -0.024823928 -0.06377759 -0.12152923 0.0052326513 0.017283643 -0.047817606
-0.07909966 -0.013902487 -0.011065447 -0.12358125 -0.010331298 -0.13606152 -0.092637 -0.06490297
00000000: 666a e8bd 2ef1 9bbd 1723 023d 071f 91bd
00000010: ff59 8bbd f354 6dbd 18d9 3abd baac 5aba
00000020: 6f37 b9bc e575 88bd f065 91bc 40d2 fbbd
00000030: 2e70 d0bd 1760 84bb 4433 9cbb d9eb 5d3c
00000040: 280c 703d 3df9 bbbc 8d5b cbbc d39d 82bd
00000050: 51e4 f8bd a976 ab3b 6d96 8d3c 65dc 43bd
00000060: 01ff a1bd 42c7 63bc d94b 35bc 2b18 fdbd
00000070: 9b44 29bc b653 0bbe 78b8 bdbd d9eb 84bd

fully_connect1.weight f4 [10, 5408]
-0.061871126 -0.076899685 -0.084587954 0.019286728 0.03975752 -0.013683054 0.023314731 0.036739603
-0.054831613 0.0014602918 0.0193972 0.052893132 0.053682968 -0.060863517 -0.06311175 0.01185675
-0.029660942 0.026975846 0.015314422 0.023610458 -0.0030298666 0.027703648 0.041338705 0.030246763
0.06864971 0.055401746 0.020835001 0.012680629 0.03666244 0.014081007 0.035453577 0.001957938
0.0058562234 0.008306165 0.0019799308 0.030445887 0.033079524 0.054260157 0.04495191 -0.006521989
0.00658291 0.023777748 0.016196892 0.00058064505 0.011273953 0.011650009 -0.0019704157 0.0057801064
0.03700038 0.024662333 0.03553028 0.052164063 0.0037447112 0.04916623 0.047742937 0.0075020683
-0.004684659 -0.052036166 0.027764395 0.017401706 -0.027692283 -0.08874601 0.039076272 0.026718829
0.097379476 0.016003277 -0.03256398 -0.0032380316 -0.03992024 0.041044086 0.022763504 -0.052280392
-0.075200476 -0.041146 -0.001636279 0.03242498 0.013240862 0.04635901 0.031627666 0.053554058
0.014659363 -0.07779146 -0.08163043 -0.011370395 -0.048230533 -0.053497296 -0.07518519 -0.0007022069
0.04983997 -0.019363122 0.021507155 0.027656762 0.031559195 -0.07002749 -0.07606209 0.00021405959
-0.07408993 -0.044696182 -0.048113417 0.029384889 -0.009468887 0.06633336 -0.0771688 0.030739924
0.0030006352 0.0068326592 -0.063391134 -0.0529871 0.004716183 0.06239414 0.0048479233 0.048485745
0.06410679 -0.030262088 0.017614417 0.042107407 0.07478172 0.01279366 -0.09334856 0.0251544
-0.08147606 -0.05793125 0.06360568 0.03326943 -0.015964972 0.07815299 0.04782223 0.035601657
0.028669998 -0.046217863 -0.0027838692 0.003525209 -0.05560829 -0.08060279 0.057379734 0.014221364
0.075903274 0.061043333 0.06880874 0.08187697 0.01778233 0.06869862 0.016919447 0.02277849
-0.017388599 -0.0054149367 -0.019470697 0.05231659 0.08253871 0.11340399 0.02456624 0.056075193
0.05679417 0.014260708 0.042514775 0.029695118 0.026576515 0.01981082 0.02596966 0.04685007
0.05832346 0.0038166074 0.023503285 0.03417569 0.043393582 0.05378879 0.050554868 0.015783986
0.034313146 0.05938732 -0.018016161 0.06843788 -0.018392654 0.064442374 0.05028223 0.051721636
0.057843193 0.05953895 0.05463263 0.046458222 0.0620524 0.046480518 0.051724136 0.06951075
0.062776856 -0.035354998 0.044921845 0.05111139 0.058954336 0.060589723 0.04074009 0.057637807
0.058981244 0.06813716 -0.0625231 0.08332102 0.07264941 0.0661167 -0.03923393 0.06090452
0.049735323 0.054945916 -0.042910624 0.07149954 -0.056317657 -0.06271827 0.052613553 0.05127957
0.08284809 -0.061591297 0.06798321 -0.037977032 -0.055384602 -0.05173694 -0.05187919 -0.047643993
-0.041802462 -0.044052284 -0.034569647 0.07456148 -0.044656362 0.050661784 0.059132412 -0.038079947
0.06596115 0.0542148 -0.041659173 -0.059118792 -0.06041848 -0.0649914 -0.060644943 -0.051232032
-0.030631859 -0.05235958 0.06465919 0.041524235 -0.048412014 -0.055060267 -0.051812954 -0.06510878
-0.042979058 -0.055683192 -0.041552223 -0.058438558 -0.047159996 -0.059753817 -0.04402701 0.07244955
0.085178755 -0.04022931 -0.044080984 -0.03943409 -0.048851438 -0.05391227 -0.051478766 -0.051113337
00000000: 946c 7dbd 957d 9dbd 733c adbd 33ff 9d3c
00000010: c8d8 223d e32e 60bc 89fe be3c 447c 163d
00000020: 1d97 60bd 4367 bf3a e0e6 9e3c 78a6 583d
00000030: ace2 5b3d 064c 79bd bc40 81bd d042 423c
00000040: 81fb f2bc 73fc dc3c 57e9 7a3c b86a c13c
00000050: ba90 46bb c3f2 e23c c652 293d 0fc8 f73c
00000060: 3898 8c3d f1ec 623d 2aae aa3c 6ac2 4f3c
00000070: 5b2b 163d 06b4 663c c537 113d c050 003b
00000080: 90e5 bf3b 9516 083c bac1 013b a769 f93c
00000090: 657e 073d e63f 5e3d 7e1f 383d 69b6 d5bb
000000a0: 74b5 d73b 8dc9 c23c 58af 843c 6e36 183a
000000b0: 63b6 383c aedf 3e3c 1722 01bb 0c67 bd3b
000000c0: b68d 173d a908 ca3c 3388 113d fca9 553d
000000d0: d469 753b 8762 493d 198e 433d e9d3 f53b
000000e0: c581 99bb e023 55bd 2872 e33c 068e 8e3c
000000f0: edda e2bc 78c0 b5bd 710e 203d 72e1 da3c
00000100: e46e c73d 4e19 833c cf61 05bd 2835 54bb
00000110: 6883 23bd d81d 283d 877a ba3c f723 56bd
00000120: b502 9abd b588 28bd 6a78 d6ba 0ed0 043d
00000130: 33f0 583c f2e2 3d3d 038c 013d 805b 5b3d
00000140: d32d 703c 2151 9fbd db2d a7bd e54a 3abc
00000150: 618d 45bd fb1f 5bbd b1fa 99bd 4f14 38ba
00000160: ff24 4c3d 699f 9ebc c62f b03c 6f90 e23c
00000170: 3744 013d 936a 8fbd 71c6 9bbd 2f75 6039
00000180: 76bc 97bd 5813 37bd 9312 45bd 94b8 f03c
00000190: 6423 1bbc c9d9 873d ad0a 9ebd 4bd2 fb3c
000001a0: 4ea6 443b 80e4 df3b 36d3 81bd 0009 59bd
000001b0: 368a 9a3b ff90 7f3d 54db 9e3b fd98 463d
000001c0: 6c4a 833d 33e8 f7bc 1c4c 903c d178 2c3d
000001d0: 2927 993d 809c 513c 882d bfbd 9a10 ce3c
000001e0: ecdc a6bd 5249 6dbd b243 823d 8745 083d
000001f0: f9c8 82bc ad0e a03d 3ee1 433d 0bd3 113d
00000200: 58dd ea3c f14e 3dbd 9371 36bb 3107 673b
00000210: 85c5 63bd 1313 a5bd 0307 6b3d b900 693c
00000220: 2d73 9b3d 9308 7a3d 99eb 8c3d 1daf a73d
00000230: 40ac 913c ddb1 8c3d a79a 8a3c f599 ba3c
00000240: 8972 8ebc c86f b1bb 0381 9fbc ec49 563d
00000250: 0e0a a93d 5a40 e83d 243f c93c 1aaf 653d
00000260: 01a1 683d bfa5 693c f923 2e3d 2d43 f33c
00000270: feb6 d93c 4d4a a23c 53be d43c dce5 3f3d
00000280: 95e4 6e3d 0c20 7a3b f689 c03c cffb 0b3d
00000290: 78bd 313d a251 5c3d 9f12 4f3d 6b4d 813c
000002a0: f18b 0c3d 1e40 733d a196 93bc 2929 8c3d
000002b0: 31ac 96bc 5dfa 833d bdf4 4d3d 11da 533d
000002c0: fcec 6c3d 1ddf 733d 77c6 5f3d fa4a 3e3d
000002d0: a82a 7e3d 5b62 3e3d b0dc 533d a75b 8e3d
000002e0: 2791 803d 67d0 10bd f8ff 373d 2d5a 513d
000002f0: 1a7a 713d ee2c 783d 15df 263d 9f15 6c3d
00000300: 5196 713d 7f8b 8b3d 1c0c 80bd 36a4 aa3d
00000310: 37c9 943d 3168 873d c2b3 20bd 0577 793d
00000320: 44b7 4b3d f80e 613d 0dc3 2fbd 5a6e 923d
00000330: 58ad 66bd 7072 80bd 4f81 573d 870a 523d
00000340: 42ac a93d 2847 7cbd c83a 8b3d ce8d 1bbd
00000350: f7da 62bd 1dea 53bd 467f 54bd 5926 43bd
00000360: 0f39 2bbd 2b70 34bd e798 0dbd b0b3 983d
00000370: 97e9 36bd bb82 4f3d d434 723d b8f9 1bbd
00000380: a416 873d 5710 5e3d cfa2 2abd 8c26 72bd
00000390: 5e79 77bd 361a 85bd d566 78bd aed8 51bd
000003a0: aaef fabc 0077 56bd 0a6c 843d 5115 2a3d
000003b0: ad4b 46bd e086 61bd d239 54bd c157 85bd
000003c0: cf0a 30bd 0f14 64bd aa32 2abd 455d 6fbd
000003d0: d72a 41bd 6bc0 74bd ab55 34bd 6e60 943d
000003e0: 3372 ae3d 7dc7 24bd 438e 34bd a485 21bd
000003f0: 7218 48bd 1dd3 5cbd 66db 52bd 385c 51bd

fully_connect1.bias f4 [10]
-0.06114575 -0.05632754 -0.036405183 -0.04841754 0.014540489 -0.08343338 0.08877645 0.038839683
-0.03773974 -0.04292948
00000000: f773 7abd b5b7 66bd 9a1d 15bd 7851 46bd
00000010: 3b3b 6e3c 1fdf aabd 6dd0 b53d 5c16 1f3d
00000020: fc94 1abd d3d6 2fbd

fully_connect2.weight f4 [1, 10]
0.05000419 0.097768754 0.15934296 0.21031547 -0.19189878 0.11548312 -0.10057189 -0.009898097
0.070219934 0.058137108
00000000: 32d1 4c3d fc3a c83d cd2a 233e f05c 573e
00000010: 1d81 44be 6a82 ec3d a3f8 cdbd a12b 22bc
00000020: 78cf 8f3d 2d21 6e3d
