bs48_lr0.1_weight.pt (torch, 240184 bytes, 7 tensors)

conv_1.weight f4 [16, 3, 3, 3]
000000 64 f5 d2 3e 13 ae 25 3f ae 7b f1 3e 14 c3 1f 3f
       0.41202843 0.6471874 0.47164673 0.6240704
000010 21 39 cd 3e c6 4b b2 3e 81 a3 19 3f 59 f4 ee 3e
       0.40082648 0.34823436 0.6001511 0.46670797
000020 11 8e 33 3f c2 76 0a bf a2 00 d7 3e fa 87 b6 be
       0.7013865 -0.5408746 0.4199267 -0.35650617
000030 02 6f 13 bf ca 78 08 bf eb f9 03 bf 3d d4 1e bf
       -0.5759126 -0.5330931 -0.5155322 -0.620426
000040 48 c3 d2 be 76 9e 28 3f cd 46 2e bf 49 f6 24 3f
       -0.41164613 0.6586679 -0.68076783 0.644383
000050 62 ce f2 be b0 f4 15 bf 0e 05 02 bf 01 69 fc be
       -0.47423083 -0.5857649 -0.5078896 -0.49298862
000060 00 71 ff be ec af 21 bf a0 35 04 3f d5 3e 20 3f
       -0.498909 -0.6315906 0.51644325 0.62595874
000070 64 b4 25 3f 01 02 13 3f 09 e5 1d 3f 00 9b d6 3e
       0.6472838 0.5742493 0.61677605 0.4191513
000080 a0 28 2d 3f 38 bc 26 3f 81 a8 06 3f 02 88 17 3f
       0.67640114 0.6513095 0.52600867 0.59191906
000090 66 ad b7 3e 58 2d 1a 3f ca 86 b6 3e 3a cc 2d 3f
       0.3587448 0.6022544 0.3564971 0.6788975
0000a0 c3 29 37 3f 9e f1 d8 3e ab 29 1d 3f 83 45 10 3f
       0.715481 0.4237184 0.61391705 0.56356066
0000b0 84 0d 2a 3f a2 29 f9 3e 65 99 e3 3e cc be 30 3f
       0.66426873 0.48664576 0.44452968 0.6904113
0000c0 80 1d 00 3f 67 c9 1f 3f 12 d2 01 3f 5e 7c e4 3e
       0.50045013 0.6241669 0.50711167 0.44626135
0000d0 e3 e1 31 3f 78 92 1c 3f ba 3c bf be 8d 95 32 bf
       0.694853 0.61160994 -0.37351018 -0.69759446
0000e0 44 d8 1c bf 46 07 0a bf b2 4f 38 bf 11 78 26 bf
       -0.61267495 -0.5391735 -0.71996605 -0.65026957
0000f0 8a 40 09 bf f5 5c 21 bf 35 6e bd be 47 42 38 bf
       -0.53614104 -0.63032466 -0.36998144 -0.7197613
000100 87 3f cd be 77 48 0e bf 80 d8 ba be 7f df f0 be
       -0.4008753 -0.5557932 -0.364933 -0.47045514
000110 66 a5 28 bf 1c 31 c5 be 27 82 1f bf 0f 6c fd be
       -0.6587738 -0.3851403 -0.6230797 -0.49496505
000120 e6 b0 0c 3f 7a 64 18 3f 01 4c 0a 3f 47 f1 20 3f
       0.54957426 0.59528315 0.5402222 0.6286816
000130 65 2d ce 3e 99 1c 0a 3f fd 84 d8 3e 3e f0 b3 3e
       0.40269008 0.53949887 0.42288962 0.35144228
000140 e3 2a ec 3e b5 46 e1 3e 45 8d be 3e c8 2d 1e 3f
       0.4612647 0.43999258 0.37217155 0.61788607
000150 92 04 0b 3f 6b c8 0f 3f ab ce 09 3f 88 c4 1b 3f
       0.5430385 0.5616519 0.53830975 0.6084676
000160 58 47 d1 3e 8e f8 0e 3f 32 e2 f0 3e 8d 26 d9 3e
       0.40874743 0.55848014 0.47047573 0.42412224
000170 69 60 f8 3e 20 c1 d4 3e 69 a1 1e 3f 7f c3 e5 3e
       0.48511055 0.41553593 0.6196504 0.44875714
000180 f8 0a 31 3f 4c 12 d4 3e ce 93 28 3f 07 cc 17 3f
       0.6915736 0.4142021 0.6585053 0.59295696
000190 5e 2e 36 3f 4a 7c e3 3e 3d 87 fa 3e 77 37 b0 3e
       0.711645 0.44430763 0.48931304 0.34417316
0001a0 d7 8b 0f 3f 98 32 bb 3e f1 e6 19 3f b9 54 ed 3e
       0.56072754 0.36562037 0.60118014 0.463537
0001b0 ae 71 18 3f 24 35 c3 3e be 4c e7 be 06 33 14 3f
       0.5954846 0.3812648 -0.45175737 0.57890356
0001c0 5c aa 0e 3f 01 73 27 bf f9 28 c1 be fe 57 35 3f
       0.557287 -0.6540986 -0.37726572 0.7083739
0001d0 ae 54 d0 be 34 ed e6 3e 67 89 33 bf a7 37 16 bf
       -0.40689605 0.45102847 -0.70131534 -0.5867867
0001e0 61 02 ca be 9a 28 d5 3e a5 25 1a bf 31 f6 f9 be
       -0.3945494 0.4163254 -0.6021369 -0.48820642
0001f0 92 d4 c8 3e 61 46 19 bf ac ca b0 be df f6 cf be
       0.39224678 -0.59873015 -0.34529626 -0.40618035
000200 b9 da b2 be 15 0f 23 bf e6 f7 30 bf d1 02 0a bf
       -0.34932497 -0.6369489 -0.69128263 -0.5391055
000210 05 3a fc be e1 ea b9 be 51 89 1b bf 51 9a 2a bf
       -0.49263015 -0.3631201 -0.60756403 -0.6664172
000220 fe a4 b5 be f7 82 15 3f de ca 2e 3f f8 ee d4 3e
       -0.35477442 0.5840296 0.682783 0.4158857
000230 0f c4 01 3f 92 eb c4 3e 25 8b ae 3e db 82 06 3f
       0.50689787 0.38460976 0.34090534 0.5254342
000240 67 18 30 3f 03 79 21 bf b4 5f 1d 3f 27 eb d7 3e
       0.68787235 -0.63075274 0.61474156 0.42171595
000250 cb a2 16 3f 20 84 0c 3f 4d 1e b1 3e 27 33 e9 3e
       0.5884215 0.54889107 0.3459343 0.4554684
000260 14 40 f5 3e 1b 9c b0 3e 74 1e 1c 3f 5f 49 f2 3e
       0.4790045 0.344941 0.6098397 0.47321603
000270 6c 44 0b 3f 35 4d db 3e 56 ba 02 3f ff 42 03 3f
       0.5440128 0.42832342 0.51065576 0.512741
000280 ea c6 ce 3e 37 16 e6 3e 47 8a 24 bf 04 c8 33 3f
       0.40386134 0.44938824 -0.64273494 0.70227075
000290 12 5c 09 3f 7f 64 d6 3e 61 61 f2 3e ff bc ad 3e
       0.53656113 0.41873547 0.4733992 0.33933255
0002a0 ff 43 bc 3e 65 21 2b 3f 73 77 e5 3e b6 50 07 bf
       0.36770627 0.6684783 0.44817695 -0.5285753
0002b0 21 75 2e bf 29 8e cb 3e b9 08 d3 be f8 96 f5 3e
       -0.68147475 0.39756897 -0.41217592 0.47966743
0002c0 34 9d bd 3e 3c f2 c3 3e f6 15 35 3f 1f cb d5 3e
       0.37034 0.38270748 0.70736635 0.41756532
0002d0 cf 5a 2c bf fa 2f d6 be 5a e1 35 3f 05 38 fa be
       -0.6732606 -0.41833478 0.71046984 -0.48870865
0002e0 42 17 d3 be ea 09 fb 3e 99 04 0b bf f9 dc 05 bf
       -0.41228682 0.49031 -0.5430389 -0.522903
0002f0 44 46 b3 3e c9 ad e6 3e 80 2d c9 3e ee dd 07 3f
       0.35014546 0.45054463 0.39292526 0.5307301
000300 47 84 ba be f1 ac b6 be c2 c3 e0 3e 08 ec db be
       -0.36429045 -0.3567882 0.4389935 -0.42953515
000310 e1 1d 08 bf f5 4a ba be f1 eb 17 3f 0b 6b 08 3f
       -0.5317059 -0.36385313 0.59344393 0.53288335
000320 77 3e e0 3e 85 d6 b2 be ef 33 ba be f8 3b c3 3e
       0.43797657 -0.3492929 -0.36367747 0.3813169
000330 5e 1a 32 bf e3 1a d6 be 92 49 d6 be 2e 0a 30 3f
       -0.69571483 -0.41817388 -0.41853005 0.6876553
000340 2a 70 e8 3e f3 0a b6 3e 64 d1 0b 3f 00 88 0e 3f
       0.45398074 0.3555523 0.5461638 0.5567627
000350 f2 db 16 3f 93 67 34 bf e5 93 01 bf c3 da f6 3e
       0.5892936 -0.7047054 -0.50616294 0.48213777
000360 d8 fb 30 3f 70 f2 07 3f a1 1a 25 3f 3a af 12 3f
       0.69134283 0.53104305 0.6449376 0.57298625
000370 8b c4 1f 3f 63 43 ed 3e 90 8b b8 3e 53 ee 15 3f
       0.62409276 0.46340474 0.36043978 0.5856678
000380 77 5f 29 3f 30 c3 38 3f 0a 9b 2e 3f dc f3 25 3f
       0.6616129 0.7217283 0.6820532 0.64825225
000390 ae 16 1f 3f 7f ca ed 3e 22 29 ea 3e 4a 80 b1 3e
       0.6214398 0.46443555 0.45734507 0.3466819
0003a0 41 2d 1e 3f 86 00 06 3f 16 5f c2 3e e9 d8 13 3f
       0.617878 0.5234455 0.3796317 0.57752854
0003b0 26 cf 2b 3f 5e 57 fa 3e fa f1 b8 3e 1f 7a c6 3e
       0.6711296 0.4889478 0.36122113 0.38765046
0003c0 fe 51 25 3f 16 de 1e 3f 6b 81 07 3f 32 e0 2f bf
       0.64578235 0.62057626 0.5293185 -0.6870147
0003d0 96 1a 1d bf 83 98 29 bf 4f 0d 01 bf 34 69 36 bf
       -0.6136869 -0.6624834 -0.5041093 -0.7125428
0003e0 bb 53 35 bf 3f 27 cc be 3a 2c cb be d3 98 33 bf
       -0.7083089 -0.39873692 -0.3968218 -0.70155066
0003f0 39 7c c9 be 45 e3 0b bf e2 10 1c bf d4 73 2d bf
       -0.39352587 -0.5464366 -0.6096326 -0.67754865

conv_1.bias f4 [16]
000000 7e 70 22 bf e3 c2 03 3f 90 90 26 3f e6 fc b3 be
       -0.634529 0.5146925 0.65064335 -0.35153884
000010 d9 28 d2 3e 76 14 1d bf 30 73 0b bf ec 14 19 bf
       0.4104679 -0.61359346 -0.5447264 -0.5979755
000020 28 7f 32 bf 87 59 31 3f 99 92 31 3f d4 2a 00 bf
       -0.69725275 0.6927723 0.69364315 -0.5006535
000030 76 c0 30 3f ba cc c9 be dd cd 34 bf bf e7 12 bf
       0.6904367 -0.39414006 -0.7062662 -0.57384866

conv_2.weight f4 [32, 16, 3, 3]
000000 3d 63 1a bf ee 5e 02 bf 3f 55 19 3f 10 aa 18 bf
       -0.60307676 -0.509261 0.598957 -0.59634495
000010 cf 33 0d 3f 4c 13 15 3f df d8 0a 3f d2 11 11 3f
       0.5515718 0.5823257 0.5423717 0.56667817
000020 eb 42 e9 3e 68 e2 18 bf 42 b5 ff be 9f 88 e9 be
       0.45558867 -0.5972047 -0.49942976 -0.45612046
000030 3c dd 00 bf 37 51 0a bf f5 98 fa be c9 f3 18 bf
       -0.50337577 -0.54030174 -0.48944822 -0.59746987
000040 4a 98 0f 3f 11 12 02 bf 4d ae 16 3f 1c 0a e8 3e
       0.5609175 -0.5080882 0.5885971 0.45320213
000050 4f da e5 3e 70 d3 e7 be 64 51 f7 3e 7b 18 10 3f
       0.4489312 -0.45278502 0.48304284 0.56287354
000060 50 49 0d bf 78 6e f5 be 8c 53 ed 3e 76 07 e8 3e
       -0.5518999 -0.47935843 0.46352804 0.45318192
000070 61 f8 e5 3e ac b2 f0 3e de 7d 1c bf 48 ca e5 3e
       0.4491606 0.47011316 -0.6112956 0.4488089
000080 bd 13 0c 3f ff 4e 08 3f 31 cd 0d bf 47 c0 03 3f
       0.5471762 0.5324554 -0.5539122 0.51465267
000090 c6 0c 08 bf 83 00 0e bf 85 9a 18 bf 56 4d 0a bf
       -0.5314449 -0.5546953 -0.5961078 -0.54024255
0000a0 89 e0 04 3f b9 e1 f5 be 27 44 17 bf e8 98 08 3f
       0.51905113 -0.48023775 -0.5908837 0.53358316
0000b0 00 00 0f 3f d4 ac 14 3f 21 70 ec 3e 31 45 11 3f
       0.55859375 0.58076215 0.46179298 0.567462
0000c0 ae 69 ed 3e a8 90 e9 3e a4 d1 ef be b2 9b 15 3f
       0.4636969 0.45618176 -0.4683963 0.584407
0000d0 18 c3 1b bf 44 c4 ed 3e 4c 8d 05 3f f2 9c 10 3f
       -0.60844564 0.464388 0.52168727 0.5648948
0000e0 ac 66 12 3f 6a 15 08 3f e8 4b f9 3e 3a 03 0f bf
       0.57187915 0.53157675 0.48690724 -0.558643
0000f0 83 29 19 3f a8 6e 1c bf 72 b3 15 bf cc 20 fe 3e
       0.59828967 -0.6110635 -0.58476937 0.49634397
000100 11 15 e8 3e 48 e9 07 bf fb 0e f8 3e 9e 37 ed 3e
       0.45328572 -0.53090334 0.4844893 0.46331495
000110 c9 dc 16 bf 93 aa 1c 3f f6 1c 16 3f 8e f1 17 3f
       -0.5893064 0.61197776 0.5863794 0.5935296
000120 ec a8 fb 3e ac 01 07 bf 71 ac 14 bf 7a 68 1c bf
       0.49152315 -0.52736926 -0.58075625 -0.6109692
000130 b5 ca 19 bf b6 56 01 bf ef ac ef be ac 44 13 3f
       -0.6007493 -0.50522935 -0.46811625 0.5752666
000140 95 55 f6 be 7f 87 16 3f c0 dc 1b 3f bb 96 e9 3e
       -0.4811217 0.588005 0.6088371 0.4562281
000150 86 6b f4 3e 34 f2 fa 3e 89 03 fa be 6e 8a 07 3f
       0.47738284 0.4901291 -0.48830822 0.529456
000160 44 1a 05 bf 50 34 14 bf 69 7e f0 be 50 6e 08 bf
       -0.51993203 -0.5789232 -0.46971443 -0.53293324
000170 ed b9 00 bf bd 97 01 bf 2e 43 04 bf 8f 42 f6 be
       -0.502837 -0.5062216 -0.5166501 -0.48097655
000180 fa 9f f7 be 58 e3 05 3f 79 15 02 bf 14 0f 16 3f
       -0.4836424 0.52300024 -0.50814015 0.5861676
000190 28 98 13 3f d4 cd 13 3f a7 ec 0f bf c5 3b e6 be
       0.57654047 0.57735944 -0.5622048 -0.44967476
0001a0 2b b6 03 3f 83 09 f1 3e ce ed 03 3f b3 c0 09 3f
       0.5144984 0.4707757 0.51534736 0.5380966
0001b0 46 08 0b bf 34 de f2 be 0c 46 f3 3e 48 d6 08 3f
       -0.543095 -0.47435153 0.4751438 0.5345197
0001c0 27 da ed 3e bc b4 01 3f 03 52 18 bf 63 7f 07 3f
       0.464555 0.50666404 -0.5950014 0.5292875
0001d0 50 d7 1a bf 85 17 1b bf bd e3 fe be 9a 1f f8 be
       -0.6048479 -0.6058276 -0.49783126 -0.4846161
0001e0 8a 97 01 bf 6e 06 04 3f b6 e5 08 bf 93 5e 01 bf
       -0.50621855 0.5157231 -0.5347551 -0.50534934
0001f0 6b 12 0f bf 89 27 ec 3e 2c df f1 3e f7 7b f9 3e
       -0.5588748 0.46123913 0.4724058 0.4872739
000200 52 58 11 bf d4 25 f2 3e ec a4 19 3f 23 26 09 3f
       -0.5677539 0.47294486 0.60017276 0.53573817
000210 8f 64 02 3f 5b a7 ef be 95 ae e6 3e 1d a5 0a 3f
       0.5093469 -0.4680737 0.4505507 0.5415819
000220 5d 82 0c 3f 71 b0 15 3f 27 25 fd 3e 8e 48 0e 3f
       0.5488642 0.58472353 0.49442407 0.5557946
000230 cc 52 f5 3e 84 a7 f4 3e 80 5d 17 bf 57 96 ee 3e
       0.47914732 0.47784054 -0.59127045 0.46599075
000240 b1 69 0d 3f f3 05 03 3f a9 59 10 3f ec 56 ea be
       0.552394 0.5118095 0.5638681 -0.4576944
000250 1f 1e 1b 3f 66 82 03 3f e7 72 12 bf a4 18 13 3f
       0.60592836 0.5137085 -0.5720658 0.57459474
000260 bf 48 03 3f 0c e4 08 3f fb b3 e7 3e 49 55 03 3f
       0.51282877 0.5347297 0.45254502 0.5130201
000270 3c 6a 00 3f e3 93 e8 3e 29 1c 07 bf 8a d7 06 3f
       0.501621 0.4542533 -0.52777344 0.52672637
000280 dd 08 0c bf a9 71 e7 3e 13 9d 17 3f 8e 40 02 3f
       -0.54701024 0.45203903 0.5922405 0.5087975
000290 82 a0 13 3f 65 a6 1c 3f 7b 7a 1c 3f 4f 42 03 3f
       0.5766679 0.611914 0.6112439 0.51273054
0002a0 57 6e 13 3f 03 f3 03 3f 1f 0e 16 3f c7 3a 01 3f
       0.5759024 0.5154268 0.586153 0.5048031
0002b0 98 f7 16 3f 96 14 03 3f 8c 7b 0a 3f e4 af ff 3e
       0.5897155 0.51203287 0.5409477 0.4993888
0002c0 eb 5f 18 3f 5e 8c f1 3e 62 13 04 3f 0f f7 eb 3e
       0.5952136 0.47177404 0.51592076 0.46086928
0002d0 9e cc 0b 3f 03 68 06 3f 2f 7d ee 3e 62 ab e8 be
       0.54609096 0.5250246 0.46579883 -0.45443255
0002e0 13 d1 12 bf 2f 65 f7 3e 36 6d 02 3f 0e f0 14 bf
       -0.5735027 0.48319384 0.5094789 -0.58178794
0002f0 8c 42 ff be 16 0a 15 bf 53 71 16 3f a9 45 11 3f
       -0.4985546 -0.58218515 0.5876667 0.5674692
000300 f5 53 03 3f b4 82 13 3f 8e 31 16 3f f1 7e 14 3f
       0.51299983 0.5762131 0.58669364 0.580062
000310 60 e1 0c 3f ba 0a 16 3f 69 31 fe 3e 1f f4 14 3f
       0.55031395 0.5861012 0.49647072 0.58185
000320 15 4e 00 3f 52 14 17 3f 27 d6 f7 3e 1d ed 0c 3f
       0.50119144 0.5901538 0.48405573 0.55049306
000330 5f bf ea 3e be 7c e8 3e ef 84 f4 3e 50 6f 18 3f
       0.4584913 0.4540767 0.4775767 0.5954485
000340 55 55 e9 3e 34 0a 04 3f cc e5 18 3f 01 f2 fb 3e
       0.45572916 0.5157807 0.5972564 0.49208072
000350 ec f4 eb be cd 36 12 3f ff 0d 0b bf 46 7f fb 3e
       -0.46085298 0.5711487 -0.5431823 0.4912054
000360 62 15 0d 3f 46 57 fd be be de 0b bf 10 73 f6 3e
       0.5511075 -0.49480647 -0.5463675 0.4813466
000370 e4 f6 04 3f 62 4f ea be ac 37 1a 3f 2a d3 13 3f
       0.51939225 -0.4576369 0.602412 0.57744086
000380 ee f9 11 bf 17 74 18 3f 67 38 fe 3e 70 91 e6 3e
       -0.5702199 0.5955214 0.49652407 0.45032835
000390 06 f8 16 3f 7d ad 0a 3f a6 d0 0a 3f c2 61 1c 3f
       0.58972204 0.5417097 0.5422462 0.61086667
0003a0 86 ec 05 3f f3 77 f4 3e e8 78 08 3f c3 12 fa 3e
       0.5231403 0.47747764 0.5330949 0.4884244
0003b0 3a 4d 0b 3f 2d 1f 04 3f ac cc 0d 3f 11 4b 1b bf
       0.54414713 0.5161007 0.5539043 -0.6066142
0003c0 67 3e ef 3e 07 20 0d 3f a1 e2 e4 3e f7 4c 00 bf
       0.46727297 0.55126995 0.44704154 -0.5011744
0003d0 ec 36 13 3f 23 2f 13 3f db 87 1b 3f 75 fe 1c 3f
       0.5750568 0.574938 0.60754174 0.6132577
0003e0 32 a0 fe 3e 33 5b 10 3f 97 02 00 3f 8b 77 e5 3e
       0.49731594 0.5638916 0.5000395 0.44817767
0003f0 f2 ce 0e bf c2 2c 03 3f d8 1b 07 3f 95 0c 19 3f
       -0.55784523 0.5124017 0.5277686 0.59784824

conv_2.bias f4 [32]
000000 0f d0 15 3f 86 f1 fd 3e a8 37 12 3f c6 20 19 3f
       0.585206 0.4959833 0.57116175 0.59815633
000010 7b 93 0c 3f 89 f9 12 bf 2b 7c f7 3e b7 96 f7 3e
       0.5491254 -0.5741201 0.4833692 0.48357174
000020 54 41 e9 be bd 00 0a bf 54 bb e6 3e 2b 0e f5 3e
       -0.45557654 -0.53907377 0.45064795 0.47862372
000030 46 47 09 3f 14 2d 0b 3f 0d 09 fe be e7 8c 19 bf
       0.5362438 0.5436566 -0.4961628 -0.59980625
000040 3e be 1b bf 6d 93 15 bf 84 c7 14 3f 4a 74 12 3f
       -0.6083716 -0.5842808 0.58116937 0.57208693
000050 f3 93 0d bf d5 53 0f 3f 62 19 fb be 81 b8 14 bf
       -0.5530388 0.5598729 -0.49042803 -0.5809403
000060 81 85 ee 3e 7a 96 f4 be 71 33 f7 3e 7b 54 04 bf
       0.4658623 -0.47771055 0.48281434 -0.51691407
000070 15 5c f1 3e 47 80 e9 3e f0 54 10 bf 7c bf 01 bf
       0.47140566 0.4560568 -0.56379604 -0.50682807

fully_connect1.weight f4 [10, 5408]
000000 cd 5a 07 3f 64 d2 0a 3f 30 72 04 3f c8 fa 07 3f
       0.52872926 0.5422728 0.51736736 0.53117037
000010 7f 83 04 3f 5d 95 04 3f 74 cd 04 3f 10 df 0a 3f
       0.5176315 0.5179041 0.51875997 0.54246616
000020 c0 43 05 3f 52 23 05 3f e6 9c 08 3f b0 d4 09 3f
       0.52056503 0.5200702 0.5336441 0.5384016
000030 7b 7b 09 3f 03 9c 06 3f 77 57 0a 3f 8c fd 07 3f
       0.5370404 0.52581805 0.5403971 0.53121257
000040 7e bb 05 3f a2 d2 08 3f af e1 07 3f 8c 89 07 3f
       0.52239215 0.534464 0.5307874 0.52944255
000050 5e c8 05 3f 01 19 06 3f d0 6b 08 3f 1d b2 0a 3f
       0.5225886 0.523819 0.5328951 0.5417803
000060 79 b8 05 3f cc a6 05 3f 3b 9e 09 3f 17 aa 06 3f
       0.5223461 0.52207637 0.53757066 0.52603287
000070 e7 13 07 3f 02 ae 0a 3f 7a f9 0a 3f 9a ed 08 3f
       0.52764744 0.54171765 0.5428692 0.5348755
000080 2a 3e 0b 3f 12 d4 0a 3f 35 37 06 3f ea ee 05 3f
       0.5439173 0.54229844 0.5242799 0.5231768
000090 1c 82 07 3f c0 63 0a 3f 8d 04 0a 3f 8b e4 04 3f
       0.52932906 0.54058456 0.53913194 0.5191123
0000a0 aa b1 05 3f 85 a1 09 bf a8 30 0b bf 7c d9 07 bf
       0.5222422 -0.53762084 -0.5437112 -0.5306623
0000b0 c4 4e 09 bf 53 bb 07 3f dd 42 05 bf 8e ef 04 3f
       -0.5363581 0.5302021 -0.5205515 0.5192803
0000c0 c9 d7 0a 3f aa f9 04 3f ad b5 09 bf 89 1f 05 3f
       0.5423551 0.5194346 -0.5379284 0.52001244
0000d0 ec d4 05 3f 38 1e 05 3f 66 b4 08 bf 8b b8 05 3f
       0.5227802 0.51999235 -0.53400266 0.52234715
0000e0 4f 3e 09 3f 8b 3d 09 bf 78 dc 07 3f a6 14 09 3f
       0.536107 -0.5360953 0.53070784 0.5354713
0000f0 32 9c 09 3f 56 6c 04 3f 8f 30 08 3f ed 2a 08 bf
       0.5375396 0.5172781 0.53199095 -0.531905
000100 13 b1 0a 3f 54 c1 04 3f 6b fe 07 3f b0 d0 0a 3f
       0.54176444 0.51857495 0.53122586 0.5422468
000110 b8 b1 09 3f 94 2f 06 3f 6a a9 06 bf 7b c2 0a 3f
       0.537868 0.5241635 -0.52602255 0.54203004
000120 f8 96 05 3f ed 28 05 bf bf 58 05 bf 7b 76 04 3f
       0.52183485 -0.5201557 -0.5208854 0.51743287
000130 96 b1 06 3f b0 a6 09 3f 86 19 05 3f d8 92 04 3f
       0.52614725 0.5376997 0.5199207 0.51786566
000140 a6 1e 05 3f e9 66 09 bf 24 fb 07 3f cb 02 09 3f
       0.5199989 -0.53672653 0.53117585 0.53519887
000150 14 57 0a bf ab 16 09 3f 83 8a 06 3f e6 98 0a bf
       -0.5403912 0.53550214 0.525551 -0.54139555
000160 99 7d 0a bf 8a 98 08 3f d2 ed 0a 3f 3a 75 06 3f
       -0.54097897 0.53357756 0.54269135 0.52522624
000170 24 5b 05 3f 4c cb 04 3f 05 2b 08 bf 11 b2 09 bf
       0.52092195 0.51872706 -0.5319064 -0.5378733
000180 b6 1f 05 bf 7c f4 07 bf a2 a1 04 bf 24 f6 08 3f
       -0.5200151 -0.5310743 -0.5180913 0.5350058
000190 42 e3 07 3f 2c bf 09 3f 6d 4b 09 3f 06 18 08 3f
       0.5308114 0.5380733 0.53630716 0.53161657
0001a0 9d ef 04 3f 79 97 0a 3f 8a 0b 0b bf 44 9c 08 3f
       0.5192812 0.5413738 -0.5431448 0.5336344
0001b0 14 d3 06 bf 05 40 08 bf 98 ea 0a bf bd c5 04 bf
       -0.5266583 -0.53222686 -0.5426421 -0.51864225
0001c0 a7 8e 0a bf 82 cd 0a bf 57 e8 09 3f 3c 08 09 3f
       -0.5412392 -0.5421983 0.5387015 0.5352819
0001d0 b1 3e 0a 3f e3 b4 06 3f 6e 3e 05 3f 9d cd 08 bf
       0.5400191 0.5261976 0.52048385 -0.5343874
0001e0 e9 11 06 bf ef ba 08 bf be 5a 0a bf a8 12 05 bf
       -0.5237108 -0.5341024 -0.5404471 -0.5198159
0001f0 f8 c1 06 bf 6b bb 05 bf 6f fb 09 3f c2 e3 07 3f
       -0.5263972 -0.522391 0.5389928 0.53081906
000200 cb 46 08 bf 46 0f 09 3f e9 4f 07 3f eb d9 06 3f
       -0.5323302 0.5353893 0.5285631 0.52676266
000210 a4 ac 08 bf 20 51 08 bf d7 19 0b bf 5f c9 09 bf
       -0.5338843 -0.53248787 -0.54336303 -0.5382289
000220 3e ac 0a bf 6f 5f 04 bf 49 ec 04 bf 4d 0b 08 bf
       -0.5416907 -0.5170812 -0.5192304 -0.53142244
000230 fd ba 06 3f cb 0f 09 3f 2c cb 06 3f 87 45 0a 3f
       0.5262907 0.53539723 0.52653766 0.5401234
000240 1a 1a 0b bf ce 19 07 bf 92 8d 06 bf 3a 26 05 bf
       -0.543367 -0.5277375 -0.5255977 -0.52011454
000250 af ab 05 bf 33 5d 04 bf 62 a4 08 bf bf 76 0a bf
       -0.52215093 -0.5170471 -0.5337583 -0.5408744
000260 16 40 09 bf 50 d5 04 bf 26 d8 05 bf 79 cf 09 3f
       -0.5361341 -0.5188799 -0.5228294 0.53832203
000270 cb 6f 09 3f a8 d6 07 bf 8f db 07 bf d7 12 06 bf
       0.5368621 -0.53061914 -0.53069395 -0.523725
000280 14 20 0a bf 69 05 07 bf bd b4 0a bf cc 65 09 bf
       -0.539552 -0.5274263 -0.54182035 -0.53670955
000290 46 27 0b 3f f5 43 0a bf 93 8e 0a bf 86 d5 08 3f
       0.543568 -0.54009944 -0.541238 0.5345081
0002a0 13 29 05 3f 3e 9d 07 3f 77 2c 09 bf 18 39 06 3f
       0.520158 0.5297431 -0.5358347 0.5243087
0002b0 3c 07 0a bf be f5 07 bf 62 64 05 bf 7c 9b 06 bf
       -0.5391729 -0.5310935 -0.52106297 -0.52581
0002c0 a3 54 04 bf 59 36 0b bf 8d a2 07 bf a9 7d 08 bf
       -0.51691645 -0.543798 -0.5298241 -0.5331674
0002d0 2e 78 04 bf 31 de 04 bf a0 f5 04 3f a0 17 08 3f
       -0.5174588 -0.5190154 0.51937294 0.5316105
0002e0 c4 66 08 3f 6e f5 04 3f b2 9d 07 bf 6d 20 09 bf
       0.5328181 0.51936996 -0.52975 -0.535651
0002f0 82 cd 0a 3f 90 72 08 bf 60 c6 06 bf 0b 79 04 bf
       0.5421983 -0.5329981 -0.52646446 -0.51747197
000300 87 67 05 3f e3 5a 06 bf a0 55 05 bf b0 ff 0a 3f
       0.52111095 -0.5248243 -0.5208378 0.542964
000310 ca 58 08 3f ec 72 0a 3f 27 4d 08 3f 98 2a 05 3f
       0.5326048 0.54081607 0.53242725 0.5201812
000320 cb a8 04 3f 71 ca 09 bf 9a ac 06 3f ab 4e 05 3f
       0.5182006 -0.53824526 0.5260712 0.5207316
000330 25 8e 0a 3f 24 36 06 3f 70 1c 08 3f 8c c0 0a 3f
       0.54123145 0.5242636 0.5316839 0.54200053
000340 94 9e 0a 3f 70 99 09 3f cf a8 0a 3f 15 76 06 3f
       0.5414822 0.5374975 0.5416383 0.5252393
000350 8c db 05 3f 6d c0 07 3f e3 92 0a 3f bc ec 04 3f
       0.52288127 0.53027993 0.5413038 0.5192373
000360 7e a0 08 bf ae fd 08 bf df 8c 06 bf 70 93 06 3f
       -0.5336989 -0.53512084 -0.525587 0.5256872
000370 f9 db 05 3f 4e c6 09 3f 60 91 0a 3f f4 55 08 3f
       0.52288777 0.53818214 0.54128075 0.53256154
000380 0d 48 08 3f bb d5 0a 3f 70 7e 06 3f 97 dc 06 3f
       0.5323494 0.54232377 0.5253668 0.52680343
000390 ef 3c 08 3f 48 83 09 bf 64 03 0a 3f ae 89 05 3f
       0.5321798 -0.53715944 0.53911424 0.5216321
0003a0 3f 96 06 3f ea e4 07 3f 55 62 08 3f 1d 38 08 3f
       0.5257301 0.5308367 0.5327504 0.5321062
0003b0 25 eb 07 3f 12 66 0a 3f 2a 3d 05 3f f8 22 09 3f
       0.5309318 0.54061997 0.52046454 0.53568983
0003c0 2a 1b 09 3f 3c 63 0a 3f c8 d9 0a 3f 3c 20 05 3f
       0.53557074 0.5405767 0.5423856 0.5200231
0003d0 21 b5 0a bf a3 a9 06 bf b5 35 06 3f 64 4a 09 3f
       -0.5418263 -0.52602595 0.524257 0.53629136
0003e0 b3 3d 07 3f 8d eb 09 3f 96 5c 06 3f a6 5f 08 3f
       0.5282852 0.53875047 0.52485025 0.5327095
0003f0 bb 9e 09 3f 54 89 0a 3f 04 35 09 3f 02 8a 07 3f
       0.5375783 0.54115796 0.5359652 0.5294496

fully_connect1.bias f4 [10]
000000 37 ba 06 3f 3b 0e 07 bf 1b 81 06 3f 29 7f 07 3f
       0.5262789 -0.5275609 0.5254075 0.52928406
000010 d2 48 09 3f d0 34 09 bf ed 1a 05 bf 81 1a 06 3f
       0.5362674 -0.5359621 -0.5199421 0.5238419
000020 b2 40 05 bf da 64 08 bf
       -0.5205184 -0.5327889

fully_connect2.weight f4 [1, 10]
000000 48 d8 34 bf 5e 9b a9 3e 29 6a 22 bf 94 89 19 bf
       -0.7064252 0.33126348 -0.6344324 -0.5997555
000010 ac 38 22 bf b5 21 db be f0 7b e1 be 0d 20 31 bf
       -0.63367724 -0.42799154 -0.4403987 -0.6918953
000020 83 4c ac be 80 c5 d9 be
       -0.33652124 -0.42533493
